checkpoints/QM9/Aug01-16-38-03_final.pth (torch, 360535 bytes, 306 tensors)

layers.0.weight f4 [4, 16]
000000 3e 18 0b 3f 4c c1 85 3e d7 45 9d be 94 aa 22 3f
       0.54333866 0.26124036 -0.30717346 0.6354153
000010 30 32 91 be 87 69 7b 3e 95 0b 7e 3e 4a 9a 30 3e
       -0.28358603 0.24551974 0.24809106 0.17246357
000020 47 ef a6 3f 16 ba d6 3b 24 a9 80 3e ff a7 8a 3e
       1.3041772 0.006552945 0.25129044 0.27081296
000030 8f 21 9f bd 79 ef 19 3f 8b 2a 3b be 8c b5 8e 3e
       -0.07770073 0.6013103 -0.18277948 0.27872884
000040 ad 57 83 3f 16 1f a0 3e 90 38 02 bf 56 6a a7 bf
       1.0261132 0.31273717 -0.5086756 -1.3079326
000050 56 03 f1 be 8d 42 5c 3d 09 23 c1 3e 96 f1 1c 3f
       -0.47072858 0.053774405 0.37722042 0.6130613
000060 91 2e 2c 3f 54 f9 84 bf 82 c6 5b 3e dc 5f 92 3e
       0.67258555 -1.0388589 0.21462443 0.2858876
000070 70 7e 5e be 62 54 44 3e 58 1e 05 3f 98 32 e6 3e
       -0.2172792 0.19172814 0.51999426 0.44960475
000080 7a 6e b8 3f 31 4f 49 3e 78 c3 46 bc 34 3f 64 3f
       1.4408715 0.19659115 -0.012131564 0.8915894
000090 a4 a3 03 be 21 59 29 3e 61 20 17 3e 54 f8 b6 3e
       -0.12855393 0.16537906 0.14758445 0.35736334
0000a0 7d 08 c5 3e b0 a0 77 3e 24 88 c6 3e fb 60 e1 3d
       0.3848304 0.24182391 0.38775742 0.11004826
0000b0 83 97 a3 bc 48 76 82 3e 37 38 78 bf e4 38 2c 3d
       -0.019969707 0.25480866 -0.9696078 0.042046443
0000c0 80 3a bf be 5c bb ef bd 22 bb 1e bf 65 43 77 bf
       -0.3734932 -0.11705658 -0.6200429 -0.9658721
0000d0 47 c2 ba 3f d1 3e ae 3d 54 87 0d bf a2 4f bf 3e
       1.4590539 0.08508075 -0.5528462 0.37365443
0000e0 bf 69 2f 3f 71 9d b1 bf 57 a7 57 3f e2 b2 13 bf
       0.6852073 -1.3876172 0.84239715 -0.5769483
0000f0 7d 76 48 3f 4b a7 a3 3e ef 06 45 bf 88 a6 12 c0
       0.783058 0.31963572 -0.76963705 -2.2914143

layers.0.bias f4 [16]
000000 59 0a 33 3d fb 0c 1e 3e 9c 24 bd 3e 3e c2 a7 3c
       0.04371104 0.15434639 0.36941993 0.020478364
000010 a7 73 fb 3e 3d e7 99 3e 2e f1 c5 be aa 8f d8 be
       0.49111673 0.30059233 -0.38660568 -0.42297107
000020 5d cb 80 be cb bd 88 be 7f 7c ac bd 74 2c ce be
       -0.25155154 -0.267073 -0.08422183 -0.4026829
000030 d6 a1 11 be c6 8d ee be 4c 75 fe 3e 8b 42 ae 3e
       -0.14221892 -0.4659254 0.49698865 0.34035143

layers.1.weight f4 [16, 16]
000000 10 37 dd 3e ba a9 ab bd 80 3f d0 3c e1 c7 6e 3e
       0.43206072 -0.08381982 0.025420904 0.23318435
000010 54 0d 2b bf f1 a3 05 be 0c 37 0d be bf 84 5c bf
       -0.6681721 -0.1305082 -0.1379053 -0.86140054
000020 fa 5b 5f 3e 5c 5f e3 3e d1 b3 18 bf 16 7d d6 3e
       0.2181243 0.4440869 -0.5964938 0.41892308
000030 97 fd a1 3e b2 cc da 3e 0e e2 7c 3d b1 00 37 bf
       0.31638786 0.42734295 0.06173902 -0.7148543
000040 58 40 37 3d 6a 91 43 3f 44 dc 47 bf 87 87 5b 3f
       0.044739097 0.7639376 -0.78070474 0.85753673
000050 5e 61 85 3e c4 7c 05 bf 89 48 e0 be 99 60 b9 be
       0.26050848 -0.521435 -0.4380534 -0.3620651
000060 3c 8e 70 3e 4e 6b cd bd 27 3c eb 3d 7e 6d a5 3e
       0.23491758 -0.10030232 0.114860825 0.32310098
000070 3d e7 1b 3f 76 16 18 3f 90 be be 3d 55 49 07 be
       0.60899717 0.5940927 0.09313691 -0.13211568
000080 c8 1d 0a 3f dc e1 4e bf 50 80 94 3d 01 55 33 3d
       0.5395169 -0.80813384 0.07251036 0.043782238
000090 f5 6a cd be c9 67 39 be a6 9f 50 3e 9d ac ba 3e
       -0.40120664 -0.18105997 0.20373401 0.36459818
0000a0 39 07 18 be 12 d8 06 bf 91 90 08 3f b0 d9 0b 3f
       -0.14846505 -0.5267345 0.5334559 0.5462904
0000b0 99 5b 36 bf 7c 3e 47 3f 01 dd 4c bd 71 d6 01 be
       -0.71233517 0.7782972 -0.050015453 -0.12679459
0000c0 dd 74 49 3e 87 50 9d be 58 1e 7c 3b 81 11 8c be
       0.19673486 -0.307255 0.0038470235 -0.27357104
0000d0 c1 42 46 bf 19 05 8d 3d 95 23 5a 3e 0a d6 b0 be
       -0.7744561 0.06885738 0.21302636 -0.345383
0000e0 02 b0 31 bd eb f4 1e 3e c4 dc 35 3e d2 04 91 3c
       -0.043380745 0.15523116 0.17759997 0.017702494
0000f0 db 11 1b bf 13 d3 fd bd c5 4d 24 be 55 7c 04 be
       -0.6057412 -0.12393775 -0.16045292 -0.12938054
000100 f1 0e 03 be 0c 0f 59 bf 89 dc 47 3f bb 74 0e be
       -0.12798668 -0.84788585 0.78070885 -0.13911717
000110 cd ab 3e bf 64 19 60 3f 3e 0a 46 3e 5f fd c1 3e
       -0.744809 0.87538743 0.19339845 0.3788862
000120 d7 df 3f 3f 38 63 12 3e da 92 c0 3e ef 69 38 be
       0.7495093 0.14295661 0.3761204 -0.1800916
000130 67 ee b6 3c b9 66 36 bf 21 2c 01 bf 3a 1c 1a 3f
       0.022330476 -0.7125049 -0.5045796 0.6019932
000140 9e a5 57 bf 36 3e 40 3f 88 2f 05 bf 58 ca 48 3f
       -0.84237087 0.75094926 -0.5202565 0.7843375
000150 41 ea 38 3f 21 d4 aa be 4a b4 18 bd 76 3e 0b be
       0.72232443 -0.33364967 -0.037281312 -0.13598046
000160 d6 ae 97 3e 3c ef 2c bf 83 32 be 3e e8 d9 28 3e
       0.29625577 -0.6755254 0.37147912 0.16489375
000170 1a 7b c8 be 88 ce a5 3e 0d 01 b4 be f6 e4 a8 3e
       -0.3915642 0.32384133 -0.35157052 0.32987183
000180 6d 23 da 3e d8 73 36 3e d5 8b e7 be 04 34 0b 3f
       0.42605153 0.17817628 -0.4522387 0.54376245
000190 80 ab 34 3f ef f9 2a be 4c b4 6a bd 66 6b 17 bf
       0.7057419 -0.16696905 -0.05730085 -0.5914825
0001a0 83 6c 1e bf 53 03 85 3e 4f bb 28 bf 66 03 3b 3b
       -0.61884326 0.259791 -0.6591081 0.0028535961
0001b0 d8 d6 13 3f cc a6 04 3f d5 48 e5 bb 1d 0a 42 bf
       0.577497 0.5181701 -0.0069972076 -0.7579668
0001c0 4e cc 81 be ad 73 56 3f 6a f7 1d be 68 59 f4 bc
       -0.25351185 0.8377026 -0.15426412 -0.029827788
0001d0 0b bd 8b be 16 e7 ad be 0f 10 a1 be fa 7a 11 bf
       -0.27292666 -0.33965367 -0.31457564 -0.5682827
0001e0 b6 c5 e0 bd 24 90 1f 3f ad 8e b0 be 1f ee 82 be
       -0.1097521 0.62329316 -0.34483853 -0.25572297
0001f0 0c e6 38 3f 10 d0 10 bf 7b 3e 23 be 29 e0 b7 bd
       0.72226024 -0.5656748 -0.15941803 -0.08978302
000200 00 5b 55 3e 1e cd 9b 3d 4e 76 33 3e 9e 8d 7e be
       0.20835495 0.076074824 0.17525598 -0.2485871
000210 e6 6a 99 3d 93 da a0 3b fa 39 22 be d9 8c 22 bf
       0.074910924 0.0049088686 -0.15842429 -0.63496166
000220 89 f1 95 3e 5b aa 4b 3f dd 13 09 bf 15 bf a3 be
       0.2928584 0.79556817 -0.53545934 -0.31981722
000230 af 26 53 bd 26 39 70 be 72 41 86 bd 59 61 66 be
       -0.051550563 -0.234593 -0.065554515 -0.22498073
000240 f3 eb 6a bd dd 35 97 3e aa 69 dd be ba dc 8a 3e
       -0.057353925 0.29533282 -0.43244678 0.27121526
000250 72 a0 8d 3e 01 c8 79 be 35 2a f6 3e 20 c7 c7 3e
       0.27661473 -0.24392702 0.48079076 0.39019108
000260 9b a2 ce be 25 8a 34 bb 3b 9b 20 3e c3 20 09 3f
       -0.40358433 -0.002754816 0.15684216 0.53565615
000270 25 8f 3d bf f7 52 45 3f 16 82 92 3e 91 e6 71 bd
       -0.74046546 0.7707972 0.28614873 -0.059057776
000280 cb 92 fe be 24 8e ca 3e 53 ed d7 3d c0 67 d8 3e
       -0.4972137 0.3956157 0.10543313 0.42266655
000290 8a 91 b0 be 8d b7 e7 3e ce 53 76 be 05 81 55 bf
       -0.34486037 0.45257226 -0.24055406 -0.83399993
0002a0 07 11 23 3f 46 72 16 3f f1 b0 41 bc b2 05 97 be
       0.63697857 0.5876812 -0.011821971 -0.29496533
0002b0 22 e9 df 3e a5 47 0e bf 68 1d 4a 3e e1 0b 14 3f
       0.43732554 -0.5557807 0.1973778 0.57830626
0002c0 89 ff b0 3e 54 ad 17 bc e3 96 32 bf 1d f3 21 3f
       0.34569958 -0.009257633 -0.69761485 0.63261586
0002d0 7d d3 b2 3e 47 91 bc be 37 a9 55 bf b6 a4 10 bf
       0.34926978 -0.36829588 -0.83461326 -0.5650133
0002e0 71 15 78 3c 85 c4 2e 3f b4 14 bd bd 58 31 27 3f
       0.015141831 0.68268615 -0.092324644 0.6530967
0002f0 ca 0d 01 3f 29 2d f1 3e ec db 0d 3f ee 52 25 bf
       0.50411665 0.47104767 0.554137 -0.64579666
000300 36 97 0c be 92 e7 bd be 46 9e a9 3e 2b 93 76 be
       -0.13729557 -0.37090737 0.33128566 -0.24079578
000310 fc 6c 07 bf c3 5d 65 3f 56 54 da 3e c1 bb 87 be
       -0.5290067 0.89596194 0.42642468 -0.26510432
000320 83 dc 69 3f 82 03 23 3e cc 9c 14 be 24 7d 3f bf
       0.913521 0.15919307 -0.14512938 -0.74800324
000330 10 dd d6 be 52 57 f2 be 2b bf 17 3e 7a c9 1c 3e
       -0.41965532 -0.47332245 0.14819019 0.15311232
000340 8b 92 e8 be 17 c8 58 3f 6b b3 64 be 28 6e 31 3f
       -0.45424303 0.8468031 -0.22334068 0.6930871
000350 d0 e9 0e bf 8e 75 ae 3e 72 2d 85 be 6f 31 40 bf
       -0.5582552 0.34074062 -0.26011235 -0.7507543
000360 6d 88 2a 3e 87 ec 67 3e 34 ca bf be 61 a1 a9 be
       0.16653605 0.22648822 -0.37458956 -0.33130935
000370 6c 83 91 be e3 1c 96 3e 4d 85 08 3f 94 52 81 3e
       -0.2842058 0.29318914 0.533284 0.25258315
000380 b4 85 1d bd c2 1d e9 be db 70 50 be da 33 ed be
       -0.038457587 -0.45530516 -0.20355551 -0.46328622
000390 3b 8e 13 3f a6 45 3f 3e 71 f3 54 be c1 e4 a5 3e
       0.576389 0.18678913 -0.2079599 0.32401088
0003a0 3a 14 6b be 0a fa f2 bd 13 26 96 be a0 87 f1 3e
       -0.22956935 -0.118640974 -0.29325923 0.47173786
0003b0 94 b0 87 3e 92 c2 06 bf d9 db df bc 5c c5 27 3d
       0.26501906 -0.5264064 -0.027326511 0.0409597
0003c0 f0 0d 4d 3f 67 c3 2d bf a2 f2 43 3d 60 ed 2f bf
       0.8009939 -0.67876285 0.047838815 -0.6872158
0003d0 28 30 99 be 9d b0 80 be f2 ab 51 be 67 d6 49 3e
       -0.29919553 -0.25134745 -0.20475748 0.19710694
0003e0 eb be c2 be d6 07 ce bd 26 9b 9b be 0b e2 e3 3e
       -0.38036284 -0.10060088 -0.30391806 0.44508395
0003f0 58 08 be bc c5 7e 97 be eb 36 dc 3e c8 6e 68 bf
       -0.023197338 -0.29588905 0.4301065 -0.9079404

layers.1.bias f4 [16]
000000 f0 e0 79 be cb e3 4e 3d 6e 4e f7 3d b2 26 7d bb
       -0.24402213 0.05051021 0.12075506 -0.00386278
000010 eb f3 e9 bc 7c 3f 11 be 70 63 03 be 85 7b c4 3e
       -0.028558692 -0.14184374 -0.12830901 0.38375488
000020 e6 88 c8 3d 56 73 04 be dc 8c c2 3e ab 11 76 3e
       0.09791736 -0.12934622 0.37998092 0.24030177
000030 85 75 1a 3e 15 96 34 bd b5 48 68 be d7 75 b7 3e
       0.15083893 -0.044088442 -0.22683986 0.35832092

final.linears.0.weight f4 [72, 36]
000000 97 38 0a bf 69 40 6a bf 2d 3e 02 be 3e d9 5e 3f
       -0.539926 -0.9150453 -0.1271903 0.87050235
000010 82 44 2e bd a2 0a b7 bd 4f 9e 10 bf 59 ec 50 bd
       -0.042545803 -0.08937575 -0.5649156 -0.05100665
000020 dc 19 02 3e 92 a6 86 be 19 49 33 3e 15 5e b6 3e
       0.12705177 -0.26298958 0.17508353 0.35618654
000030 a0 07 01 3e f8 21 10 bf 39 65 57 bc 47 11 2f bd
       0.12600565 -0.5630183 -0.013146692 -0.042741086
000040 bb 04 7d 3d ba db 7a be d6 0a 15 3f d0 dd 1b be
       0.06177209 -0.24497882 0.5821966 -0.15221334
000050 14 a5 d2 3d 7f a1 3e 3e 77 eb 92 be 21 df cb bd
       0.102853924 0.18616293 -0.2869527 -0.09954668
000060 df cc 82 3b 9a 59 53 be 9f b5 b5 bd 68 a6 79 be
       0.0039917077 -0.20639649 -0.08872532 -0.24379885
000070 21 9c 42 be a0 e5 23 be 33 8a 35 3e b7 88 5a bc
       -0.19004871 -0.16005564 0.177285 -0.013338259
000080 b1 72 10 be 70 08 a4 3d 40 f1 a5 3d 1e 12 04 3d
       -0.14106251 0.08009422 0.081026554 0.03224384
000090 6f b6 f8 3c 91 af 39 3e 5d 98 1c be 5d b4 49 3f
       0.030360429 0.1813338 -0.15292497 0.7879084
0000a0 52 96 8f 3d 68 9b e4 3e 4f 3f 7e be d7 e7 8b 3e
       0.07011093 0.44649816 -0.24828838 0.27325317
0000b0 8d 10 08 be 91 c2 78 3e de 4c 8f 3e 78 99 ba 3e
       -0.13287564 0.24292971 0.27988333 0.36445212
0000c0 13 85 04 3e 71 d3 1f 3e a1 6e b3 3e dc ef 32 3e
       0.12941389 0.15608002 0.3504534 0.17474312
0000d0 30 40 e0 bd 18 92 09 3f 2e 3a 30 be f2 d8 4e 3e
       -0.10949743 0.53738546 -0.17209694 0.20199946
0000e0 48 f5 f7 be f8 eb 08 3f bf 6f fc 3d 9d 53 ca bd
       -0.48429322 0.5348506 0.123260014 -0.09879229
0000f0 9f ee 3e 3e 3f 5b 32 bd ec 5c 73 3e 94 8f 20 3e
       0.18645714 -0.04354405 0.23765916 0.1567977
000100 1e bd 72 3e ac bf ad be 82 00 97 3d 3a d4 9a be
       0.23704955 -0.33935297 0.07373144 -0.3024004
000110 c5 a7 43 3e 16 44 5a be 44 c9 d0 bd 90 13 ba 3e
       0.19106968 -0.21315035 -0.10194638 0.3634305
000120 26 13 25 bd ca e1 69 bf 87 ac 90 be d7 be 39 3f
       -0.040301464 -0.9136015 -0.28256628 0.72556823
000130 e2 e2 35 bf c6 2b 78 be f3 3f a4 3e fe 05 d2 be
       -0.7104932 -0.24235448 0.3208004 -0.41020197
000140 f2 f5 5d 3e 71 a1 38 be a5 c2 ac be a7 11 10 bf
       0.21675852 -0.18030335 -0.33742252 -0.56276935
000150 80 62 0f bf 88 44 00 bd 23 a4 a0 be 2a de 97 be
       -0.56009674 -0.031315356 -0.31375226 -0.29661685
000160 e7 dd 80 be af 0f 73 bf b9 f7 fc 3e d4 8f 89 3e
       -0.25169298 -0.94945806 0.49407747 0.26867545
000170 ed 90 6f be 22 90 16 3f c7 d4 55 bd e6 5a e9 3d
       -0.23395129 0.5881368 -0.052204873 0.113942906
000180 9e 6a d3 3d 65 c1 42 be b1 f7 47 be c1 41 00 be
       0.1032307 -0.19019087 -0.1952808 -0.12525083
000190 52 64 bb bc 0a 28 86 bd ce 5e 55 bc c7 7b 0e 3d
       -0.022874985 -0.065506056 -0.0130230915 0.034786012
0001a0 f1 e2 fc 3c 7c 5b 63 3e f4 79 ff bd 02 47 67 3e
       0.030869933 0.22202867 -0.124744326 0.22585681
0001b0 5e 94 1e 3f 59 bc 60 3f 75 7d 3f 3f 79 91 e8 bd
       0.6194514 0.87787396 0.7480081 -0.11355872
0001c0 66 10 ed be 4e a4 68 3e d9 15 dd bc b0 4d 48 3b
       -0.46301574 0.22718927 -0.026987957 0.0030563883
0001d0 95 df 5f bd 32 99 ab 3e 50 5c 9c bd a2 51 50 bd
       -0.054656584 0.33515316 -0.07634795 -0.0508591
0001e0 07 3a a7 3e f2 61 0e be 1a 9c e4 bc e1 8c 36 be
       0.3266146 -0.1390455 -0.027906466 -0.17827179
0001f0 7a 82 44 3e 19 8a dd 3d 45 09 06 be c2 ea 9b be
       0.19190398 0.10817356 -0.13089474 -0.30452543
000200 98 bc 81 be 4c e0 04 3e 7f cd f2 3d 41 af 62 be
       -0.25339198 0.12976187 0.118556015 -0.22137167
000210 83 6b 3a 3e a3 de c4 3e c2 76 81 3e e9 3b 71 3d
       0.18205075 0.38451108 0.25285918 0.058895025
000220 03 a9 5c 3e 72 12 db be 11 71 01 be b0 5e 8a be
       0.21548848 -0.4278751 -0.12640788 -0.27025366
000230 fa 3a 93 be 12 9c 50 3c 97 9c 44 bd 0c 85 eb 3e
       -0.28755933 0.012732523 -0.0480009 0.45999944
000240 20 82 8d 3e 5c a9 dc 3e 6e a0 c9 be 4a 61 32 3e
       0.2763834 0.4309796 -0.3938021 0.17419925
000250 e7 2a 8c bd dc e4 b6 3d 26 e5 50 be 61 35 44 3e
       -0.068441205 0.0893037 -0.20399913 0.19160987
000260 ad 1e 06 bf cf 90 cc 3d 05 72 cf 3e 6a cd 0d be
       -0.5239056 0.099885575 0.40516677 -0.1384789
000270 7a c5 a3 3d 05 6d c2 bd 88 e6 90 be 62 22 d5 3e
       0.0799665 -0.0949345 -0.2830088 0.41627795
000280 2b 75 ed bd 96 56 5b 3e 62 39 6a bc f9 c2 b4 3e
       -0.11594614 0.21419749 -0.014295908 0.35305002
000290 67 b8 8e 3e 33 75 8c bd 85 47 c1 be 58 f0 2d 3e
       0.27875063 -0.068582915 -0.37749878 0.16986215
0002a0 d0 bf d2 3c 7b ac 82 be 89 d5 fd 3d e7 43 a3 3e
       0.025726229 -0.25522217 0.12394244 0.31887743
0002b0 de f4 63 bd c4 7a d2 be 9b 30 e6 3d a2 16 84 3e
       -0.055653445 -0.41109288 0.112397395 0.25798517
0002c0 cf de 14 be 1f 5d 84 3e 79 fd a6 bd 15 82 14 be
       -0.1453812 0.25852296 -0.08153815 -0.14502747
0002d0 da f4 31 3c cc 05 cc be 56 62 1f 3e f2 3f 04 3f
       0.0108616 -0.39848173 0.15564856 0.5166007
0002e0 e4 69 a3 3d 63 80 df 3d bd 87 4a 3e 0d b0 52 be
       0.079791814 0.1091316 0.19778343 -0.2057497
0002f0 39 c2 09 be 2c bb 4d 3d fd 69 8c bd 6b 8d a0 3d
       -0.13452996 0.05022733 -0.06856153 0.07839473
000300 f0 00 b6 3d b1 aa d4 bd 97 a2 bf be ef 19 e4 bc
       0.088868976 -0.10384119 -0.37428734 -0.027844397
000310 29 91 02 be 34 35 9f 3c 6c 82 19 3e 6f 69 83 3e
       -0.12750687 0.019434549 0.14991158 0.25666377
000320 a2 9f 24 be bd 74 1d 3e 8c 57 c9 be f7 7c b7 bd
       -0.1607652 0.15376563 -0.39324605 -0.08959382
000330 35 57 41 3e 4a 88 80 be 94 6c ae be e4 e5 40 3c
       0.18880923 -0.2510398 -0.34067214 0.01177356
000340 a3 90 9f 3d 2c 15 09 3e 65 13 04 be 9b e0 96 3e
       0.07791259 0.13386983 -0.12898023 0.29468235
000350 cb 63 67 3d b0 d9 a1 bd c9 d1 bf 3e 09 88 a0 bd
       0.056491654 -0.07902849 0.3746474 -0.07838447
000360 da ae 5c bf bc d6 03 bf d5 95 d4 3f 86 75 14 bf
       -0.862043 -0.51499534 1.6608225 -0.57991827
000370 e6 af 48 3d 75 ca a5 3b 1f 88 a3 bd 01 12 0c 3e
       0.048995875 0.005059535 -0.079849474 0.13678743
000380 c6 02 b7 3e 23 28 0e bd f9 0c 0b be 49 12 0d bd
       0.35744303 -0.034706246 -0.13579167 -0.034441266
000390 b0 57 38 be f9 d2 25 be 7d ff 04 3d ea 81 91 3b
       -0.180022 -0.16193761 0.032470215 0.004440536
0003a0 13 f5 76 3e 22 27 05 be 7c 39 4b 3e 35 ca 6b 3e
       0.24116926 -0.13003209 0.19846147 0.23026355
0003b0 11 1f 12 3d 57 d4 e8 be dd 00 a9 3e f6 0d d0 be
       0.03567416 -0.45474502 0.3300847 -0.4063565
0003c0 88 3a 9b be 1b a2 93 3d 5e 02 6b be eb d3 a5 be
       -0.30318093 0.072086535 -0.22950122 -0.32388243
0003d0 58 50 b5 bd 51 cf 8f 3e 7f d0 dc 3c 91 43 76 bd
       -0.08853215 0.28087857 0.026954887 -0.06012303
0003e0 8a fb a0 bd 71 92 59 be 00 fa 52 3e 0b 61 08 be
       -0.07860477 -0.21247269 0.2060318 -0.13318269
0003f0 33 22 20 bf 86 a0 3e bf 57 bd ab 3f 2f 75 a5 3e
       -0.62552184 -0.7446369 1.3417157 0.32315966

final.linears.0.bias f4 [72]
000000 db 15 3f 3e 92 aa 15 3e ea ac d4 3e f3 6b f5 3c
       0.18660681 0.14615849 0.41538173 0.0299587
000010 b8 f6 0e bd b1 55 a7 3d 17 5c 66 3d 7b 8b 3c 3e
       -0.034903258 0.08170641 0.056240167 0.18412583
000020 48 80 88 bc 4e e4 18 be ca 7f 5b bd 2c 68 c6 3e
       -0.016662732 -0.14930841 -0.053588666 0.38751352
000030 09 4f 46 be 67 da 91 be 5d 89 bb 3e 6c a2 42 be
       -0.19366087 -0.2848694 0.36628237 -0.19007272
000040 e8 70 aa bd 22 1a 72 be 96 0e bd 3d 2d ae 3d 3e
       -0.083223164 -0.23642781 0.09231298 0.18523474
000050 e2 00 a1 3d e6 07 22 3e 64 56 13 3e b9 08 90 3d
       0.078614965 0.15823326 0.14388424 0.07032914
000060 4a 3d 57 3e fa fa 3e 3e 26 ff 7b 3e d6 10 9b 3e
       0.21019474 0.18650427 0.2460905 0.30286282
000070 7b 92 3e be bb 99 ba 3c c7 9b 01 bd 61 ef 68 be
       -0.18610565 0.022778383 -0.0316427 -0.22747566
000080 4f dd b0 bd ba b3 5a 3e 00 ca b0 3d a2 2c 10 3e
       -0.08635961 0.21357623 0.086322784 0.14079526
000090 f1 f8 4e 3e 0a c6 6a 3e 52 76 52 be 1f ed 99 3d
       0.20212151 0.22927108 -0.20552948 0.075159304
0000a0 b5 5a 35 3e 40 af dc bd bf 17 a2 bd 32 3b a1 3d
       0.17710383 -0.10775614 -0.079146855 0.07872619
0000b0 66 ad ae 3e 20 67 4b 3b 4d 00 9a 3e e0 21 53 be
       0.34116668 0.003103681 0.30078354 -0.20618391
0000c0 53 05 84 3e 85 cb 6f 3e a7 cd 65 3e fa c3 07 3e
       0.25785312 0.2341748 0.22441731 0.13258353
0000d0 1d b6 e9 bd 73 4a 8a 3e c1 e1 af 3b a5 e2 1a 3e
       -0.114116885 0.27009925 0.005367488 0.1512552
0000e0 90 a2 73 be fe 80 9c 3b 1b 67 77 be d8 75 11 3e
       -0.23792481 0.0047761193 -0.24160425 0.1420511
0000f0 31 a2 bb bd 33 af a7 3e da b2 9a 3b 3f 65 66 bd
       -0.09161795 0.32750854 0.004721028 -0.0562489
000100 89 17 33 3e f7 c7 5c 3e 4a 2c 5b be 0c 04 cd 3e
       0.17489447 0.21560656 -0.21403614 0.4004215
000110 97 2d 05 be ac e1 75 be b1 6c 83 3e e5 35 84 3e
       -0.13005672 -0.24011868 0.25668862 0.25822368

final.linears.1.weight f4 [72, 72]
000000 05 2f 0d bf a7 51 9e be d7 8c 35 bf 98 5c d2 be
       -0.5514987 -0.3092167 -0.7091803 -0.41086268
000010 3b e5 69 be 03 17 9e be 42 78 f8 3d 0e 0b e5 bd
       -0.2284135 -0.30876932 0.12132312 -0.11183749
000020 42 80 35 be 67 0c 66 bd 43 f0 69 be af 0c 2f be
       -0.17724708 -0.05616417 -0.22845559 -0.17094682
000030 1f 0c 67 bf aa f1 83 be d0 28 9b be 7d 1a 8a be
       -0.9025287 -0.25770313 -0.30304575 -0.26973334
000040 4f 12 4a bc 93 02 cd 3d 57 0f bd 3d f0 2b 18 bf
       -0.012333467 0.100102566 0.092314415 -0.59442043
000050 42 d0 ac be 1a 1c 2d bf e5 48 af be c4 c8 24 be
       -0.33752638 -0.67621005 -0.34235302 -0.16092211
000060 c5 0e d2 bc 53 0b d0 bd 65 30 d1 be 66 3b f0 be
       -0.025641808 -0.1015841 -0.40857235 -0.46920317
000070 3a 5c 84 bb 93 33 f3 be f4 28 56 be 3e e5 21 be
       -0.0040393146 -0.47500286 -0.2091406 -0.15810105
000080 0c 6c c9 be d7 06 ea be c5 86 7f be 68 09 ef bd
       -0.39340246 -0.45708343 -0.24953754 -0.11671716
000090 03 cb 60 be 3c 35 8c be 97 a8 f4 bc 4f e8 89 3d
       -0.21952443 -0.27384365 -0.029865546 0.067337625
0000a0 9e c0 10 bf da 74 1e bd e8 2f 9d be 65 f8 ef bd
       -0.5654391 -0.038685657 -0.30700612 -0.11717299
0000b0 d5 ce c2 be 25 b3 c5 bd 45 1e fe be dd 6e 92 be
       -0.38048425 -0.0965331 -0.4963247 -0.28600207
0000c0 6a 93 09 be cc 97 01 bf 6b 3b 6c be 08 9e 8b be
       -0.1343514 -0.5062225 -0.23069541 -0.27269006
0000d0 3d ea 98 be 1b e5 de be c5 58 ad be 1f d9 41 be
       -0.2986621 -0.4353417 -0.33856788 -0.18930481
0000e0 2b f9 33 bf f7 ff 3c bf b8 fd 94 be 9b a5 9f 3d
       -0.70302075 -0.7382807 -0.29099822 0.077952586
0000f0 9c a0 d2 bd 8b e4 6e bf 9e 29 84 be 4e bb 45 bd
       -0.1028454 -0.9331748 -0.25813 -0.04827433
000100 28 f0 be be ba 59 d8 3c fc 0f 18 bb 7a a0 04 bf
       -0.372926 0.026409972 -0.0023202887 -0.5180737
000110 eb 72 47 be a6 37 fb be c3 4e 58 bf 56 54 91 be
       -0.19477431 -0.49065894 -0.8449518 -0.28384656
000120 57 41 94 be 94 5a b0 bd 1d 65 c7 3d fe 68 21 be
       -0.289561 -0.086110264 0.09736083 -0.15762708
000130 eb 92 89 3e 7f b4 e8 bd 17 25 92 bf 6f 33 31 bf
       0.26869902 -0.11362552 -1.1417569 -0.69219106
000140 5f 29 dc 3e f5 a4 d8 3d 07 8e 8b 3d f1 b2 0c be
       0.43000314 0.10578338 0.06814199 -0.13740136
000150 0c a8 0c 3f c0 f9 99 bd dc 0d 2e 3b 06 6f 90 bd
       0.5494392 -0.07518339 0.0026558554 -0.07052426
000160 d8 12 73 3e dc 4e 0f 3f 96 54 a5 be 72 f3 e5 3d
       0.23737657 0.55979705 -0.32291096 0.11228074
000170 4b 6a d8 3d e7 44 b1 3e fb 3d 82 bf f5 6d 36 bf
       0.10567149 0.3462288 -1.0175165 -0.7126153
000180 63 51 72 be 4e d3 93 bf 0a 3d 08 bf 3b e2 05 bd
       -0.23663859 -1.154886 -0.5321814 -0.032686453
000190 40 07 d0 3d 01 ef c9 be 2f 48 36 bf 6d 08 2e 3f
       0.10157633 -0.39440158 -0.71203893 0.67981607
0001a0 12 b4 1c 3e d9 95 10 3e af e8 40 3e f3 fe b6 3e
       0.15303066 0.14119662 0.18838762 0.35741386
0001b0 9d 43 2a be e3 e2 b3 be b2 fe bd 3d eb a8 0f 3e
       -0.16627355 -0.35134038 0.09277095 0.14029281
0001c0 5d 7f 8b be f0 e3 b7 be b7 3e 36 3e bd 9d e9 bd
       -0.27245608 -0.3591609 0.17797361 -0.11407039
0001d0 2a 3d e5 be b1 6c 10 3d 38 e9 73 bf e6 d0 a7 3e
       -0.44773227 0.035259906 -0.9527774 0.32776564
0001e0 e8 6a 9d be 48 af 00 be d2 8a 5c bf 22 89 2f 3e
       -0.30745625 -0.12566864 -0.86149323 0.17142156
0001f0 7e 2d 65 3d a3 77 04 be 8a 77 82 be 9e f8 1c be
       0.055951588 -0.12936263 -0.25481826 -0.15329215
000200 00 e4 62 3f 81 ac f0 bd ba d9 bc 3e 16 3a 6f bf
       0.8862915 -0.117516525 0.36884862 -0.9344801
000210 67 6d 17 3f e9 c4 a5 be db a8 f2 be 63 7a 01 3e
       0.5915131 -0.32376793 -0.47394451 0.12644343
000220 bb e9 9b 3b 36 60 48 be ef 3c 33 be 36 f5 ae be
       0.0047580875 -0.19567952 -0.17503713 -0.34171456
000230 d0 93 86 3d e8 4c 89 3e fb ef 84 be 4c 15 fc be
       0.06571162 0.26816487 -0.2596434 -0.49234998
000240 2f 34 ea be 1a 3e 04 bf c3 88 89 be d5 e0 e9 be
       -0.45742938 -0.5165726 -0.26862153 -0.45679346
000250 fe 0a 09 be e7 99 84 be 7f c2 37 be 19 9a 73 be
       -0.133831 -0.25898668 -0.17945288 -0.23789252
000260 9e 98 bf be a7 9f 0b bf 1b 98 d2 be 85 4d ca bc
       -0.37421125 -0.54540485 -0.41131672 -0.024695167
000270 e3 78 13 bf f5 e9 c9 be 54 77 54 be 49 dc a7 be
       -0.57606333 -0.39436308 -0.20748645 -0.32785252
000280 4d 89 20 be e0 e0 30 be 36 ad a8 bc 71 a6 1a bf
       -0.15677376 -0.17273283 -0.020590406 -0.6041022
000290 66 10 c5 be bd a4 9a be 09 18 7a be 14 9a 31 be
       -0.38489074 -0.3020381 -0.24423231 -0.17343932
0002a0 c4 9e 97 be 10 7a 0a bd d9 3c 90 be 81 95 8e be
       -0.29613316 -0.033807814 -0.28171423 -0.27848437
0002b0 2c 79 b9 be 91 f7 a4 bd 15 ef 21 be c5 95 18 bd
       -0.3622526 -0.08055032 -0.15813859 -0.037252206
0002c0 e0 50 0f bf a3 08 18 be fe 14 b1 be 7d 1e 11 be
       -0.5598278 -0.14847045 -0.34586328 -0.14171787
0002d0 f4 ac 52 bd fb 82 98 be 2a b8 ac be 80 cf 99 bd
       -0.051434472 -0.2978743 -0.33734256 -0.075102806
0002e0 b3 e1 99 be c9 20 01 bf 1a f9 7d bc ff 62 df be
       -0.30055007 -0.5044065 -0.015501285 -0.43630216
0002f0 0b 15 a2 be a8 0d c2 bd cb 2b a6 be f3 4d 60 bf
       -0.3165668 -0.09475261 -0.32455286 -0.8761894
000300 da ce 09 bd 5c b0 14 bf c0 94 65 be f6 d1 36 be
       -0.033644535 -0.58081603 -0.22420025 -0.17853531
000310 d8 d5 33 bf 7c 99 8f 3d 33 b9 07 bf b0 5f b1 be
       -0.70248175 0.07011697 -0.53016967 -0.34643316
000320 ad 1b b5 be df 87 d1 be 47 6d d5 be e1 65 19 3e
       -0.35372677 -0.40923974 -0.41684934 0.1498027
000330 fc 6c 7e bd 20 7a fa be ed a8 e0 3d 12 2c 1a bf
       -0.062115654 -0.489213 0.1096972 -0.60223496
000340 0b 4b 18 bf 2b 71 53 3d dc 6c ff bd d2 ad 58 be
       -0.59489506 0.051621597 -0.12471935 -0.21160057
000350 dc 2c b6 be b9 ae 90 be 7a d0 af be 37 3c 48 be
       -0.355811 -0.28258303 -0.34338742 -0.1955422
000360 a9 11 da be d5 cf af be 2d d8 9a be 80 26 bf be
       -0.425916 -0.3433825 -0.30243054 -0.3733406
000370 e0 3d ba be d0 b0 5a 3b 59 91 53 be 65 43 28 be
       -0.36375332 0.0033369549 -0.20660914 -0.16431959
000380 93 2b 10 be 62 0f 00 bf 6a b2 c9 be 58 28 bc 3b
       -0.14079122 -0.5002347 -0.39393932 0.005742114
000390 c8 d7 d9 be 79 f8 36 bf 29 bc aa be 5f 08 12 bf
       -0.4254744 -0.7147289 -0.3334668 -0.57044023
0003a0 28 5b de be 04 51 88 be 23 be 28 bd e6 82 2d bf
       -0.43428922 -0.2662431 -0.041196954 -0.6777786
0003b0 2e 25 4f be 18 e6 eb be 18 c8 36 bf ae 44 99 be
       -0.20229027 -0.46073985 -0.7139907 -0.2993521
0003c0 f5 8f b9 be 05 2e b0 bd 0f eb 05 bf 7b 38 89 be
       -0.36242643 -0.086025275 -0.52311796 -0.26800904
0003d0 84 21 1c bf da ee 48 bf eb 8f 32 be 00 25 90 bc
       -0.6098864 -0.7848946 -0.17437713 -0.017595768
0003e0 d4 89 5f bf ab 02 1e be d7 89 13 bd 9e 3a ef be
       -0.87319684 -0.15430705 -0.036020126 -0.4672441
0003f0 c0 7a db be b3 a5 a4 be c1 98 80 be a2 85 cf be
       -0.42867088 -0.32157668 -0.25116542 -0.4053164

final.linears.1.bias f4 [72]
000000 c7 69 9c be 54 af 65 be f3 7c ad bc f6 88 d3 bd
       -0.30549452 -0.22430164 -0.021177744 -0.103288576
000010 af ed d1 3e 39 09 4f 3d f9 01 93 be b3 6b 80 be
       0.4100165 0.050545905 -0.28712443 -0.25082168
000020 de 68 23 3e 65 a5 68 3c 87 92 85 be 4a 80 be 3b
       0.15957972 0.014199589 -0.26088354 0.005813633
000030 e0 78 af 3c e1 bc a8 be bb 65 ba be f8 d2 bc bd
       0.021419942 -0.32956603 -0.3640574 -0.092199266
000040 67 a7 6c 3e 70 01 12 3e 8d e1 10 be 23 ca b2 bd
       0.23110734 0.14258361 -0.14148541 -0.08729961
000050 4a c2 8e be c4 6a dc bc 2c b9 0e bc cd 6c 59 be
       -0.27882606 -0.026906379 -0.008711141 -0.2123291
000060 c2 09 0f bd d9 83 c2 3c 97 cf f4 be ce 51 f3 3e
       -0.034921415 0.02374451 -0.47814628 0.4752335
000070 5c dd ab 3e 37 28 5c be 80 aa 18 be 79 3b ec 3c
       0.3356732 -0.21499716 -0.1490879 0.028836953
000080 61 b7 3f 3e 5b d6 83 bd c6 3f 2d bc ad 6d af bd
       0.18722297 -0.064373694 -0.010574287 -0.08565841
000090 12 5a 98 be 3c 0d 3c bd ca 69 8f 3e 9c 9b d5 bd
       -0.29756218 -0.04591106 0.28010398 -0.10430071
0000a0 a1 77 88 bd 5d 30 eb be 5f eb a1 3b ae 22 2d be
       -0.066634424 -0.45935336 0.0049413885 -0.1690776
0000b0 a2 6f 69 be 52 cc 2c bb 16 52 41 3d f2 d5 3f 3e
       -0.22796491 -0.0026366902 0.047197424 0.18733957
0000c0 3b c7 98 bd 0e c7 57 be 35 ce 34 be 43 11 6e bd
       -0.07459875 -0.21072027 -0.17656787 -0.05812193
0000d0 13 15 b8 bd e4 e9 2a 3e 9d 72 bd 3d 8e ed 25 be
       -0.089883946 0.16690785 0.092503764 -0.16203901
0000e0 e2 c3 82 be 10 aa 2c be ec 7f c4 bd bf 36 ab 3e
       -0.25540072 -0.16861749 -0.09594712 0.33440205
0000f0 55 90 b4 3e 9f 48 ba be a7 30 57 be 9c 7a c8 bd
       0.35266367 -0.3638353 -0.21014653 -0.09789011
000100 48 49 f1 bd 86 e3 31 3d 19 c2 66 bd d5 e3 80 3d
       -0.117815554 0.043429874 -0.05633745 0.062934555
000110 d6 29 6c be dd 34 8e bc 37 ea b5 bd f7 fb 3f be
       -0.23062834 -0.017359192 -0.088825636 -0.1874846

final.linears.2.weight f4 [4, 72]
000000 ee 46 f6 bc dd 23 29 bf 99 d4 b9 3e d1 cc cc 3e
       -0.030063119 -0.6607035 0.36295012 0.40000013
000010 a1 53 a6 3e bb 55 31 3e e0 5f 9f bd e4 0c a8 be
       0.3248568 0.1731786 -0.077819586 -0.32822335
000020 fb 32 ef 3d 16 c1 e7 3d fb e7 90 be e6 b0 06 be
       0.11679646 0.11316125 -0.28301987 -0.13153419
000030 5b 5e 35 bd d6 8e 8f 3e 5d 58 e3 be 53 f5 fb bd
       -0.044279438 0.28038663 -0.44403353 -0.12302651
000040 70 b2 70 3e 43 26 47 3d bd 7f be bd 14 bf 5b 3f
       0.23505569 0.048620474 -0.09301708 0.8583844
000050 bf 86 8c be ba 77 89 bd 12 3b de 3c e7 e2 20 be
       -0.27446553 -0.06712289 0.027127776 -0.15711556
000060 16 d9 b8 3d 5d 50 db bd 4f 62 1c 3f 30 87 33 3f
       0.09025781 -0.107086875 0.61087507 0.70128155
000070 53 92 1a 3e a2 86 2c 3e 49 1d fc bd a8 24 f4 3d
       0.15094881 0.16848233 -0.12310273 0.11921054
000080 ea 5c f4 3d 34 5f 54 bc 6b 2f 09 3e 3c 8f 18 be
       0.119317845 -0.012962151 0.13396995 -0.1489839
000090 b3 80 48 be 48 6f f3 bd 47 25 0f bf bb 3b 9c be
       -0.19580345 -0.118864596 -0.55916256 -0.3051432
0000a0 c3 53 7b 3e a7 cc 02 bf 78 f8 02 3e fc e9 3e be
       0.24543671 -0.51093525 0.12790096 -0.18643945
0000b0 ff 9e f1 bd 6c a8 2e 3e 34 a4 f1 3d 0b 01 02 3e
       -0.11797904 0.17056435 0.117988974 0.1269571
0000c0 cb 88 d5 3c 38 bd c9 be 2b 2f 5f bd 6b 1b c0 bd
       0.026066205 -0.39402175 -0.054488342 -0.093802296
0000d0 e9 18 dd 3d 8a 39 28 3d 00 22 e5 3d 9a 31 ba be
       0.10795767 0.0410705 0.111881256 -0.36365968
0000e0 37 79 58 be 2a 83 88 be cc 54 5a bd 27 cc f5 3e
       -0.2113999 -0.2666257 -0.053303525 0.48007318
0000f0 82 d3 65 be 68 5d e7 be 39 c9 ec be 19 b9 95 bc
       -0.22443965 -0.4518845 -0.4624727 -0.018276738
000100 70 80 82 3c eb 77 ec 3d c3 a1 10 3d 69 cc e0 3d
       0.015930384 0.1154631 0.035310518 0.10976488
000110 0e fd 80 bd 84 7d 0b 3e 2e 90 d1 bd 67 96 0c 3e
       -0.06298266 0.13622099 -0.10232578 0.13729249
000120 06 8d d2 be 51 b0 78 3e 97 54 87 3e 7e 1b 13 3f
       -0.41123217 0.2428601 0.26431724 0.57463825
000130 f5 41 19 bf 28 6a 30 3e 5a 91 17 bd f1 6b a3 be
       -0.5986627 0.17227995 -0.037003852 -0.3191829
000140 ad c9 29 3e e4 1d bf 3d ce a3 33 be a6 80 9d 3e
       0.1658084 0.09331873 -0.17542955 0.30762213
000150 71 64 c2 bd d8 06 a9 be 90 64 da 3d c1 ac bc bc
       -0.09491814 -0.33013034 0.10663712 -0.023031594
000160 ac d0 92 3e 2b a7 1b 3d bd 40 b6 bd d8 19 06 3f
       0.2867483 0.03800122 -0.088990666 0.52383184
000170 00 e0 03 bf 19 b5 e9 3d 1f 14 04 3c 45 cb 5e 3e
       -0.5151367 0.11411495 0.008061438 0.21757229
000180 3e 29 ca bd c7 fc b3 bd 6c b8 6c be a4 6d a4 be
       -0.098711476 -0.08788448 -0.23117226 -0.321149
000190 fd df 9f be 67 b1 d6 bc 03 49 cb 3d 77 a0 5e bd
       -0.31225577 -0.026207639 0.09926035 -0.05435225
0001a0 fb c5 57 be 96 34 2e 3b 76 0f 0e 3c b6 80 c4 bd
       -0.21071617 0.0026581637 0.008670678 -0.09594862
0001b0 e6 05 35 3e b2 08 cc bd f7 54 0a 3e e4 fa a6 be
       0.17678031 -0.09962596 0.13508974 -0.3261329
0001c0 5b 9a 6d be 98 05 a3 3e bf 18 ad 3d fb 15 ef 3e
       -0.23203413 0.31840205 0.084519856 0.46696457
0001d0 9e d0 4b 3e e6 da 6d 3d 87 62 01 3d 12 16 b8 3d
       0.199038 0.058070086 0.031588104 0.089885846
0001e0 ee 52 c5 3d 17 5c 8f be 70 b1 6d 3e 0f d3 94 bd
       0.09634958 -0.27999946 0.23212218 -0.07266819
0001f0 f9 26 a2 bd f9 8a f6 bd 7b 74 33 be d3 04 cf 3e
       -0.0791759 -0.12038226 -0.17524903 0.40433368
000200 3c 92 44 be 2f f9 3f bf 51 9e 0a be 17 ef 8f 3e
       -0.19196409 -0.749896 -0.13536955 0.281121
000210 f0 ca ca 3e e7 5a 60 3f c0 ed dc be 38 84 20 bd
       0.39607954 0.87638706 -0.4315014 -0.039188594
000220 69 16 e9 3c 1f 20 84 3d b5 62 75 3d 83 87 0c be
       0.028453069 0.06451439 0.059908587 -0.13723569
000230 17 6e 74 bd 9f 18 5e 3d b2 6b 81 bd 9c 2d 13 bd
       -0.059675302 0.0542227 -0.063193694 -0.03593217
000240 a3 17 f2 bd b1 f7 c2 3e 51 ba b0 3e 31 b0 8c 3e
       -0.118209146 0.380796 0.34517148 0.27478173
000250 b4 43 97 3e f9 fd b8 3d 20 ef fd bd 2c 80 8c be
       0.2954384 0.090328164 -0.12399125 -0.27441537
000260 95 05 f1 3d 58 54 a4 3d a6 64 22 3f d8 91 89 bd
       0.11768643 0.080239 0.6343483 -0.067172706
000270 f2 89 ff bd aa 64 17 3d 82 48 90 3e 9f 23 09 3f
       -0.12477483 0.036961235 0.2818032 0.5356998
000280 53 27 fb be 25 61 38 3d ff 10 d1 bd ab e0 2e 3f
       -0.4905344 0.04501452 -0.1020832 0.68311566
000290 b5 f3 07 bf 62 10 87 bd 9f 9e f1 3d b0 d3 02 be
       -0.5310624 -0.06594922 0.11797833 -0.12776065
0002a0 d1 ca bb ba 8b 5a a2 bd 88 8e af be ce 0d c2 be
       -0.0014327412 -0.07927426 -0.3428843 -0.37901157
0002b0 e8 12 08 3e 71 84 e3 bd 7c 72 7c bd 44 37 07 bd
       0.13288462 -0.111092456 -0.06163262 -0.03301169
0002c0 d5 e1 76 3e 67 a5 2c 3e 30 4e 74 3d 55 fd fe bd
       0.24109586 0.16859971 0.059644878 -0.12450663
0002d0 44 34 58 be be b9 41 3e 88 0f 20 3d 1d d5 3d be
       -0.21113688 0.18918511 0.03907731 -0.18538328
0002e0 6a 5a 9a bd 2b 52 e9 be 65 39 28 3e c7 af d4 bd
       -0.07536776 -0.45570502 0.16428144 -0.10385089
0002f0 42 39 2b bd c5 a0 a4 3d 44 03 12 3d cb 0c f0 3d
       -0.041802652 0.08038477 0.035647646 0.1172119
000300 a9 14 24 be 0c 5f 16 3f 68 f4 8d bd fc 6d 6e bd
       -0.16023506 0.5873878 -0.069313824 -0.058210358
000310 ff a7 1a bc e0 05 9b 3d 08 94 d1 3d c5 ff 69 be
       -0.009439467 0.0756948 0.10233313 -0.22851475
000320 c7 16 82 3e 16 e9 15 bf c1 d9 1a be 12 c5 37 bf
       0.25408003 -0.58558786 -0.15122129 -0.7178508
000330 fb a8 84 3e f1 b9 b2 be 37 bc c2 3e 22 43 2c 3e
       0.25910172 -0.34907487 0.38034222 0.16822484
000340 c6 f0 21 3e 48 8a 9f 3d a2 f6 21 3d 43 6a a2 bb
       0.15814504 0.07790047 0.039541848 -0.004956515
000350 be bb 2d bd cc c3 1f be 03 e3 7b bd 48 42 fe bc
       -0.042415373 -0.15602034 -0.061495792 -0.031037465
000360 74 02 ec 3e 1d ab 5c bd f5 06 c0 3e 6a 72 0d bf
       0.46095622 -0.053874124 0.37505308 -0.55252707
000370 82 81 a3 3d 6b 01 44 be f4 5a 4c 3d 20 90 83 be
       0.07983686 -0.19141166 0.049891427 -0.25695896
000380 68 dd 6a 3d f3 13 a8 be ba c0 f3 3d 53 5c 27 3e
       0.057340056 -0.3282772 0.11901994 0.16343813
000390 0d 7e 3d be 1a 7d 19 bc 61 2e 11 3e dd 12 ab bd
       -0.18505116 -0.009368205 0.14177848 -0.08353207
0003a0 6d 8e 34 3c 4e 6d 0d 3e 1d ef d0 bd de ce fc bc
       0.011020285 0.13811228 -0.10201857 -0.03086036
0003b0 2c bd 46 3f fb e5 02 be 03 c0 48 3e 2f 9b 29 be
       0.77632403 -0.12783043 0.19604497 -0.16563104
0003c0 74 0e 5c 3f 33 9d 3e 3e 94 d4 85 3c d0 e1 c7 3c
       0.85959554 0.18614654 0.016336717 0.024399668
0003d0 62 95 43 3d 1b fa 53 bd 8c 9c d7 bd 57 aa cd bd
       0.047749884 -0.05175219 -0.10527906 -0.10042255
0003e0 2b 35 5c 3e 93 9d 9f bc 4a c5 d1 3c 0b e4 17 3e
       0.21504657 -0.019484317 0.02560677 0.14833085
0003f0 d3 bb 4f be d1 85 dc 3b c8 56 ad bd f1 29 89 be
       -0.20286493 0.0067298193 -0.08463818 -0.2678981

final.linears.2.bias f4 [4]
000000 4c 04 ec bc a0 74 25 3e 94 dc 29 3e 1e bc 64 bd
       -0.028810643 0.1615777 0.1658805 -0.055843465

layers.0.attn.0.gnn_q.weight f4 [4, 16]
000000 bc 9f a8 3d 03 e5 15 3d 7b 95 73 bc b4 99 5d bc
       0.08233592 0.036595356 -0.014867182 -0.013525415
000010 fe 6b 92 3c b0 66 52 bb 37 0c a5 bd 73 3c 19 39
       0.01787376 -0.0032104664 -0.080589704 0.00014613736
000020 c9 9c a3 bd 3f ac 25 3c 30 c8 86 ba e5 92 a4 bd
       -0.07988889 0.010111867 -0.0010283049 -0.080358304
000030 fa 6e 3f 3e d0 a7 07 3e 5b f9 6a bb 7a fb 07 3d
       0.18694678 0.13247609 -0.0035854194 0.03319881
000040 f5 85 8c bb 4d 09 8c b9 5e 26 0f 3b c9 5b 0e ba
       -0.00428843 -0.0002670981 0.0021842937 -0.0005430547
000050 70 ff 51 39 49 db 44 39 85 a9 bc 39 9c 4f 5f 38
       0.00020026951 0.00018773707 0.00035984456 5.3241485e-05
000060 a6 07 e8 3a c8 75 8f 3a 0a 52 d1 b8 cb d3 29 3a
       0.0017702475 0.0010945136 -9.9811776e-05 0.0006478398
000070 ad 1a 24 3b 4c 3e 77 39 67 7a 9b b9 a0 40 bd ba
       0.0025040314 0.00023578963 -0.000296551 -0.0014438815
000080 63 30 8c 3c e3 fd 3a bb 96 58 e0 3b a5 a4 96 3a
       0.017112916 -0.0028532676 0.0068464978 0.001149316
000090 6f bf cc bb 85 3c 52 38 36 b5 65 3b d2 cf 51 b8
       -0.0062484066 5.0124265e-05 0.0035050637 -5.002303e-05
0000a0 37 d2 48 3c 7f 29 b3 bb 04 e2 06 3a 12 24 94 ba
       0.01225715 -0.005467593 0.0005145373 -0.0011302254
0000b0 ea f0 15 3d c2 47 6a 3c 1d 61 d9 b9 6d 9b ad b8
       0.036606707 0.014299335 -0.0004146182 -8.278233e-05
0000c0 69 af 88 ba fb 98 94 b9 4c 69 3b bb 61 73 9e b9
       -0.0010428253 -0.0002834274 -0.0028596697 -0.00030222072
0000d0 b0 f7 4e 39 55 47 e0 b9 dd cd 99 ba cf 74 58 38
       0.00019737962 -0.00042777756 -0.0011734326 5.16072e-05
0000e0 ee ef 00 3a 36 bb 63 39 b3 3d 7c b9 96 48 8b ba
       0.0004918565 0.00021718148 -0.00024055578 -0.0010626491
0000f0 c0 45 5b ba 2a 23 b1 ba 12 ad 70 37 d4 97 75 ba
       -0.00083645806 -0.0013514508 1.4345411e-05 -0.00093686325

layers.0.attn.0.gnn_q.bias f4 [16]
000000 93 08 29 3d b0 8e 1d bc 6f cd cf 3c 43 ab 01 3c
       0.041267943 -0.009616539 0.025366513 0.007914367
000010 c0 fa e5 bb 34 97 14 bc 6c 25 d4 3c 41 6c 89 ba
       -0.007018417 -0.009069253 0.02589675 -0.0010484533
000020 84 84 dc bc 7d 37 a0 bb 51 65 91 bb 2d 08 f4 3b
       -0.026918657 -0.004889427 -0.0044371267 0.0074472637
000030 77 db 4a 3d 92 a7 e3 3c 1f f9 18 3c 28 80 9f bb
       0.049525704 0.027789865 0.009336739 -0.0048675723

layers.0.attn.0.gnn_k.weight f4 [4, 16]
000000 f8 40 6a bd d5 3b 15 bd 05 af 21 bd b4 ab 02 3c
       -0.057190865 -0.036434013 -0.039473552 0.0079755075
000010 f8 e4 4b bc 19 2d f5 bb ab fa 47 3a 69 cb ce ba
       -0.012444727 -0.0074821827 0.00076286 -0.0015777174
000020 16 aa a0 3d 54 ac 9f 3c 2d ac 87 3a c5 d9 3d bd
       0.07844941 0.019491352 0.0010350995 -0.04635026
000030 f2 04 4a be 04 7e 07 be 06 80 0a 3b d5 96 52 bc
       -0.19728449 -0.13231665 0.0021133437 -0.012853344
000040 90 f7 06 bb c7 7e 8b 37 06 ba af b9 64 7c 26 3a
       -0.0020594336 1.6629127e-05 -0.000335172 0.0006350933
000050 ab 26 bc b9 2c 67 1f b2 ba c6 ce 3a 76 27 01 39
       -0.00035886964 -9.278477e-09 0.0015775778 0.00012317099
000060 aa fb 6e ba 12 e7 29 ba 94 ec 12 39 28 02 bd 3a
       -0.00091164804 -0.00064812705 0.00014011777 0.0014420198
000070 bb fc 00 bc a7 62 a0 3b 20 8e 65 39 d3 7a cf 39
       -0.007872756 0.004894573 0.00021892088 0.00039573628
000080 cc 8b be bc 19 5f 6f 3b 09 bf 68 bb 90 bb cf ba
       -0.02326002 0.0036525188 -0.0035514256 -0.0015848745
000090 cb dd 5d 3b 34 5b 2f 3a 52 2e ba bb e9 37 96 39
       0.0033854123 0.00066893105 -0.0056817913 0.00028651886
0000a0 c3 f2 77 bb db cf 18 ba 65 06 3d 3a 68 e8 81 bb
       -0.0037833906 -0.0005829313 0.00072107307 -0.0039644726
0000b0 b8 53 dc bc 3e 51 84 bc f3 2a 13 ba cc 0a 02 3b
       -0.026895389 -0.01615202 -0.0005614005 0.0019842861
0000c0 b3 31 6d 3a d6 eb a1 b9 84 60 6e ba 47 d4 74 39
       0.0009048238 -0.00030884024 -0.00090933614 0.00023348733
0000d0 d7 d1 3b b9 1c 6d ab b9 f1 93 8e 3a 82 74 f8 b6
       -0.00017911881 -0.00032696954 0.001087783 -7.4045392e-06
0000e0 2a 41 46 ba 78 bd 0a b9 d1 87 74 b8 e5 e9 c9 b9
       -0.0007562811 -0.00013231288 -5.8300622e-05 -0.00038511973
0000f0 62 e4 e1 3a 82 01 ae 39 ad 16 b4 39 c1 e7 3e b8
       0.0017234201 0.0003318899 0.0003434917 -4.5515368e-05

layers.0.attn.0.gnn_k.bias f4 [16]
000000 65 70 0c bd bd 01 f8 bb 17 7b 17 bd 65 7d 44 bc
       -0.034286875 -0.0075685666 -0.036982622 -0.011992787
000010 9e 26 d7 3b af 2a fa bb 34 98 88 bc 2c 9b 31 ba
       0.006565883 -0.007634483 -0.016674139 -0.00067751366
000020 f5 a1 94 bc c7 28 74 3c ab ca d5 bb d0 e9 63 bc
       -0.018143633 0.0149023 -0.006524404 -0.013910726
000030 ec ba 4e bd 6c 6c 61 bd f1 f3 7b 3b 4b d0 23 bd
       -0.05047123 -0.05503504 0.003844496 -0.039993566

layers.0.attn.0.gnn_v.weight f4 [4, 16]
000000 1f 4a 1d 3d 45 e4 01 bf 42 a3 02 3f 65 93 95 bd
       0.038400766 -0.50738937 0.5103036 -0.07303504
000010 a6 6b 2e 3e 2b 6b d9 be 79 38 e7 be 7a 8c 8e be
       0.17033252 -0.42464575 -0.45160273 -0.2784155
000020 5b 11 83 be 1f 1c 47 3e 37 b3 fe 3c 50 ec e2 be
       -0.2559918 0.19444321 0.031091316 -0.44320917
000030 53 bf 75 3e 38 3a 18 bf 4a 01 95 bd df 8c 3b be
       0.23998766 -0.59463835 -0.072756365 -0.18315457
000040 df c1 dd bc d8 82 fb be 0d 62 ba 3e 44 6a 11 bf
       -0.027069984 -0.49123263 0.36402932 -0.56802773
000050 61 87 02 3f c2 8f e9 3e fe 4a 2d 3f 81 67 c2 3e
       0.5098782 0.4561749 0.67692554 0.37969592
000060 59 c0 b6 bd fb e6 b6 be 0e 39 71 be 8c 70 74 3e
       -0.08923406 -0.357231 -0.23556921 0.23871058
000070 f5 f2 95 3f a4 c0 f2 be cf 6a 04 be c4 df 1a be
       1.171477 -0.47412598 -0.12931369 -0.15124422
000080 76 6d 4c 3f f3 a3 e6 be 9b 45 29 3e f5 db 97 be
       0.79854524 -0.45046958 0.16530459 -0.2966
000090 ac b8 37 3f 9b 9d aa bc 1e 39 d0 bd 26 90 00 3e
       0.7176616 -0.020827105 -0.10167144 0.12554988
0000a0 ec d0 54 be 4d bb 92 3e 7a ca c5 be 35 70 60 bf
       -0.20782822 0.28658524 -0.3863104 -0.87671214
0000b0 74 89 d0 be 05 f2 67 3e 80 c9 83 be 65 cd 24 3f
       -0.40729868 0.22650917 -0.2573967 0.6437591
0000c0 95 12 6f bf 42 a1 04 bf d5 a4 51 bf 34 19 12 bf
       -0.9338773 -0.5180856 -0.8189214 -0.57069707
0000d0 c2 0a 0b 3f d3 f0 89 3e 89 7e 3f bf 80 b5 02 bf
       0.5431329 0.26941547 -0.7480245 -0.510582
0000e0 97 4a 83 bf b0 54 53 bf 1d 70 13 bf 04 6b 5a 3f
       -1.0257138 -0.825511 -0.57592946 0.8531954
0000f0 38 cf 65 bf 7f 58 12 bf aa e0 46 bf cb 24 08 bf
       -0.89769316 -0.57166284 -0.7768656 -0.5318114

layers.0.attn.0.gnn_v.bias f4 [16]
000000 b9 b5 1b bd b1 04 b3 3c f3 b4 7b bd e4 21 22 3d
       -0.0380151 0.021852823 -0.061451863 0.039583102
000010 ba 88 98 be 9c d8 80 3d b9 12 13 bc 08 9f 08 3e
       -0.29791814 0.06291315 -0.008976632 0.13341916
000020 a2 a0 12 3c 7e 4c 48 bd 5e 0c 15 3d b9 df 1a bc
       0.008949431 -0.048901074 0.036388747 -0.009452754
000030 e7 bc 91 bd c0 e3 79 3c 9f f1 fd 3d 74 15 2f 3d
       -0.071161084 0.015252054 0.12399601 0.04274507

layers.0.attn.1.gnn_q.weight f4 [4, 16]
000000 96 60 73 be 66 c3 54 bc d3 44 78 3d c7 2b 98 3d
       -0.23767313 -0.01298604 0.06061251 0.07430225
000010 4a a1 e0 bc 50 c0 c3 bd 63 0a 94 3d e5 0e d8 3c
       -0.027420659 -0.09558165 0.072285436 0.02637429
000020 ba a2 73 bc e1 fb 0e 3e ba 5d 05 bc ca 3d d9 3b
       -0.01487034 0.13963272 -0.008140022 0.0066296803
000030 f0 b5 3e 3d eb a1 5c 3d 82 93 07 bc fa e1 f6 bd
       0.046560228 0.053865355 -0.008274915 -0.1205482
000040 50 a7 88 3b 81 9d 34 3b 29 dc 40 bb a1 f1 84 bb
       0.004170336 0.00275597 -0.00294281 -0.0040571247
000050 60 1f 63 bc 84 2c a9 b9 f0 cf 37 3a bc 54 ad 3a
       -0.013862461 -0.0003226736 0.0007011881 0.0013224105
000060 37 7c a5 ba 75 c1 15 3b 6d 11 e0 ba d4 06 a3 3a
       -0.001262552 0.0022850905 -0.0017095037 0.0012437948
000070 57 9c d3 b9 83 8b b3 bb 40 68 eb ba 5b 97 fa bb
       -0.00040361538 -0.0054792776 -0.0017960146 -0.0076474375
000080 37 57 86 bc c3 2f f2 3b fd cb 3c 3c 27 48 c9 ba
       -0.01639901 0.0073909475 0.011523244 -0.0015356586
000090 df 8c 6f 3b b4 6c 4c 3b 4f aa c0 bb c2 dd 5b 3d
       0.0036552472 0.0031192722 -0.0058796774 0.05367828
0000a0 a1 d0 65 ba b9 f7 db 3a af bc 82 bc fb 96 d2 ba
       -0.0008766745 0.0016782201 -0.015959112 -0.0016066724
0000b0 b6 ce 66 bb 11 d1 5d 3c 95 8e 4d ba e2 ee 06 3b
       -0.0035218424 0.013538615 -0.0007841376 0.0020589163
0000c0 dc 87 f9 ba ae 76 93 b8 69 b9 6d bb c4 c7 c9 3a
       -0.0019037682 -7.031612e-05 -0.0036273843 0.0015394618
0000d0 9a bb 9b 3b 5a ee c2 bb a7 8b 05 39 f9 2e 5a bb
       0.0047525885 -0.005948824 0.00012735893 -0.0033292158
0000e0 41 9e 3c ba 4a 6a 86 3c 84 ef ce 3a b1 05 9f 3c
       -0.00071952125 0.016408104 0.0015787934 0.019411894
0000f0 96 69 6f bb 14 c6 d3 b9 1a 0d 41 39 0a 27 ad bb
       -0.003653144 -0.00040392636 0.00018410795 -0.005284195

layers.0.attn.1.gnn_q.bias f4 [16]
000000 15 b0 d7 3c 50 53 46 3b c4 5b 74 3b a9 b6 55 bc
       0.02632908 0.003026206 0.0037286142 -0.013044038
000010 f0 b9 dc 3b c1 ca ac 3c b7 bd 76 bc b1 03 52 bc
       0.0067360327 0.021092774 -0.01505988 -0.012818263
000020 1c 56 c2 3b 64 de e6 bc cd 33 62 3b 5a e0 b0 ba
       0.005930675 -0.028182216 0.003451574 -0.0013494596
000030 fe fd 6e 3c f4 07 0c bc 4a b9 1c 3b eb 45 2d 3c
       0.014586924 -0.008546818 0.0023914152 0.010575752

layers.0.attn.1.gnn_k.weight f4 [4, 16]
000000 e0 4a 72 3e 57 fd 15 bc cd 91 79 3d 95 ce 6d bd
       0.23661375 -0.009154639 0.060930062 -0.05805834
000010 59 c8 3d 3d a8 b7 c7 3d dd 3c 49 bd d0 ba b6 bc
       0.046333645 0.097518265 -0.04913031 -0.022305876
000020 18 d8 d3 3c f4 09 0b be 70 18 14 3c 8e e0 27 bc
       0.025859877 -0.13578016 0.0090390295 -0.010246409
000030 68 cf 62 3d 27 50 6d bd 37 1c b4 3c 2c f6 07 3e
       0.05537358 -0.057937767 0.02198611 0.13277501
000040 44 da ea 3b 33 60 3e 3c db c7 97 bb dd 45 59 3b
       0.0071671326 0.011619615 -0.004631979 0.0033153214
000050 ed 59 07 bc 6b b9 a8 3a 05 e4 4a bc 2b 66 54 bb
       -0.008261186 0.0012872642 -0.012383466 -0.003240953
000060 64 cf 17 3b 06 50 b2 bb bf fe bd 39 9c d9 1a bb
       0.0023164386 -0.0054416684 0.0003623869 -0.002362824
000070 d8 00 97 b9 5b 6e b9 bc 80 ab 28 b9 b1 d9 4d bb
       -0.00028801593 -0.02263563 -0.00016085617 -0.0031410272
000080 21 d1 fa bb 82 2e 73 3c 44 81 dc bc 54 23 0e bb
       -0.0076543246 0.014842631 -0.026917107 -0.0021688538
000090 58 a7 8b bb 99 9d cc bb 82 9a d5 bc b2 65 fb bc
       -0.0042618923 -0.006244373 -0.026074652 -0.03068814
0000a0 bc ea 69 3b 31 27 39 3b e0 19 83 3c 8a eb ea 3a
       0.003569289 0.002825212 0.01600355 0.0017922979
0000b0 28 50 b3 3b 39 d6 91 bc b1 9e 27 3b 99 46 03 ba
       0.005472202 -0.017802345 0.0025576765 -0.0005007773
0000c0 8f e6 e7 b9 27 dd 46 3b 51 20 1f 3c 77 1a 9d bb
       -0.00044231533 0.003034422 0.009712295 -0.0047944146
0000d0 c4 6e 05 bb 0d b6 c4 3b 4a 7c 70 bb a4 f9 db 3b
       -0.002036021 0.0060031475 -0.0036695176 0.006713109
0000e0 a2 3b df 3a 64 a6 33 3a ad 91 88 ba 54 fa bb bc
       0.0017031322 0.0006853102 -0.0010419391 -0.022946514
0000f0 29 a7 4a ba 36 d6 cc bb db 0c 05 bc b1 c0 9b 3b
       -0.0007730597 -0.006251122 -0.008120741 0.004753195

layers.0.attn.1.gnn_k.bias f4 [16]
000000 65 41 cb bc a9 47 43 3a 82 25 91 3b e6 ad cb 3b
       -0.024811456 0.0007449338 0.00442952 0.0062157987
000010 c2 1d a2 bc 43 d9 a0 bc 75 05 23 3c 60 bd a9 3b
       -0.01978958 -0.019634848 0.0099500315 0.005180046
000020 51 1a 69 bc 72 a5 d6 3c 30 ab c6 bb bd d5 26 3c
       -0.014227466 0.026201937 -0.0060628876 0.010182795
000030 64 1b 99 3b 4b 83 65 3c 0b 5f 49 bc 9f 52 d0 bc
       0.0046724547 0.014008353 -0.012290726 -0.025430022

layers.0.attn.1.gnn_v.weight f4 [4, 16]
000000 95 14 da be 4c c2 4d 3d 5f e0 01 3f 97 27 b4 bc
       -0.42593828 0.050234124 0.5073299 -0.021991534
000010 14 d4 4a bd ca 7d ba bd 12 57 94 be 1e eb 90 be
       -0.04951866 -0.091060236 -0.2897268 -0.2830438
000020 f2 6f 83 bd 4c f4 8e be 5e 3c a6 bd 83 78 85 be
       -0.06417836 -0.2792076 -0.08116983 -0.26068506
000030 7d 04 b4 bd 1b ff bd 3e e6 e6 cd be 07 09 98 3e
       -0.087899186 0.37108693 -0.40215224 0.29694387
000040 1e 6a c8 3e cc 93 7e 3e 16 87 60 be ab f4 b0 bc
       0.3914346 0.24861068 -0.21926531 -0.021601042
000050 1e 35 fa 3e 39 d7 00 bc 80 9e 4c be 28 80 85 bd
       0.4886865 -0.007863813 -0.19982338 -0.065185845
000060 78 1e 18 be 4c a2 0b 3f e5 fe 83 3e 10 0c b7 3e
       -0.14855373 0.5454452 0.25780407 0.3575139
000070 98 7d 89 3e ae 7a 0a 3e 65 f1 f3 bd 39 08 29 3d
       0.26853633 0.13523361 -0.11911277 0.041267607
000080 13 9d 6b 3e 69 28 d9 3e 25 ba fa bd 73 71 22 3d
       0.23009138 0.42413643 -0.122425355 0.039658975
000090 28 68 a4 3e f6 bc 34 bc d4 5d 28 bf 8e cb 1d 3d
       0.32110715 -0.01103138 -0.6576817 0.038524203
0000a0 39 5d ec 3e 5b 0d d1 3e 45 8b 9f 3e c5 8a 3f 3e
       0.46164873 0.40830502 0.31160942 0.1870528
0000b0 3a 01 6a 3e 94 7e 12 3e 10 e6 0a bc 31 69 ca 3e
       0.2285203 0.14306098 -0.008477703 0.3953338
0000c0 c0 8a a8 be 8c c9 f9 3e 33 3c f4 3e 43 ec e4 be
       -0.32918358 0.4878658 0.47702178 -0.44711503
0000d0 c2 5b e1 be 5b 4b cc be 8d 46 ab be 66 f4 7c be
       -0.44015318 -0.39901242 -0.33452263 -0.24702606
0000e0 94 ef 0c bf 5d 1d 4f bd cd 0c 3a 3f 26 ad 3a 3f
       -0.5505307 -0.050565112 0.7267578 0.72920454
0000f0 ec 25 d6 3e 04 83 fd 3e db bd e4 bd 4a 6e d1 be
       0.41825807 0.4951402 -0.111690246 -0.40904456

layers.0.attn.1.gnn_v.bias f4 [16]
000000 4d 53 51 3d 8c 62 85 bd 3c 15 88 3d 90 ba 7d bc
       0.051104832 -0.06512937 0.06644675 -0.0154863745
000010 10 ba b7 bd a0 9a b8 bb 5a f2 50 bd 2a 00 a3 3c
       -0.089710355 -0.005633667 -0.051012374 0.01989754
000020 d4 22 cb bc c4 4f c9 3d 38 e8 3d bc cb 7c 1a 3e
       -0.02479688 0.09829667 -0.01159101 0.15086667
000030 52 86 c1 3d 91 a8 04 be 5c 13 17 3d fe bf a1 3d
       0.09449448 -0.12954928 0.036883697 0.07897948

layers.0.mlp.linears.0.weight f4 [16, 4]
000000 71 d8 50 be 42 79 78 be e1 e1 fd be 31 27 42 bc
       -0.20395066 -0.24265006 -0.49586394 -0.011850164
000010 ac fd 13 be 85 78 da bd ba 0f 64 3f 70 80 53 3a
       -0.14452237 -0.106675185 0.89086497 0.000806815
000020 a2 d2 4c 3e f7 ac 90 be 9c 2b 0a 3f 2e c7 a6 bd
       0.20002225 -0.28256962 0.5397279 -0.08143459
000030 26 db ae 3e 15 19 4b 3e 96 ab 04 3f 94 93 e7 3e
       0.34151572 0.19833787 0.5182432 0.4522978
000040 24 c0 bd bd f7 b4 e3 3d 78 5c e9 be ff b8 e9 bd
       -0.092651635 0.11118501 -0.4557836 -0.11412238
000050 77 18 94 be 3b d1 a2 3c 1d 49 e7 3c 54 4e 78 3e
       -0.28924915 0.01987516 0.028233105 0.2424863
000060 49 2d 87 be 06 b8 6c 3c 65 24 16 3f 3b 92 56 be
       -0.26401737 0.0144481715 0.58649284 -0.2095422
000070 35 e1 c2 3e 2f 5a ab 3d c1 be 10 bf a3 3e c3 be
       0.38062444 0.083668105 -0.5654107 -0.38133726
000080 52 5c 53 3d a8 c6 d4 be eb e6 45 3f b1 c7 39 be
       0.051601715 -0.41557813 0.7730548 -0.18142582
000090 14 e8 41 3e ce 5c ab 3e 6d f4 e0 3e f4 6c a7 be
       0.18936187 0.33469242 0.43936482 -0.32700312
0000a0 83 aa 38 3d da a5 13 3e 9f e7 13 be 93 7e 83 be
       0.045084488 0.14418736 -0.14443825 -0.25682506
0000b0 39 6a 60 be 7a f8 ff 3d 5d 8e 47 bf 13 32 70 bd
       -0.2191552 0.12498565 -0.77951604 -0.058641504
0000c0 6c 7e f5 be 60 e9 5d 3e 1a 89 8b 3e 7e 5c 0b be
       -0.47948015 0.21671057 0.27253038 -0.13609502
0000d0 2e a6 72 bc 87 f9 a4 3e df 0b 1d 3f be 91 a9 be
       -0.014810128 0.32221624 0.6134624 -0.33119005
0000e0 07 1b ce be fd f0 a5 bd 39 ba 1e bd 31 50 ca be
       -0.40254995 -0.081026055 -0.038751815 -0.39514306
0000f0 34 ba 11 3e a1 e8 a4 3d 44 bf 8a be 8b 72 bb 3e
       0.14231187 0.08052183 -0.2709905 0.36610827

layers.0.mlp.linears.0.bias f4 [16]
000000 cf 3f 84 3d 60 ef 87 bd 8e ee a0 3a 8b 00 0a bd
       0.06457483 -0.06637454 0.0012278126 -0.033691924
000010 15 42 20 bc f4 b3 c4 bd 71 0f 9d bc e7 56 74 bd
       -0.00978138 -0.09604636 -0.019172402 -0.05965319
000020 01 e8 09 bc 15 0d 32 bd ef fa 0b 3d 23 73 df bd
       -0.00841713 -0.043469507 0.034174856 -0.109106325
000030 52 4d 3c 3d 59 ed 6b 3d 45 9a 42 3d 4a 87 59 bd
       0.045972176 0.0575994 0.047510404 -0.053107537
