checkpoints/QM9/ccsd_qm9_CC.pth (torch, 462427 bytes, 376 tensors)

layers.0.weight f4 [4, 10]
0.9002864 1.4491897 -0.66280943 -0.8063974 -0.5503095 -0.06573693 0.7330414 0.2527519
-0.51584595 -0.5990754 -4.452914 1.3648559 -0.74457353 -0.48049992 -0.6151418 -0.14419042
0.6495392 0.44657746 -0.74471384 -0.8559408 0.64065224 1.3733338 -0.7639201 -0.19187944
-0.640073 -0.16610388 0.8031228 0.26749888 2.8891137 -0.9542481 -0.23931211 1.3763753
4.198789 0.27066287 4.2035294 1.6004128 0.4555156 1.0487186 0.0355121 -0.9080985
00000000: 2b79 663f 0c7f b93f e1ad 29bf 0f70 4ebf
00000010: 15e1 0cbf 15a1 86bd 9aa8 3b3f b268 813e
00000020: 7b0e 04bf 015d 19bf 467e 8ec0 99b3 ae3f
00000030: 5f9c 3ebf 1604 f6be ef79 1dbf a7a6 13be
00000040: 3348 263f cda5 e43e 91a5 3ebf f01e 5bbf
00000050: c901 243f 67c9 af3f 4590 43bf 0b7c 44be
00000060: d3db 23bf 2317 2abe 7599 4d3f 9df5 883e
00000070: 3de7 3840 9a49 74bf 3c0e 75be 112d b03f
00000080: 7b5c 8640 5394 8a3e 5083 8640 54da cc3f
00000090: 5739 e93e 693c 863f 2375 113d 2579 68bf

layers.0.bias f4 [10]
-2.4640286 -0.89564866 -0.3719469 0.86052823 0.58735436 0.60475814 1.0484004 -1.9680824
1.5484164 1.0386004
00000000: a5b2 1dc0 3b49 65bf d36f bebe 944b 5c3f
00000010: db5c 163f 6ed1 1a3f fc31 863f 20ea fbbf
00000020: 8232 c63f dcf0 843f

layers.1.weight f4 [10, 10]
0.13648051 -0.18207125 -3.117555 -0.14883952 0.06943924 -0.088468365 0.019597162 -0.12209773
-0.13179801 0.07775886 0.41755167 0.9098687 0.668297 -0.4883999 0.6722968 1.164674
0.22338678 0.05256601 -1.3109243 0.0649734 -0.3896328 -0.4769398 0.08097307 0.27854693
-0.8635821 -0.073512994 0.34781638 3.5777125 -0.06694635 0.16538373 -1.0914451 1.003276
-0.01451188 0.5593396 0.69417715 0.17373317 0.30565706 0.22603346 -0.5909251 0.6667104
0.6080134 0.4817882 0.07197146 -0.7160399 0.8483239 -0.7190777 -2.031631 -0.84439754
-0.24648397 -0.6395123 -0.9477225 -0.7312129 -0.5307397 1.0005609 2.5363958 1.3409356
1.8031036 2.232552 0.61339045 1.3798845 0.12699689 -1.5887462 -1.513672 0.23232451
-0.65584993 1.0161314 -0.112158075 1.2125646 2.5244994 -0.2155671 0.13849314 0.19288859
1.8349885 -2.023728 1.2940278 1.0082182 0.91754097 -0.40274733 1.7590939 2.6600215
-0.5936555 0.08310603 -0.05483172 -2.0189986 -0.15104933 0.07982829 0.032542523 -0.043197997
0.12520853 -0.1790164 0.11262903 2.5644963 0.52558285 -0.7739009 0.5138643 0.35543758
0.55986166 0.117844604 -0.18365575 0.2543097
00000000: 8cc1 0b3e e370 3abe 0586 47c0 6369 18be
00000010: 2936 8e3d e72e b5bd 3a8a a03c 600e fabd
00000020: 0ff6 06be 0a40 9f3d 55c9 d53e 28ed 683f
00000030: 8315 2b3f 8d0f fabe a51b 2c3f 0a14 953f
00000040: 81bf 643e 754f 573d 5ecc a7bf c610 853d
00000050: f37d c7be 7431 f4be 35d5 a53d b49d 8e3e
00000060: b713 5dbf fb8d 96bd fd14 b23e 3ef9 6440
00000070: 2b1b 89bd 5a5a 293e 79b4 8bbf 596b 803f
00000080: 3dc3 6dbc e130 0f3f 98b5 313f 1ce7 313e
00000090: 157f 9c3e 5175 673e de46 17bf 88ad 2a3f
000000a0: c4a6 1b3f f1ac f63e c665 933d 644e 37bf
000000b0: c12b 593f 7a15 38bf 3e06 02c0 702a 58bf
000000c0: 4b66 7cbe 14b7 23bf f19d 72bf c530 3bbf
000000d0: 8fde 07bf 6112 803f 4f54 2240 c7a3 ab3f
000000e0: 19cc e63f 22e2 0e40 2807 1d3f 0ea0 b03f
000000f0: 790b 023e 095c cbbf 01c0 c1bf 7ae6 6d3e
00000100: c8e5 27bf 9810 823f 22b3 e5bd 5135 9b3f
00000110: 6691 2140 9fbd 5cbe 25d1 0d3e 9684 453e
00000120: e7e0 ea3f c284 01c0 b4a2 a53f 4b0d 813f
00000130: f7e3 6a3f e634 cebe fd29 e13f cb3d 2a40
00000140: cff9 17bf 7f33 aa3d 3a97 60bd 4637 01c0
00000150: adac 1abe 047d a33d 4f4b 053d 62f0 30bd
00000160: aa36 003e 1350 37be 0daa e63d b520 2440
00000170: 998c 063f 5f1e 46bf 9c8c 033f eafb b53e
00000180: 1853 0f3f 8358 f13d 4110 3cbe e234 823e

layers.1.bias f4 [10]
0.6604649 -0.1266239 -0.04629384 -0.26181284 -0.61146986 -1.4062879 0.042278558 0.24009335
-0.52058005 2.086235
00000000: 3a14 293f b2a9 01be 9c9e 3dbd 550c 86be
00000010: 4a89 1cbf 3e01 b4bf 482c 2d3d 08db 753e
00000020: bc44 05bf e084 0540

final.linears.0.weight f4 [48, 24]
0.14793226 0.010102769 -0.070918046 -0.1638912 -0.109925196 0.16690138 0.37939757 1.1856732
-0.07275036 0.772675 -0.27862307 0.53049064 -0.14932622 -0.33248425 0.12809482 -0.5111458
-0.06896756 -0.08194736 -0.33525273 -0.8832725 -0.006186321 0.3383285 -0.19419895 -0.20424385
-0.20376107 0.11577122 0.13271281 0.3287599 -0.15106504 0.33758894 -0.14366855 0.36401963
-0.12218578 -0.06704923 -0.019171448 0.17508402 0.23545511 -0.2044472 -0.7638485 0.22705986
0.027799705 0.18694858 -0.05665707 0.41677922 -0.16032688 0.16506453 0.17644455 -0.80455667
0.44746876 0.539385 0.6276156 1.1618929 -0.07344257 -0.7852521 0.60664576 0.4507262
-0.46748656 0.2950086 -0.15916747 0.03166064 -0.07667438 0.18074638 0.6726703 1.2389375
-0.17677155 0.41935384 0.38135237 0.49943456 -1.4036905 -2.401603 -0.9699839 0.052773036
-0.6556474 -0.3774197 0.9162774 0.018126471 0.58044046 0.45048225 -0.34699395 -2.0370235
0.2758698 0.13110718 0.31328532 -0.48814812 -2.3805556 0.77164537 0.13594228 0.16443361
0.7253852 -0.50035703 0.09422558 0.028443117 0.22293575 0.17395532 0.35937804 0.866967
1.4973599 1.4260408 -2.5381994 0.061005574 0.08365757 0.090591475 -0.04631485 0.10225771
-0.118844986 0.20059378 0.39873034 -0.54404646 0.39370286 0.13038956 0.16564506 -0.15250652
-0.16835347 0.41982782 0.06681859 -0.2111102 0.04413395 0.03761001 -0.14998768 0.26134807
0.017670292 -0.006439696 -0.086375296 0.040245835 -0.27464524 -0.20907779 0.15728292 -0.43492886
0.15700303 -0.030584214 -0.0985571 0.005738551 0.042339727 -0.04978222 0.08239276 -0.09944203
-0.028938083 -0.27344298 -0.15901451 -0.17255723 0.12250757 0.0877445 -0.04191115 -0.15675552
0.45227036 0.16449517 0.22666627 -0.6289867 0.19941951 0.059262674 0.0689349 -0.1798334
0.06937911 -0.23621503 -0.10038283 0.16032112 -0.12426282 -0.11189678 -0.39198273 -1.1739432
-0.100462586 0.4905594 -0.63601136 -0.16676717 0.15060973 0.25129834 0.13682021 -0.2656964
-0.18463065 0.09617358 0.26939315 0.17600225 -0.02140109 -0.6152366 0.06107191 -0.6135992
0.06273861 0.17629828 0.380675 -0.22894816 0.05431182 0.6786539 0.8419629 -0.4578381
0.32611907 -0.7368353 0.22933426 -0.1424001 -0.22968368 -0.49949968 -0.7332239 1.2847846
-2.9746594 1.7124116 1.5171282 -0.110544086 -0.108339265 0.10308289 -0.061883055 0.2232142
-0.0893041 0.17194478 0.40350673 -0.26542315 0.18374257 0.11592065 0.028839016 -0.31866673
-0.40860546 0.4291656 0.073353335 -0.16405135 -0.04499526 -0.007125468 -0.0020330295 0.002892658
0.061895072 0.07276093 0.022893218 0.36020344 0.5816292 -0.11401243 -1.1848398 -0.6132014
-0.25509205 -1.506989 -0.6340306 0.615161 0.7499193 0.40966374 -0.557624 -1.1969647
-0.13801321 1.0624478 -0.75666714 0.022935048 1.1694031 3.5744023 0.35582358 0.13866377
-0.037384093 -0.04898058 -0.105397195 -0.6616591 -0.32212096 1.3119711 0.44867626 -0.82006735
0.28326425 1.0437405 0.08257879 0.75787795 -0.17706196 -0.6723689 -0.30387613 0.18720762
00000000: 8e7b 173e 1686 253c 7b3d 91bd 18d3 27be
00000010: 7620 e1bd 32e8 2a3e 6640 c23e 24c4 973f
00000020: 24fe 94bd 07ce 453f afa7 8ebe 3cce 073f
00000030: f9e8 18be 603b aabe 4a2b 033e 73da 02bf
00000040: dd3e 8dbd 04d4 a7bd 3fa6 abbe 261e 62bf
00000050: 9fb6 cabb 6539 ad3e 17dc 46be 4d25 51be
00000060: bea6 50be 7619 ed3d dee5 073e 3853 a83e
00000070: cbb0 1abe 75d8 ac3e d91d 13be c860 ba3e
00000080: 8a3c fabd 1b51 89bd 710d 9dbc 3a49 333e
00000090: 251b 713e 9b5a 51be 938b 43bf 6182 683e
000000a0: 35bc e33c 736f 3f3e 3e11 68bd 1664 d53e
000000b0: bb2c 24be ad06 293e e1ad 343e 6df7 4dbf
000000c0: a01a e53e 2315 0a3f 6aab 203f e8b8 943f
000000d0: 0f69 96bd 4806 49bf 234d 1b3f 96c5 e63e
000000e0: 665a efbe 5e0b 973e ccfc 22be 96ae 013d
000000f0: 7507 9dbd 9415 393e 1f34 2c3f 8195 9e3f
00000100: 9a03 35be 8cb5 d63e 9e40 c33e e3b5 ff3e
00000110: 21ac b3bf ddb3 19c0 dd50 78bf 8a28 583d
00000120: 82d8 27bf 283d c1be 2891 6a3f f77d 943c
00000130: bf97 143f 9ca5 e63e 31a9 b1be 985e 02c0
00000140: ce3e 8d3e f640 063e ef66 a03e 8dee f9be
00000150: 065b 18c0 8d8a 453f 7434 0b3e 4961 283e
00000160: d8b2 393f 6617 00bf 57f9 c03d 8a01 e93c
00000170: 4549 643e 5821 323e 6600 b83e 8df1 5d3f
00000180: 7da9 bf3f 8188 b63f dc71 22c0 fbe0 793d
00000190: a954 ab3d 0688 b93d a4b4 3dbd 7e6c d13d
000001a0: 0065 f3bd 7568 4d3e 6226 cc3e a146 0bbf
000001b0: 6c93 c93e d784 053e dc9e 293e ab2a 1cbe
000001c0: da64 2cbe acf3 d63e 2fd8 883d 462d 58be
000001d0: cdc5 343d f40c 1a3d 5f96 19be 6acf 853e
000001e0: 4ac1 903c 1604 d3bb 88e5 b0bd d1d8 243d
000001f0: 4d9e 8cbe 7d18 56be c60e 213e ffae debe
00000200: 67c5 203e bf8b fabc 4ed8 c9bd 740a bc3b
00000210: 6c6c 2d3d 71e8 4bbd 89bd a83d 43a8 cbbd
00000220: 8f0f edbc b800 8cbe b3d4 22be d8b2 30be
00000230: 40e5 fa3d 63b3 b33d 07ab 2bbd 8584 20be
00000240: fb8f e73e 6c71 283e 341b 683e 4605 21bf
00000250: a134 4c3e 6bbd 723d be2d 8d3d 3f26 38be
00000260: a316 8e3d 5ae2 71be 8395 cdbd 382b 243e
00000270: 817d febd 242a e5bd f6b1 c8be c543 96bf
00000280: 54bf cdbd 9a2a fb3e a4d1 22bf 03c5 2abe
00000290: 7039 1a3e 2daa 803e 991a 0c3e 5c09 88be
000002a0: d10f 3dbe a7f6 c43d e6ed 893e ef39 343e
000002b0: 5751 afbc 2580 1dbf 8a26 7a3d d614 1dbf
000002c0: 1a7d 803d 8987 343e d5e7 c23e 6371 6abe
000002d0: 1276 5e3d 43bc 2d3f e18a 573f c169 eabe
000002e0: 14f9 a63e 3da1 3cbf 9ad6 6a3e 55d1 11be
000002f0: 3332 6bbe 6cbe ffbe 90b4 3bbf d273 a43f
00000300: d260 3ec0 4e30 db3f 4231 c23f f064 e2bd
00000310: fae0 ddbd 1f1d d33d 1679 7dbd 4392 643e
00000320: 11e5 b6bd 4b12 303e 6f98 ce3e 8be5 87be
00000330: 0327 3c3e ce67 ed3d cd3f ec3c 4928 a3be
00000340: bc34 d1be 98bb db3e 463a 963d 14fd 27be
00000350: f34c 38bd c27c e9bb 933c 05bb c092 3d3b
00000360: b085 7d3d af03 953d 8f8a bb3c 966c b83e
00000370: a7e5 143f 597f e9bd d5a8 97bf c4fa 1cbf
00000380: 6d9b 82be 04e5 c0bf d44f 22bf 317b 1d3f
00000390: b6fa 3f3f 72bf d13e 72c0 0ebf 2436 99bf
000003a0: 5653 0dbe 4afe 873f f0b4 41bf 48e2 bb3c
000003b0: 00af 953f 02c3 6440 822e b63e e0fd 0d3e
000003c0: 1020 19bd dc9f 48bd 7cda d7bd 7e62 29bf
000003d0: 0aed a4be abee a73f e5b8 e53e efef 51bf
000003e0: 0308 913e 4a99 853f 121f a93d 4a04 423f
000003f0: bb4f 35be 5e20 2cbf a795 9bbe 5bb3 3f3e

final.linears.0.bias f4 [48]
0.04881519 -0.49591658 0.2853924 0.9513019 0.583058 0.12208518 -0.020830104 -0.32640216
1.200285 -0.59987235 -0.26592833 0.5673241 0.10459929 0.7631635 0.43985584 -0.009374499
0.9584736 0.55976325 -0.045533452 0.44583845 0.20590341 0.71285295 0.0884218 0.6029494
0.23932149 -0.30411398 0.3517101 0.02641152 -0.8396438 -0.5139011 -1.101055 -0.045181613
0.07702668 0.28630248 0.760341 -1.0270908 -0.5521146 -0.7011048 -0.29483694 0.639926
-0.7959072 0.60720354 0.33906752 -0.8144673 0.45548725 -0.5052169 0.0921485 0.59037346
00000000: 70f2 473d c7e8 fdbe f41e 923e 8588 733f
00000010: 4a43 153f cb07 fa3d e5a3 aabc 2f1e a7be
00000020: f0a2 993f 3c91 19bf c227 88be 273c 113f
00000030: 2738 d63d af5e 433f c934 e13e 8097 19bc
00000040: 875e 753f a54c 0f3f 4981 3abd f044 e43e
00000050: 58d8 523e 887d 363f 7d16 b53d e45a 1a3f
00000060: b110 753e d4b4 9bbe 5913 b43e f95c d83c
00000070: e5f2 56bf 068f 03bf 5fef 8cbf 5b10 39bd
00000080: 2ac0 9d3d 3d96 923e b5a5 423f b677 83bf
00000090: 6257 0dbf 9b7b 33bf def4 96be 31d2 233f
000000a0: 93c0 4bbf b171 1b3f 429a ad3e ee80 50bf
000000b0: a035 e93e e555 01bf 5ab8 bc3d b722 173f

final.linears.1.weight f4 [48, 48]
-0.32488856 0.19660175 -0.17989229 -0.3727196 -0.12895195 -0.08446664 -0.12688336 0.23951824
-1.2616005 -0.21906134 -0.31752822 -0.065923475 -0.2980583 -0.3029384 -0.33449546 -0.18187828
-0.50910044 -0.041868005 -0.41480795 -0.31330562 -0.3325712 -0.005855713 -0.63587826 0.26821864
-0.2651137 -0.35155198 -0.33710772 -0.10362532 -0.24159354 -0.24107377 -1.2941998 0.09919854
-0.009823603 -0.09836937 -0.08853881 -1.4607589 -0.31251335 0.06257635 -0.013335114 0.32594106
-1.4905716 -0.08198352 -0.36101305 -0.13377091 -0.23440766 -0.31102604 -0.36787155 -0.5074973
-0.18258637 0.07847104 -0.55966187 -0.6832658 -1.0954891 0.07884089 -0.14032649 0.61357814
-0.5217301 -0.7042981 -0.8284111 -0.061338224 -0.60577285 -0.5582407 -0.7912281 -0.4335637
0.31386596 -0.55214095 -0.4676409 -0.6026392 -0.7021419 0.13288298 -0.7237392 -0.27675
-0.46033496 -0.5695999 -0.67206687 -0.25142097 -0.32926923 -0.3177707 -2.67279 0.42708266
-0.18765385 -0.070172794 -0.034993224 0.17696758 -0.73922306 -0.013552347 -0.09563482 0.26920328
-0.3799806 -0.39802557 -1.0308721 -0.03192758 -0.08300127 -0.293344 -0.65108263 -0.9194598
-0.45603704 0.28493494 -0.020471206 -0.17399666 -0.0011088662 -0.0018754943 -0.18183047 0.23262602
-0.015111754 -0.064810425 -0.06371381 -0.10618344 -0.10465752 -0.20227198 -0.11904933 -0.023053428
-0.6731575 -0.267593 -0.24299929 -0.15482643 -0.0940121 -0.072225004 -0.31171846 0.08427409
-0.09435839 -0.2796102 -0.16509435 -0.008530419 -0.125714 -0.15384501 0.29165924 0.058186945
0.052068267 -0.008314531 -0.1341107 0.06686481 -0.14744273 0.051972896 -0.13682918 -0.7074274
0.052653316 -0.7498901 -0.24836823 0.02212633 -0.26472542 -0.40543193 -0.12397279 -0.19122837
0.12454229 -0.26141182 -0.010270621 0.07186666 -0.20599964 0.044023138 0.016247941 0.09452776
0.12528627 0.14022519 0.06493097 -0.30606538 0.0609021 0.07006628 0.13026746 0.04333459
-0.21718867 -0.029447386 0.17683917 0.06316174 0.031499516 -0.070031695 0.23103987 0.02132536
0.070079096 0.09891904 0.18291153 0.07326524 0.17848495 0.28270292 -0.28658706 0.1993095
-0.13393888 -0.026591709 0.07743078 -0.0070212455 0.019537773 0.030090151 -0.07872073 -0.13683896
0.3105604 -0.019786937 0.04020501 0.044577673 0.07826161 0.07073563 0.07713239 0.11355061
-0.07567894 0.22677599 -0.23078647 -0.29203203 -0.48667914 -0.017816303 -0.15402627 0.38149187
-1.6027539 -0.4107468 -0.5906268 -0.24288148 -0.31184837 -0.36196575 -0.49387965 -0.15306099
-0.6916284 -0.12813947 -0.4454608 -0.40850753 -0.5032623 0.08588248 -0.6623541 -0.24496315
-0.25593412 -0.35857448 -0.40517238 -0.21081354 -0.25670186 -0.32962862 0.28320035 0.20947742
-0.013148597 -0.22951777 -0.10880037 0.23957536 -0.43264335 -0.016496172 -0.23181608 -0.31064197
0.407836 -0.58546555 -0.36158168 -0.01020419 0.016661609 -0.27101892 -0.45682758 -0.58852506
-0.1735156 0.06588598 0.014047941 -0.027119542 0.044007495 -0.130338 -0.081525505 0.097641915
-0.043904334 -0.009026463 -0.0067455033 0.0016164586 -0.021786444 -0.0010904773 -0.027188545 0.016441388
00000000: cb57 a6be f851 493e af35 38be 1ad5 bebe
00000010: fb0b 04be d9fc acbd b6ed 01be 4544 753e
00000020: 207c a1bf 9e51 60be 0f93 a2be e302 87bd
00000030: 199b 98be be1a 9bbe fd42 abbe 4d3e 3abe
00000040: 6854 02bf c97d 2bbd b561 d4be 9869 a0be
00000050: c646 aabe 48e1 bfbb ebc8 22bf f453 893e
00000060: fcbc 87be 9ffe b3be 6299 acbe 8339 d4bd
00000070: 4c64 77be 0bdc 76be 57a8 a5bf 9b28 cb3d
00000080: 2df3 20bc e175 c9bd d653 b5bd 26fa babf
00000090: c001 a0be 0828 803d 867b 5abc bfe1 a63e
000000a0: 0dcb bebf fae6 a7bd b4d6 b8be 3efb 08be
000000b0: 9008 70be ce3e 9fbe a959 bcbe 58eb 01bf
000000c0: ecf7 3abe 6db5 a03d 0046 0fbf 82ea 2ebf
000000d0: fd38 8cbf 5577 a13d bfb1 0fbe 7513 1d3f
000000e0: 1b90 05bf e14c 34bf c012 54bf ca3d 7bbd
000000f0: ee13 1bbf dde8 0ebf ed8d 4abf 10fc ddbe
00000100: 0ab3 a03e 1c59 0dbf a16e efbe 9046 1abf
00000110: 92bf 33bf 7a12 083e f946 39bf 2db2 8dbe
00000120: 06b1 ebbe 4dd1 11bf 930c 2cbf 40ba 80be
00000130: fa95 a8be d7b2 a2be fe0e 2bc0 94aa da3e
00000140: 5528 40be c1b6 8fbd 0e55 0fbd fd36 353e
00000150: b93d 3dbf aa0a 5ebc 30dc c3bd 03d5 893e
00000160: d18c c2be 02ca cbbe 9ef3 83bf 7ec6 02bd
00000170: 92fc a9bd 2f31 96be 5aad 26bf b861 6bbf
00000180: b07d e9be fee2 913e 3bb3 a7bc 2e2c 32be
00000190: 6057 91ba 25d3 f5ba c431 3abe 8435 6e3e
000001a0: 4a97 77bc 54bb 84bd 637c 82bd b476 d9bd
000001b0: af56 d6bd 6320 4fbe 23d0 f3bd 8bda bcbc
000001c0: 0d54 2cbf f301 89be ced4 78be d28a 1ebe
000001d0: 6a89 c0bd b4ea 93bd 9099 9fbe e597 ac3d
000001e0: f93e c1bd 1129 8fbe 7e0e 29be 2cc3 0bbc
000001f0: 2cbb 00be 8c89 1dbe 5c54 953e 6f55 6e3d
00000200: 8945 553d ac39 08bc 5154 09be 6bf0 883d
00000210: 3afb 16be 88e1 543d f31c 0cbe f619 35bf
00000220: 01ab 573d ccf8 3fbf 3e54 7ebe 4742 b53c
00000230: 178a 87be c694 cfbe 72e5 fdbd 5fd1 43be
00000240: 0710 ff3d c5d7 85be 1b46 28bc d42e 933d
00000250: 92f1 52be 9b51 343d 671a 853c c597 c13d
00000260: 0b4b 003e 3197 0f3e 87fa 843d 9ab4 9cbe
00000270: 7b74 793d e97e 8f3d d564 053e 9c7f 313d
00000280: b566 5ebe a53b f1bc 5415 353e f15a 813d
00000290: a305 013d c76c 8fbd b795 6c3e 85b2 ae3c
000002a0: a185 8f3d 1196 ca3d 294d 3b3e 160c 963d
000002b0: c2c4 363e 70be 903e 8abb 92be ca17 4c3e
000002c0: 4627 09be dbd6 d9bc 0794 9e3d 7a12 e6bb
000002d0: ae0d a03c 9f7f f63c 5638 a1bd 831f 0cbe
000002e0: c601 9f3e 3718 a2bc 02ae 243d 1497 363d
000002f0: 9f47 a03d d8dd 903d 96f7 9d3d 398d e83d
00000300: 8ffd 9abd f737 683e 4a53 6cbe 3985 95be
00000310: 022e f9be 7ff3 91bc 10b9 1dbe e752 c33e
00000320: 0a27 cdbf 684d d2be 5133 17bf ecb5 78be
00000330: 97aa 9fbe 9353 b9be cbdd fcbe 05bc 1cbe
00000340: 8f0e 31bf fe36 03be 7013 e4be e627 d1be
00000350: ccd5 00bf 27e3 af3d 0a90 29bf 9fd7 7abe
00000360: cc09 83be 1397 b7be c172 cfbe 81df 57be
00000370: 6d6e 83be 15c5 a8be a3ff 903e 4081 563e
00000380: 376d 57bc b506 6bbe bad2 debd 3e53 753e
00000390: 6e83 ddbe fb22 87bc 3261 6dbe 770c 9fbe
000003a0: e1cf d03e 12e1 15bf 3c21 b9be 7a2f 27bc
000003b0: ed7d 883c fec2 8abe 4ee5 e9be 94a9 16bf
000003c0: 13ae 31be 3bef 863d 5629 663c cd29 debc
000003d0: 3441 343d 5377 05be d8f6 a6bd 7cf8 c73d
000003e0: 08d5 33bd bbe3 13bc 6209 ddbb 5adf d33a
000003f0: 7c79 b2bc 59ee 8eba 83ba debc 17b0 863c

final.linears.1.bias f4 [48]
-0.3317039 -0.014799054 -0.37519044 -0.15989038 -0.5017111 -0.3596047 -0.22407523 -0.052145943
-0.5607621 -0.43095315 0.29758298 -0.027014418 -0.37493363 -0.41460112 0.23653759 -0.4961176
-0.4335765 -0.012608221 0.1810285 -0.11266604 -0.3155012 -0.19677547 0.2562563 -0.4306439
-0.44543153 -0.15757865 -0.20651755 -0.45757112 -0.13209517 -0.065982506 0.22580998 -0.06820511
0.20684099 0.4193305 -0.13608098 0.15918659 -0.4545975 -0.002474585 0.14645763 -0.12630227
0.026769215 0.037759103 -0.06181291 -0.002316736 0.069510855 0.11081649 -0.18286178 -0.09951816
00000000: 18d5 a9be bb77 72bc f618 c0be 4eba 23be
00000010: 2370 00bf 1b1e b8be fa73 65be fc96 55bd
00000020: 1b8e 0fbf e4a5 dcbe cc5c 983e 574d ddbc
00000030: 4df7 bfbe 9946 d4be e936 723e 2003 febe
00000040: bdfd ddbe b692 4ebc 895f 393e 74bd e6bd
00000050: 6089 a1be 827f 49be 0734 833e 5b7d dcbe
00000060: 9a0f e4be 4c5c 21be 5679 53be c346 eabe
00000070: f543 07be d621 87bd bb3a 673e 1faf 8bbd
00000080: 20ce 533e 7db2 d63e d058 0bbe cf01 233e
00000090: 01c1 e8be a62c 22bb fdf8 153e 6255 01be
000000a0: 1d4b db3c 4aa9 1a3d 892f 7dbd 61d4 17bb
000000b0: b55b 8e3d c2f3 e23d 1e40 3bbe 2dd0 cbbd

final.linears.2.weight f4 [4, 48]
2.17868 0.54105735 -0.4592707 0.064913794 -1.8840351 -0.22026116 -0.3074738 -0.03392572
-0.30934784 0.31438237 1.6033417 -0.06943253 -0.10861829 -0.14593218 -1.9830185 -0.8046327
-1.6321769 -0.68224543 -0.31916896 3.6130514 -0.5619675 3.2700827 1.8184988 -0.42664227
0.07115747 -0.54321086 -0.16721946 1.5790763 -0.07617459 -0.6992163 0.5171107 0.21303453
-1.4165249 0.5472492 0.11332244 -3.045515 -1.8664031 0.75346774 -0.8387198 -0.51077193
0.043164954 0.38334075 0.13331157 0.09757023 0.69856465 -0.39527118 0.68704873 0.30126625
-1.3980098 2.164924 -0.31131327 0.033092696 0.59301454 -0.21278122 -2.0873477 -0.012024105
0.14551106 -0.08236171 1.6556168 0.20253101 -0.14455861 -0.15872182 -1.8703253 1.51246
-1.8756526 -0.64448625 0.1457603 -1.9509466 -0.66708803 -2.0953429 1.9026372 0.14087543
-0.2101426 -0.53442186 0.2913135 0.6420482 0.2381909 -0.5374458 0.43369654 0.2221445
-1.4648801 -0.19559589 -1.9218649 1.3002572 3.5854225 0.6596592 2.416221 0.14898135
-0.009236109 0.38097474 0.16411442 -0.17309421 0.6141999 -0.43748444 -0.74227667 0.336739
-0.6927499 -2.8011158 0.722932 -0.11243512 1.2836028 -0.20913817 2.5508387 -0.045524046
0.1551854 -0.21086052 1.6266052 -0.10938397 0.26560226 -0.16161413 -1.8106352 -0.78818756
3.3472767 -0.5575196 0.19541098 -1.7325534 1.2850637 -1.2490203 1.8801454 0.28968793
0.14396545 -0.50364757 -0.13634866 -2.1462762 -0.16505247 -0.5866665 -0.8930517 0.21099463
-1.4364396 -0.3560356 1.5224512 1.8564351 -1.9217693 0.7893267 -1.5948118 0.4800708
-0.035553522 0.4679987 0.14289342 0.039687425 0.61919 -0.26917553 0.09630544 0.36558807
0.067836955 -0.1543113 0.10632543 -0.02118829 0.06694077 0.28565884 0.20622851 0.056597214
0.023247287 0.007756681 -2.843638 -0.0057384535 -0.02452029 -0.35322648 2.7670693 -0.04594184
-0.035479974 0.79224145 -0.011407025 -0.07887991 -0.32007924 0.032739114 2.8563192 -0.010599708
0.01826352 0.923869 -0.000591912 0.02646969 -0.022672174 -0.69513774 -0.009418524 -0.3152374
-3.0805397 0.019372167 -0.35021853 -0.0007511126 -0.07935561 0.31412196 0.075866975 -0.10637763
-0.036819506 1.5347072 0.2899657 0.0066315946 -1.1532874 -1.184102 0.0047869836 0.62111807
00000000: 7e6f 0b40 bc82 0a3f 8725 ebbe 86f1 843d
00000010: 1028 f1bf 248c 61be 356d 9dbe b2f5 0abd
00000020: d762 9ebe baf6 a03e 4d3a cd3f a432 8ebd
00000030: 4473 debd 3f6f 15be 8dd3 fdbf 69fc 4dbf
00000040: 2ceb d0bf a3a7 2ebf 1d6a a3be 3c3c 6740
00000050: 1add 0fbf 0949 5140 92c4 e83f db70 dabe
00000060: 02bb 913d de0f 0bbf 943b 2bbe 2c1f ca3f
00000070: 6c01 9cbd d7ff 32bf 5e61 043f b925 5a3e
00000080: b050 b5bf 8618 0c3f 9815 e83d b8e9 42c0
00000090: 4ce6 eebf 43e3 403f 57b6 56bf f3c1 02bf
000000a0: bccd 303d 3d45 c43e d482 083e e7d2 c73d
000000b0: 22d5 323f fc60 cabe 6de2 2f3f 923f 9a3e
000000c0: fcf1 b2bf 1d8e 0a40 7464 9fbe 358c 073d
000000d0: cdcf 173f 52e3 59be 1b97 05c0 c000 45bc
000000e0: da00 153e 42ad a8bd 40eb d33f 4a64 4f3e
000000f0: 2c07 14be f987 22be d266 efbf 4a98 c13f
00000100: 6215 f0bf 0dfd 24bf 3042 153e 9eb8 f9bf
00000110: 48c6 2abf 191a 06c0 9e89 f33f a641 103e
00000120: 9f2f 57be dfcf 08bf 0b27 953e 455d 243f
00000130: 51e8 733e 0c96 09bf 790d de3e d979 633e
00000140: 3181 bbbf 4a4a 48be abff f5bf d46e a63f
00000150: 9077 6540 6ddf 283f 5da3 1a40 918e 183e
00000160: 0d53 17bc 1f0f c33e 9c0d 283e 9c3f 31be
00000170: 343c 1d3f f6fd dfbe d805 3ebf 0e69 ac3e
00000180: 0f58 31bf 7b45 33c0 1212 393f 6244 e6bd
00000190: 194d a43f 5128 56be f140 2340 6c77 3abd
000001a0: ece8 1e3e d2eb 57be 9934 d03f b404 e0bd
000001b0: 05fd 873e 2d7e 25be e5c2 e7bf a9c6 49bf
000001c0: c839 5640 9bb9 0ebf d119 483e 4fc4 ddbf
000001d0: f87c a43f e6df 9fbf 9ba8 f03f fa51 943e
000001e0: ae6b 133e 0cef 00bf fc9e 0bbe 975c 09c0
000001f0: 8403 29be c72f 16bf 099f 64bf fa0e 583e
00000200: 41dd b7bf 4c4a b6be aedf c23f aa9f ed3f
00000210: 89fc f5bf 5111 4a3f cb22 ccbf d7cb f53e
00000220: 92a0 11bd 879d ef3e a752 123e 488f 223d
00000230: 3c83 1e3f 60d1 89be c93b c53d 5c2e bb3e
00000240: 1aee 8a3d c803 1ebe 26c1 d93d 1193 adbc
00000250: 3e18 893d e041 923e 912d 533e 7bd2 673d
00000260: 1871 be3c c22b fe3b 2afe 35c0 a309 bcbb
00000270: c6de c8bc 1ada b4be aa17 3140 832d 3cbd
00000280: 7353 11bd 56d0 4a3f 88e4 3abc ca8b a1bd
00000290: 6de1 a3be 7319 063d efcd 3640 66aa 2dbc
000002a0: 619d 953c ae82 6c3f 8b2a 1bba f7d6 d83c
000002b0: ffba b9bc 8cf4 31bf 2750 1abc cc66 a1be
000002c0: 9027 45c0 61b2 9e3c d84f b3be 50e6 44ba
000002d0: 3285 a2bd 98d4 a03e 2560 9b3d 84dc d9bd
000002e0: 0dd0 16bd 4971 c43f 6276 943e d94d d93b
000002f0: ec9e 93bf a890 97bf 21dc 9c3b 9801 1f3f

final.linears.2.bias f4 [4]
0.5143313 -0.2019975 -0.2048784 0.09793995
00000000: 37ab 033f 6fd8 4ebe a5cb 51be be94 c83d

layers.0.attn.0.gnn_q.weight f4 [4, 10]
-5.27471e-40 -5.23972e-40 -5.04264e-40 1.174043e-39 1.193697e-39 2.238e-42 1.404517e-39 1.751431e-39
6.41607e-40 2.813837e-39 6.45951e-40 -1.331774e-39 -6.183e-42 5.87755e-40 -2.215355e-39 -1.74815e-39
1.744764e-39 2.26276e-39 9.66345e-40 1.75826e-39 -1.08922e-39 9.85806e-40 3.0012e-40 -8.9813e-41
9.74143e-40 -1.028643e-39 -1.365387e-39 1.638716e-39 -2.010209e-39 1.23404e-40 -1.324945e-39 -2.354096e-39
-6.83673e-40 -1.3012e-39 1.14419e-40 -2.528031e-39 -2.358024e-39 1.744178e-39 1.268022e-39 3.42241e-39
00000000: 60be 0580 9fb4 0580 af7d 0580 c1c8 0c00
00000010: 8bff 0c00 3d06 0000 394b 0f00 4712 1300
00000020: 8afc 0600 d5a3 1e00 a608 0700 7280 0e80
00000030: 3c11 0080 6c66 0600 821f 1880 2209 1380
00000040: b1ff 1200 a7a3 1800 c785 0a00 5025 1300
00000050: 4ddc 0b80 07bc 0a00 9d44 0300 5dfa 0080
00000060: 849b 0a00 7033 0b80 25de 0e80 13d8 1100
00000070: a5e3 1580 0058 0100 686d 0e80 43a2 1980
00000080: cd71 0780 372b 0e80 f43e 0100 1f87 1b80
00000090: 36ad 1980 0ffe 1200 bbce 0d00 4944 2500

layers.0.attn.0.gnn_q.bias f4 [10]
-1.299892e-39 -1.206318e-39 -4.83767e-40 -1.268681e-39 -2.8756e-40 -2.74589e-40 -5.15465e-40 4.28244e-40
2.017327e-39 5.1744e-40
00000000: 9227 0e80 b922 0d80 8c44 0580 91d0 0d80
00000010: 9a21 0380 71fd 0280 e89c 0580 c5a9 0400
00000020: 7df7 1500 6aa2 0500

layers.0.attn.0.gnn_k.weight f4 [4, 10]
6.0581e-40 -4.5776e-41 -5.79936e-40 9.7957e-40 1.24351e-40 1.03352e-39 -1.744611e-39 5.79961e-40
1.7469e-39 4.22333e-40 -2.791974e-39 1.344033e-39 -9.65021e-40 1.223977e-39 5.64324e-40 5.07585e-40
-2.029555e-39 2.091958e-39 2.019666e-39 1.224745e-39 1.341e-39 -5.76815e-40 1.287376e-39 7.5725e-41
3.49957e-40 5.4702e-41 3.676755e-39 1.243473e-39 -3.900741e-39 -1.548195e-39 -1.759351e-39 3.885041e-39
9.07159e-40 3.317753e-39 3.9531e-40 -1.744705e-39 -1.744133e-39 2.566013e-39 -1.340594e-39 2.79461e-39
00000000: c098 0600 9b7f 0080 a050 0680 a5aa 0a00
00000010: a45a 0100 0941 0b00 44ff 1280 b250 0600
00000020: a505 1300 4b99 0400 e366 1e80 9ea2 0e00
00000030: 1682 0a80 f353 0d00 1b25 0600 f186 0500
00000040: 9319 1680 87c7 1600 02fe 1500 1756 0d00
00000050: 2a9a 0e00 ed47 0680 ae04 0e00 17d3 0000
00000060: 8acf 0300 7d98 0000 4c09 2800 4c8a 0d00
00000070: ae79 2a80 bddb 1080 5b28 1380 ea4d 2a00
00000080: cae0 0900 8c20 2400 f74d 0400 87ff 1280
00000090: effd 1280 00f1 1b00 0899 0e80 3c6e 1e00

layers.0.attn.0.gnn_k.bias f4 [10]
-5.47894e-40 2.803312e-39 -1.431771e-39 -1.033905e-39 -4.54571e-40 1.19706e-40 -1.758875e-39 4.1057e-40
5.57666e-40 -1.700917e-39
00000000: 4ef7 0580 7e86 1e00 3297 0f80 1b42 0b80
00000010: 29f3 0480 b14d 0100 0727 1380 8178 0400
00000020: 8c12 0600 7785 1280

layers.0.attn.0.gnn_v.weight f4 [4, 10]
0.1654686 -0.26616207 0.2192609 0.53780377 0.35986388 0.10756644 0.82359725 -0.18190643
-0.7225273 -0.22980036 0.14468434 -0.16530567 0.15142521 -1.00297 0.5108128 0.99765915
0.29884407 -0.21670403 -0.3341662 0.63303673 0.11879747 -0.19766806 0.14303967 0.12266907
-0.68357277 -0.19950892 0.34070435 0.84472734 -0.58988917 1.0089405 0.028472088 -0.08594113
0.048007447 -0.20063509 0.4059139 -1.0359195 -0.5160205 -0.85919297 -0.7402966 0.6635433
00000000: 9a70 293e 6546 88be ee85 603e 82ad 093f
00000010: 1440 b83e cb4b dc3d 45d7 523f ae45 3abe
00000020: 8df7 38bf c950 6bbe 2228 143e e445 29be
00000030: 360f 1b3e 5261 80bf a1c4 023f 9766 7f3f
00000040: 1702 993e a9e7 5dbe d517 abbe b20e 223f
00000050: 174c f33d 7f69 4abe fe78 123e ec39 fb3d
00000060: a0fe 2ebf 114c 4cbe cd70 ae3e 0d40 583f
00000070: fa02 17bf f624 813f 4c3e e93c e701 b0bd
00000080: 75a3 443d 4973 4dbe f2d3 cf3e 0399 84bf
00000090: eb19 04bf 12f4 5bbf 1484 3dbf f9dd 293f

layers.0.attn.0.gnn_v.bias f4 [10]
-0.15055627 0.23429714 -0.19326778 -0.32313994 -0.22628155 -0.0992216 -0.624311 0.06908263
0.60840344 0.016710037
00000000: 6c2b 1abe 97eb 6f3e fde7 45be 9972 a5be
00000010: 5ab6 67be b234 cbbd d8d2 1fbf 327b 8d3d
00000020: 54c0 1b3f 7de3 883c

layers.0.attn.1.gnn_q.weight f4 [4, 10]
4.2028e-41 -1.787687e-39 9.13816e-40 -1.397867e-39 -2.020419e-39 -1.750753e-39 1.398293e-39 1.48974e-39
2.428094e-39 -1.303908e-39 -4.25189e-40 1.899761e-39 1.920547e-39 1.36466e-39 5.4033e-41 2.012262e-39
-5.56325e-40 -2.822921e-39 2.260509e-39 -1.747292e-39 -1.465873e-39 2.60298e-39 -1.292625e-39 -4.12418e-40
-3.186918e-39 -1.625698e-39 -4.191827e-39 -1.525689e-39 2.401156e-39 3.200119e-39 -1.272774e-39 -1.795522e-39
-1.305357e-39 2.25894e-39 -2.565707e-39 -9.15044e-40 1.365804e-39 -5.7027e-40 4.26103e-40 -1.783815e-39
00000000: 2875 0000 5877 1380 59f3 0900 af38 0f80
00000010: 1b00 1680 6310 1380 df39 0f00 ca38 1000
00000020: 8a70 1a00 c432 0e80 41a1 0480 c3af 1400
00000030: b4e9 1400 1edc 0e00 9f96 0000 5ee9 1500
00000040: cf0e 0680 28bd 1e80 619d 1800 bd06 1380
00000050: 42f6 0f80 0d58 1c00 5013 0e80 a77d 0480
00000060: d5b3 2280 c9b3 1180 1ca5 2d80 009d 1080
00000070: 7225 1a00 a1d8 2200 fadb 0d80 2f8d 1380
00000080: ce36 0e80 0199 1800 26f0 1b80 c5f6 0980
00000090: 4edf 0e00 ae35 0680 cda3 0400 8d6c 1380

layers.0.attn.1.gnn_q.bias f4 [10]
-1.035782e-39 1.036435e-39 -5.2819e-41 8.5333e-41 -1.308144e-39 2.358e-42 4.247e-40 5.6743e-41
-1.8199e-41 -1.23345e-40
00000000: 5747 0b80 2949 0b00 3d93 0080 e0ed 0000
00000010: 933e 0e80 9306 0000 e49f 0400 2d9e 0000
00000020: bb32 0080 d657 0180

layers.0.attn.1.gnn_k.weight f4 [4, 10]
1.73798e-39 -1.7449e-39 1.07061e-39 2.402993e-39 6.20084e-40 2.562821e-39 -5.63308e-40 9.50525e-40
-1.035829e-39 1.170758e-39 1.541396e-39 1.755788e-39 -1.364247e-39 1.238734e-39 -4.80902e-40 1.303926e-39
6.14961e-40 -9.573e-40 -2.262073e-39 1.367841e-39 9.96688e-40 -1.274367e-39 2.563339e-39 1.363e-42
-1.20812e-40 5.17586e-40 -1.33287e-39 9.14857e-40 -1.362634e-39 1.536395e-39 -2.40105e-39 -9.30937e-40
9.49105e-40 5.71332e-40 -5.20112e-40 3.90388e-39 -4.80151e-40 9.49497e-40 2.263848e-39 2.827725e-39
00000000: c8ec 1200 1200 1380 6da8 0b00 912a 1a00
00000010: 8bc0 0600 1ae8 1b00 4622 0680 ad59 0a00
00000020: 7847 0b80 99bf 0c00 c9c8 1000 6c1e 1300
00000030: f7da 0e80 167d 0d00 8f3c 0580 d132 0e00
00000040: 43b2 0600 906c 0a80 bda1 1880 fce4 0e00
00000050: 5cda 0a00 6be0 0d80 8ce9 1b00 cd03 0000
00000060: c650 0180 d2a2 0500 8083 0e80 40f6 0900
00000070: 78d6 0e80 d8ba 1000 2725 1a80 1323 0a80
00000080: b855 0a00 a438 0600 dca9 0580 6e82 2a00
00000090: 773a 0580 d056 0a00 b0a6 1800 8cca 1e00

layers.0.attn.1.gnn_k.bias f4 [10]
-1.404652e-39 2.920753e-39 -1.777414e-39 9.76412e-40 1.066745e-39 3.96184e-40 -1.525388e-39 -3.206929e-39
-1.922675e-39 -1.399076e-39
00000000: 994b 0f80 dfcd 1f00 b55a 1380 d7a1 0a00
00000010: a79d 0b00 6650 0400 299c 1080 9deb 2280
00000020: a3ef 1480 0e3c 0f80

layers.0.attn.1.gnn_v.weight f4 [4, 10]
-0.017377837 -0.482445 0.0015325493 -0.0009269343 0.3082733 0.4607776 0.0022226556 -0.0055751493
-0.0025622507 -0.001521846 -0.26229814 -0.15978509 -0.00067351974 0.00042397346 -0.51414603 0.3292267
-0.00041845694 0.021572638 0.017206443 0.011695668 -0.30603442 0.67907643 0.001529511 -0.009031626
0.019301638 0.48339403 0.0021816501 0.0061160843 0.009744873 0.0067281434 -0.8407587 -0.16540183
0.0020799309 -0.013746166 0.21143988 -0.13968876 0.0028649038 -0.032114577 -0.019735945 -0.0042602783
00000000: f75b 8ebc 0803 f7be d2df c83a 82fd 72ba
00000010: ffd5 9d3e 0beb eb3e f9a9 113b beaf b6bb
00000020: 6feb 27bb ae78 c7ba f14b 86be b49e 23be
00000030: 258f 30ba c148 de39 139f 03bf 6790 a83e
00000040: 5764 dbb9 1ab9 b03c 87f4 8c3c 309f 3f3c
00000050: 8bb0 9cbe f4d7 2d3f df79 c83a 63f9 13bc
00000060: 781e 9e3c 6c7f f73e 04fa 0e3b 6f69 c83b
00000070: f6a8 1f3c c277 dc3b f63b 57bf 195f 29be
00000080: 734f 083b 9937 61bc b283 583e 920a 0fbe
00000090: 1cc1 3b3b 938a 03bd 47ad a1bc ce99 8bbb

layers.0.attn.1.gnn_v.bias f4 [10]
0.07503891 0.23739074 -0.0011390095 -0.0010002365 -0.14476214 -0.4146727 -0.0016280907 5.2320494e-05
0.00031127027 0.002348719
00000000: 00ae 993d 8f16 733e d14a 95ba 5e1a 83ba
00000010: 873c 14be fb4f d4be a965 d5ba b472 5b38
00000020: fd31 a339 f7ec 193b

layers.0.mlp.linears.0.weight f4 [16, 4]
8.86505e-40 -3.89679e-39 -0.9389661 0.36762217 1.701572e-39 -1.073765e-39 0.000101021076 -0.00027527008
-1.575553e-39 9.16661e-40 -0.41685465 0.04955892 1.59726e-40 5.6896e-41 -0.0004099284 -0.00026117158
-6.02222e-40 -2.794775e-39 -0.7636027 -0.15521675 -6.2978e-40 1.325689e-39 -1.791161 -0.19174582
5.2711e-40 -3.9684e-40 1.3248742e-05 -0.00016460558 -6.52959e-40 1.741958e-39 -0.2781678 -0.36869362
9.66648e-40 2.441554e-39 1.0353798 0.067687124 7.64299e-40 1.70416e-39 -0.1304587 -0.07474794
-4.169e-42 -5.06226e-40 0.00021385531 -0.0001777915 1.085383e-39 1.323113e-39 -1.4544436 0.16136648
-7.31478e-40 1.753062e-39 -0.09842804 0.71220446 8.95748e-40 5.57609e-40 0.7932584 0.21423455
-5.2261e-40 1.759707e-39 0.6729524 -0.20660594 -2.56698e-40 -5.62281e-40 1.0009933 -0.2437746
00000000: 37a7 0900 aa6e 2a80 1560 70bf f938 bc3e
00000010: 4a87 1200 38b1 0b80 47db d338 2052 90b9
00000020: 0028 1180 47fb 0900 f96d d5be 4bfe 4a3d
00000030: 40bd 0100 9a9e 0000 a9eb d6b9 dbed 88b9
00000040: c08e 0680 b26e 1e80 777b 43bf 24f1 1ebe
00000050: 92db 0680 7b6f 0e00 c344 e5bf 0459 44be
00000060: 5ebd 0500 3a52 0480 ea46 5e37 f999 2cb9
00000070: 2f1c 0780 dff7 1200 036c 8ebe 69c5 bcbe
00000080: 9f86 0a00 0f96 1a00 5387 843f 8c9f 8a3d
00000090: 8e52 0800 818e 1200 f796 05be 7315 99bd
000000a0: 9f0b 0080 2783 0580 593e 6039 8b6d 3ab9
000000b0: 9bd1 0b00 4d68 0e00 352b babf 413d 253e
000000c0: 10f7 0780 d316 1300 a494 c9bd 0853 363f
000000d0: fbc0 0900 6312 0600 fc12 4b3f 4d60 5b3e
000000e0: d3b0 0580 5929 1300 9c46 2c3f 8290 53be
000000f0: 92cb 0280 691f 0680 8c20 803f 0ca0 79be

layers.0.mlp.linears.0.bias f4 [16]
-0.12347468 8.156787e-05 0.12657195 -0.00032648336 0.27476195 0.18032262 1.590107e-05 0.284827
-0.420388 0.08687484 0.00014881529 0.44876498 -0.35315594 -0.52389526 -0.35608166 -0.24891716
00000000: 4be0 fcbd 6b0f ab38 149c 013e db2b abb9
00000010: 99ad 8c3e 7ea6 383e 4a63 8537 d8d4 913e
00000020: 193d d7be 70eb b13d 4d0b 1c39 86c4 e53e
00000030: dbd0 b4be 001e 06bf 5650 b6be 24e4 7ebe

layers.0.mlp.linears.1.weight f4 [16, 16]
0.16105612 -0.0023425606 0.059283163 0.003219952 0.008534652 0.09599336 0.00092629343 -0.032148495
-0.00034591576 0.002215337 -0.0006275223 0.20699453 0.5499844 0.119408056 -0.026152458 -0.19007637
-0.00016244911 -0.00023156796 0.00047741813 7.015515e-05 0.0016441488 -0.0017309524 8.251978e-06 0.0017609065
0.0003421685 0.0011636934 -0.00012737457 0.0007425751 0.00019953598 0.00040949514 0.0003837331 -0.0008167298
-0.059000727 0.0029884612 0.0013793587 -0.002392781 0.075461335 0.26009017 -0.0009791318 -0.33368623
0.40573743 -0.08770853 0.00012318618 0.25798655 -0.17280813 0.43182117 0.3541084 0.3538105
-0.11355448 -0.0014657736 0.0038820654 0.003761908 0.06145027 0.2211062 0.0011203798 0.06388448
-0.039782953 -0.004593674 -0.0011800185 0.13771448 -0.4081414 -0.07515119 -0.01580399 -0.046800178
-0.0951987 -0.0008504051 0.17543416 0.00022466842 0.30399883 -0.1963432 0.0014196846 0.26823238
-0.6314045 0.20631985 0.0015020313 0.10638362 -0.18770905 -0.56999135 -0.2670276 -0.47644687
-0.13305841 -0.001092699 0.024150437 0.0012910025 0.047075734 0.07642705 -9.3364724e-05 0.1652193
0.13526961 0.026667748 -0.0005428487 0.06992525 0.20027626 0.17515282 -0.10000818 -0.027335158
0.14064966 8.679097e-06 0.013348513 -0.0014756551 0.048487574 0.25550047 -0.0017751076 -0.026491398
0.37106514 -0.027120534 -0.0008296637 0.28670862 0.29132867 0.40246835 0.12362221 0.2418473
-0.12250593 0.00039093348 -0.25923264 0.00064834196 -0.252808 0.045003183 0.001381525 -0.23857412
0.6045821 -0.06136188 0.0013837416 -0.29509896 0.0060510226 0.51869977 0.44723392 0.45717534
0.37682933 -0.0013973071 -0.034735374 0.0016333808 0.10822252 0.60434735 0.0023839967 -0.4039951
0.57697994 -0.10222893 0.0021316118 0.7407196 -0.3470321 0.49928463 0.5260772 0.5598831
-0.48530033 -0.0020464882 -0.19865215 -0.000107232336 -0.24002612 -0.36497304 0.00075340696 -0.02954074
-0.1753528 -0.02048085 0.0010215478 -0.6644575 -0.11627857 -0.37455538 -0.13360773 -0.13687861
-0.34797338 0.00021278636 -0.26158094 -0.00046976705 -0.529699 -0.7895598 -0.0007226274 -0.082319506
0.4297911 -0.08329573 -0.0010233258 -0.65368354 0.25804025 -0.0053495504 0.11581741 0.48117664
0.3355521 -0.00015724111 0.31912136 -0.00093517994 0.47415859 0.79349434 0.00025330132 -0.011963314
-0.90653217 0.1161833 0.0008316633 0.81254274 0.12846549 -0.47815645 -0.17332108 -0.72093856
-0.15692756 -0.00013442479 -0.13068816 -0.0013931311 0.013014144 0.33476263 0.00035262434 0.051274437
0.33319977 0.007346 0.0017226557 -0.07298339 -0.20304342 0.14828336 0.419274 0.4410024
0.40104604 -0.00097488746 0.11782007 -0.0032534378 0.16494691 0.9478611 -0.0033797366 -0.044415828
-0.007538377 -0.016557178 -0.0030326212 0.25347134 0.039457202 0.26804647 0.354884 -0.11439252
0.006396935 0.00014102006 0.0014251577 5.625478e-06 -0.00046845974 -0.0047191703 -1.9978259e-05 -0.0019984324
-0.0022253103 0.000971178 0.00015156239 0.0015431575 -0.0028254539 -0.0061061364 0.003409907 0.0041557425
0.0020704258 0.0026899497 -0.025413772 -0.0047198758 -0.055798512 -0.2975345 -0.0029498949 0.05077017
-0.45690197 0.014342918 -0.0013688162 -0.08599068 0.047277205 -0.39421013 -0.180973 -0.37517974
00000000: e5eb 243e a585 19bb e7d2 723d d505 533b
00000010: edd4 0b3c 2b98 c43d 80d2 723a 24ae 03bd
00000020: 075c b5b9 302f 113b 4f80 24ba 60f6 533e
00000030: c7cb 0c3f 368c f43d ae3d d6bc 61a3 42be
00000040: 1a57 2ab9 0dd1 72b9 fa4d fa39 4220 9338
00000050: 7b80 d73a 20e1 e2ba fa71 0a37 38ce e63a
00000060: 1465 b339 1287 983a da8f 05b9 5fa9 423a
00000070: 883a 5139 82b1 d639 c92f c939 cf19 56ba
00000080: bfaa 71bd 0fda 433b 99cb b43a 34d0 1cbb
00000090: 798b 9a3d 8a2a 853e 3656 80ba ecd8 aabe
000000a0: d1bc cf3e 88a0 b3bd 8a2b 0139 d016 843e
000000b0: 9df4 30be aa17 dd3e b24d b53e a626 b53e
000000c0: 408f e8bd 331f c0ba 406a 7e3b 588a 763b
000000d0: 47b3 7b3d aa69 623e b5d9 923a ded5 823d
000000e0: 73f3 22bd 8886 96bb daaa 9aba 0605 0d3e
000000f0: e9f7 d0be dee8 99bd 5f77 81bc 8bb1 3fbd
00000100: 89f7 c2bd b8ed 5eba 03a5 333e f894 6b39
00000110: bca5 9b3e 310e 49be b614 ba3a c155 893e
00000120: baa3 21bf 8345 533e cfdf c43a a8df d93d
00000130: cd36 40be f4ea 11bf d7b7 88be d8f0 f3be
00000140: 7740 08be e538 8fba 23d7 c53c db36 a93a
00000150: 7cd2 403d c985 9c3d cecc c3b8 402f 293e
00000160: 1e84 0a3e 5276 da3c f64d 0eba f834 8f3d
00000170: 3815 4d3e 435b 333e 17d1 ccbd fbed dfbc
00000180: 7706 103e 709c 1137 b9b3 5a3c c56a c1ba
00000190: e89a 463d f5d0 823e baaa e8ba 7d04 d9bc
000001a0: 40fc bd3e e22b debc ca7d 59ba 79cb 923e
000001b0: 0829 953e 5510 ce3e a42d fd3d d2a6 773e
000001c0: 64e4 fabd 34f6 cc39 24ba 84be 7ef5 293a
000001d0: 0d70 81be 4255 383d 4914 b53a c64c 74be
000001e0: e4c5 1a3f 9856 7bbd aa5e b53a 3617 97be
000001f0: a847 c63b 82c9 043f d8fb e43e e312 ea3e
00000200: c6ef c03e d925 b7ba ae46 0ebd 2a17 d63a
00000210: c5a3 dd3d 82b6 1a3f d43c 1c3b 72d8 cebe
00000220: f5b4 133f 675d d1bd 83b2 0b3b cd9f 3d3f
00000230: 31ae b1be 3ca2 ff3e ffac 063f 8054 0f3f
00000240: 4979 f8be 601e 06bb 786b 4bbe ece1 e0b8
00000250: 68c9 75be bfdd babe 4980 453a 6cff f1bc
00000260: af8f 33be 75c7 a7bc 75e5 853a e319 2abf
00000270: 7523 eebd b9c5 bfbe 77d0 08be e829 0cbe
00000280: 9129 b2be 671f 5f39 f0ed 85be 114b f6b9
00000290: 5b9a 07bf 9720 4abf b46e 3dba 2197 a8bd
000002a0: 940d dc3e f496 aabd 1e21 86ba ce57 27bf
000002b0: da1d 843e 484b afbb ae31 ed3d c95c f63e
000002c0: 7ccd ab3e 17e1 24b9 e063 a33e dd26 75ba
000002d0: eac4 f23e 7222 4b3f 87cd 8439 c701 44bc
000002e0: 7e12 68bf 83f1 ed3d fb03 5a3a cd02 503f
000002f0: 758c 033e ecd0 f4be 157b 31be 6e8f 38bf
00000300: 9eb1 20be 61f4 0cb9 1ed3 05be b999 b6ba
00000310: 4739 553c 0266 ab3e 70e0 b839 2505 523d
00000320: 2999 aa3e b7b6 f03b bcca e13a 5178 95bd
00000330: 9dea 4fbe 98d7 173e 15ab d63e 11cb e13e
00000340: e855 cd3e 978f 7fba a64b f13d a137 55bb
00000350: d8e7 283e 06a7 723f 927e 5dbb 5fed 35bd
00000360: 7d04 f7bb eba2 87bc f1be 46bb ffc6 813e
00000370: e09d 213d 633d 893e 5bb3 b53e a046 eabd
00000380: 619d d13b c9de 1339 5bcc ba3a 7dc2 bc36
00000390: 9a9b f5b9 45a3 9abb fc96 a7b7 22f8 02bb
000003a0: 83d6 11bb a796 7e3a b8ec 1e39 c643 ca3a
000003b0: 402b 39bb fc15 c8bb bf78 5f3b e52c 883b
000003c0: fbaf 073b de49 303b 8b30 d0bc 30a9 9abb
000003d0: fb8c 64bd 7156 98be 0653 41bb 62f4 4f3d
000003e0: 0eef e9be 8ffe 6a3c da69 b3ba e21b b0bd
000003f0: bea5 413d e9d5 c9be fc50 39be 8f17 c0be

layers.0.mlp.linears.1.bias f4 [16]
-0.0134964865 -0.00051346386 -0.07842979 -0.025190594 0.2861979 -0.03440628 -0.051139284 -0.36417833
-0.09397153 -0.1660872 -0.06270033 0.073802345 -0.040773075 -0.35217255 -0.00024876022 -0.044515133
00000000: 5e20 5dbc fa99 06ba cc9f a0bd 815c cebc
00000010: 8888 923e 99ed 0cbd 6d77 51bd 9575 babe
00000020: 2574 c0bd c312 2abe 0869 80bd af25 973d
00000030: ab01 27bd f64f b4be 086c 82b9 8055 36bd

layers.0.mlp.linears.2.weight f4 [8, 16]
0.12472714 0.00014376195 0.36782366 0.084414594 -0.018756755 0.0911399 0.34450537 -0.041828632
0.37304646 -0.598324 -0.8979341 -0.2423658 -0.05282832 -0.27696362 -0.0015492993 0.31934297
0.28160462 -0.00062017253 0.09672799 -0.19309972 -0.24175781 0.12875699 0.2605585 0.36207888
0.015110096 -0.13170709 0.25010222 -0.16740413 0.010736324 -0.30142367 0.0015363666 -0.059803084
-0.2889716 -0.00020177172 -0.344967 0.047972877 -0.16402918 -0.061322425 -0.22421373 -0.3948327
-0.4934472 0.27623028 -0.35954526 -0.43368116 -0.2482885 -0.1934934 0.00053073437 -0.09399176
0.15157038 0.00013357218 0.02183825 0.0756491 0.46277037 0.02500533 0.13411558 -0.5746325
0.5759092 -0.017028358 0.28549418 -0.4912905 -0.057775494 0.38243306 -0.0009351486 0.1763809
-0.31402904 0.0005472804 0.26832992 -0.012972063 -0.2873516 -0.0011405206 -0.047259577 0.36939156
-0.36742833 -0.059109 -0.16969994 0.34622285 0.20369168 -0.4425131 -0.000795003 0.05147596
0.2266027 0.00027195792 -0.038439438 0.14950456 0.014420563 0.1674638 0.30907008 -0.0076149176
-0.11450523 0.16628276 -0.12044387 -0.18304142 -0.04557262 -0.020258028 -0.0022517617 -0.10876664
-0.0626971 -0.00038953716 -0.24529186 0.1669435 -0.32870066 0.055876765 -0.04085185 0.031948593
-0.5149842 0.33677837 -0.12874109 0.19941406 -0.24563694 0.19706748 0.00023121854 -0.36998504
-0.039500527 6.462961e-05 -0.22064736 0.20060165 0.02501602 0.093703546 0.13854527 0.041061655
0.07752447 0.3686467 0.22686435 -0.09656032 -0.43732807 0.40502697 -0.0012920285 -0.09717699
00000000: f170 ff3d cebe 1639 6253 bc3e 8fe1 ac3d
00000010: c4a7 99bc 8ea7 ba3d 0263 b03e 8054 2bbd
00000020: f2ff be3e c32b 19bf 02df 65bf be2e 78be
00000030: 8262 58bd 2dce 8dbe dc11 cbba ec80 a33e
00000040: 7b2e 903e 1393 22ba 5319 c63d efbb 45be
00000050: 5c8f 77be dfd8 033e ec67 853e 6762 b93e
00000060: 5690 773c 39de 06be 660d 803e fd6b 2bbe
00000070: 68e7 2f3c 3454 9abe e95f c93a 14f4 74bd
00000080: 16f4 93be af92 53b9 849f b0be 357f 443d
00000090: 44f7 27be 392d 7bbd 4998 65be 8327 cabe
000000a0: 1da5 fcbe 0e6e 8d3e 5116 b8be 750b debe
000000b0: 573f 7ebe 2223 46be fb20 0b3a c07e c0bd
000000c0: 4435 1b3e 820f 0c39 21e6 b23c eaed 9a3d
000000d0: 3df0 ec3e fad7 cc3c 9855 093e 1e1b 13bf
000000e0: c96e 133f 0e7f 8bbc 4b2c 923e 6e8a fbbe
000000f0: ffa5 6cbd 44ce c33e c324 75ba 329d 343e
00000100: 6ac8 a0be 5e77 0f3a 8a62 893e c788 54bc
00000110: c01f 93be 857d 95ba 4293 41bd e420 bd3e
00000120: 911f bcbe 471c 72bd d2c5 2dbe 1f44 b13e
00000130: 8d94 503e 1491 e2be c067 50ba 75d8 523d
00000140: 8a0a 683e 9395 8e39 ac72 1dbd b917 193e
00000150: 3a44 6c3c a17b 2b3e 6f3e 9e3e 8f86 f9bb
00000160: b881 eabd 0746 2a3e 47ab f6bd 366f 3bbe
00000170: 5baa 3abd 2af4 a5bc 4b92 13bb 0bc1 debd
00000180: 5667 80bd cb3a ccb9 ca2d 7bbe 3df3 2a3e
00000190: 744b a8be 09df 643d 4554 27bd 87dc 023d
000001a0: 01d6 03bf 376e ac3e b4d4 03be 3333 4c3e
000001b0: 4088 7bbe 0fcc 493e 4173 7239 ae6e bdbe
000001c0: 4ecb 21bd c289 8738 62f1 61be 856a 4d3e
000001d0: 65ee cc3c a5e7 bf3d d0de 0d3e 4430 283d
000001e0: 26c5 9e3d 43bf bc3e 214f 683e 6bc1 c5bd
000001f0: 77e9 dfbe b25f cf3e 4859 a9ba bb04 c7bd

layers.0.mlp.linears.2.bias f4 [8]
-0.028655827 0.22544679 -0.012737367 0.044828784 -0.2838547 0.096793 0.034735456 -0.56106424
00000000: a0bf eabc 86db 663e 64b0 50bc 639e 373d
00000010: 6755 91be 693b c63d c446 0e3d e8a1 0fbf

layers.0.multi_channel.linears.0.weight f4 [16, 20]
0.013129392 0.07248233 -0.034539137 -1.050936 0.41638514 1.0261859 -0.04522306 -0.16863571
0.28036216 0.2860545 -0.025977405 0.071762815 0.0019857516 0.004875596 0.24925415 -0.12005209
0.0016798164 -0.0014895379 -0.0023745126 -0.003328316 -0.0023211872 0.0092038745 -0.00555974 -0.018018434
-0.04584448 0.020227011 -0.031064069 0.057295635 0.06683248 0.0031638446 -0.1263387 -0.82044965
0.0022608114 0.011934732 0.3872202 0.31313482 0.0030022175 -0.00184411 -0.0030752225 -0.0059706746
-0.088656664 0.12658739 -0.1083702 -0.12500085 0.08461341 -0.5441211 -0.624958 -0.40867013
0.18915927 -0.008495047 -0.15613478 -0.034057945 -0.0011063735 0.011473613 -0.008643293 0.23687927
-0.0022092804 0.0019724444 -0.0095143225 -0.0068376474 0.003509663 0.0036871384 3.4525149e-06 -0.116398685
-0.010037577 -0.07202331 -0.13828436 -0.035323348 0.012997345 0.12412149 0.36230302 -0.17993234
0.00046591833 0.010495023 0.15842211 0.25965863 0.0007183546 -0.0033091856 -0.0095013715 -0.008216746
0.0007479328 -0.0053337533 0.0046983357 0.048819046 0.014156839 -0.036240034 0.02473223 -0.020239733
-0.026972452 -0.03557051 0.07422166 -0.2356925 -0.003905284 0.008798993 -0.51338196 0.0971376
-0.004398375 0.020977018 0.013632803 0.008107999 0.10980641 -0.20009913 0.14644459 -0.006836991
0.39181256 -0.7077806 -0.04714067 -0.64258575 -0.9112081 0.56328064 0.44160837 0.08996348
0.0012087421 0.0032807102 -0.12990199 0.12270875 0.002244887 0.005321934 0.00332968 -0.0037147864
0.0087542 -0.014919651 0.0119195 0.1023278 -0.027732188 0.033933464 0.11680559 0.074753456
-0.029403638 -0.044346627 -0.1747535 0.1102628 0.0036399716 -0.0065113776 0.22132035 0.2450953
0.0041827443 -0.004966226 0.0034324888 -0.0036102473 -0.19656172 0.27950546 -0.2221962 0.2564309
-0.2107531 -0.28610212 -0.4673582 0.023122355 0.8216253 -0.6508077 0.055477004 -0.093239814
-0.00090014254 0.0026729538 -0.14093488 -0.023658382 -0.0020278664 0.003751355 0.00412392 -0.00110354
-0.0029281667 -0.0050530448 0.0039057971 0.0521032 0.3658828 0.12486088 0.118269 -0.36896583
-0.04502003 -0.36026368 0.08686059 -0.015111845 -0.0029068703 0.0038855611 -0.04520623 0.27068397
-0.003452569 0.0133121135 0.010702323 0.0053516626 0.008436763 -0.024014382 0.013676401 -0.06617002
-0.14001665 0.037833344 0.05449538 0.1826601 -0.101607144 0.24287535 0.05440952 0.4982414
0.0017378356 -0.008786012 0.067845225 0.05016217 0.0017586295 -0.006973277 -0.002566628 0.0004899489
0.003761257 -0.014346129 0.008829568 0.17884311 -0.044601064 0.043110054 0.13216926 0.088751785
0.029833872 -0.17349714 -0.6885893 0.19100444 0.004373286 -0.012448302 -0.28199703 0.27326584
0.005184502 -0.0080847945 0.0015745296 0.00026757066 -0.048951674 0.08027748 -0.055847593 0.14117986
0.09557621 -0.08666642 -0.27114728 -0.20177698 0.3383349 -0.5265339 -0.22475418 0.19853176
0.0024958046 0.00047199128 0.12656735 0.5812647 0.0040213973 -0.0026850067 -0.000981991 -0.004049667
-0.0019469671 -0.02158011 -0.008044406 0.16528353 -0.83852077 -0.24708001 -0.0065252357 0.8693855
-0.040171895 0.5634037 -0.10745237 -0.14847192 -0.001734679 0.0023459222 -0.052286863 -0.058706794
00000000: a91c 573c 9e71 943d e978 0dbd 1285 86bf
00000010: 6f30 d53e 0f5a 833f d13b 39bd d7ae 2cbe
00000020: a18b 8f3e bc75 923e 91ce d4bc 62f8 923d
00000030: 6223 023b 77c3 9f3b 7b3c 7f3e dfdd f5bd
00000040: 492d dc3a 993c c3ba b69d 1bbb e01f 5abb
00000050: 0f1f 18bb d9cb 163c 7b2e b6bb 659b 93bc
00000060: 6cc7 3bbd 1eb3 a53c 137a febc d4ae 6a3d
00000070: 78df 883d 8158 4f3b ef5e 01be fd08 52bf
00000080: 1f2a 143b e589 433c ba41 c63e 3553 a03e
00000090: dac0 443b 10b6 f1ba ac89 49bb a6a5 c3bb
000000a0: a091 b5bd 20a0 013e 32f1 ddbd 3900 00be
000000b0: cc49 ad3d 854b 0bbf 3ffd 1fbf 363d d1be
000000c0: f8b2 413e cf2e 0bbc cce1 1fbe 5880 0bbd
000000d0: bc03 91ba d2fb 3b3c 999c 0dbc 7b90 723e
000000e0: 93c9 10bb 2044 013b f6e1 1bbc 580e e0bb
000000f0: 6002 663b eba3 713b c1b1 6736 6f62 eebd
00000100: a674 24bc f580 93bd 6a9a 0dbe 37af 10bd
00000110: d1f2 543c 6833 fe3d c87f b93e 2f40 38be
00000120: 8046 f439 51f3 2b3c 6839 223e faf1 843e
00000130: f64f 3c3a ecde 58bb a4ab 1bbc 889f 06bc
00000140: ec10 443a c4c6 aebb 7ff4 993b 7bf6 473d
00000150: 16f2 673c 6e70 14bd 3f9b ca3c cccd a5bc
00000160: 55f5 dcbc 62b2 11bd 8701 983d 6059 71be
00000170: cbef 7fbb a729 103c 006d 03bf 14f0 c63d
00000180: 3e20 90bb ffd7 ab3c 1f5c 5f3c 6ad7 043c
00000190: 2fe2 e03d c9e6 4cbe 92f5 153e d608 e0bb
000001a0: a89b c83e 1c31 35bf 9316 41bd 8080 24bf
000001b0: ef44 69bf 2933 103f 7e1a e23e c63e b83d
000001c0: a86e 9e3a 2f01 573b 0705 05be ba4e fb3d
000001d0: f41e 133b 9e63 ae3b c336 5a3b c673 73bb
000001e0: c76d 0f3c 8d71 74bc 024a 433c 3d91 d13d
000001f0: 9d2e e3bc d1fd 0a3d c537 ef3d 5718 993d
00000200: e6df f0bc cfa4 35bd 95f2 32be 76d1 e13d
00000210: 978c 6e3b 655d d5bb cda1 623e 43fa 7a3e
00000220: 670f 893b b9bb a2bb 9bf3 603b e699 6cbb
00000230: 7a47 49be 571b 8f3e 6787 63be e94a 833e
00000240: a9cf 57be fa7b 92be 9349 efbe 186b bd3c
00000250: 0956 523f 559b 26bf db3b 633d 84f4 bebd
00000260: 8bf7 6bba b92c 2f3b 3c51 10be 39cf c1bc
00000270: f4e5 04bb 4bd9 753b f321 873b a8a4 90ba
00000280: 7ce6 3fbb 0394 a5bb 67f8 7f3b 2a6a 553d
00000290: fe54 bb3e 10b7 ff3d 0437 f23d 17e9 bcbe
000002a0: ec66 38bd 7b74 b8be f7e3 b13d ac97 77bc
000002b0: 3181 3ebb e6a4 7e3b 2b2a 39bd 1797 8a3e
000002c0: 7f44 62bb 0d1b 5a3c cc58 2f3c 005d af3b
000002d0: 593a 0a3c cfb9 c4bc fc12 603c 2684 87bd
000002e0: 8660 0fbe 23f7 1a3d 8c36 5f3d 400b 3b3e
000002f0: 6817 d0bd 51b4 783e 84dc 5e3d 7f19 ff3e
00000300: 16c8 e33a 35f3 0fbc 70f2 8a3d d976 4d3d
00000310: d081 e63a 1680 e4bb df34 28bb ea6f 003a
00000320: 6c7f 763b 070c 6bbc e4a9 103c a622 373e
00000330: 9baf 36bd 2b94 303d 6157 073e 7fc3 b53d
00000340: 2a66 f43c 3ca9 31be 6347 30bf ab96 433e
00000350: c84d 8f3b f6f3 4bbc ea61 90be 80e9 8b3e
00000360: c1e2 a93b 1676 04bc 7260 ce3a ba48 8c39
00000370: 8d81 48bd 8568 a43d 72c0 64bd 7491 103e
00000380: 76bd c33d 2a7e b1bd d1d3 8abe a09e 4ebe
00000390: 3b3a ad3e edca 06bf f625 66be e94b 4b3e
000003a0: a790 233b 9975 f739 df9a 013e c3cd 143f
000003b0: edc5 833b f0f6 2fbb 26b6 80ba 12b3 84bb
000003c0: 6031 ffba c5c8 b0bc afcc 03bc 1640 293e
000003d0: 4ca9 56bf 8b02 7dbe a5d1 d5bb 0c90 5e3f
000003e0: 498b 24bd 3a3b 103f fd0f dcbd 0609 18be
000003f0: 2b5e e3ba 0bbe 193b c02a 56bd 8976 70bd

layers.0.multi_channel.linears.0.bias f4 [16]
0.038109537 -0.023689602 0.055124134 0.0033361756 0.0038626955 -0.08823407 -0.0005510478 -0.10779007
0.028637681 -0.007839986 -0.006807212 -0.16659582 0.16125098 -0.32145202 -0.08083908 0.09591918
00000000: bf18 1c3d b210 c2bc d8c9 613d bda3 5a3b
00000010: 4725 7d3b 10b4 b4bd 3174 10ba 0ac1 dcbd
00000020: 9299 ea3c 4973 00bc 080f dfbb 1898 2abe
00000030: fa1e 253e 5c95 a4be f68e a5bd 4671 c43d
