checkpoints/QM9/ccsd_qm9_CC_test.pth (torch, 462235 bytes, 376 tensors)

layers.0.weight f4 [4, 10]
0	0x3e07d0aa	0.13263193
1	0x3f9661fd	1.1748654
2	0xbef4bbc9	-0.4779952
3	0xbe8cc0b7	-0.2749078
4	0xbe060b21	-0.13090183
5	0xbe0ac952	-0.1355336
6	0x3edb2a50	0.4280572
7	0xbc9f9f43	-0.019485122
8	0x3df9ed27	0.12203436
9	0xbf06509a	-0.5246674
10	0xbf498581	-0.78719336
11	0x3e9ad489	0.30240276
12	0xbf54cefa	-0.8312832
13	0xbf03949f	-0.5139865
14	0xbf19db53	-0.6010029
15	0xbe49e567	-0.19716416
16	0x3d15842f	0.036503013
17	0x3daa2c06	0.08309178
18	0xbf1fe2f2	-0.62455666
19	0xbd38d1ed	-0.045122076
20	0x3eb9bd44	0.3627721
21	0x3fb16b91	1.3860952
22	0xbe8cf527	-0.27530786
23	0xbe6f5cb4	-0.23375207
24	0xbe2b4626	-0.16725978
25	0x3ca8e1c8	0.020615473
26	0x3f02e3b4	0.511287
27	0x3d9f9001	0.077911384
28	0x3f35613c	0.7085149
29	0xbf2c5611	-0.67318827
30	0xbf7f92be	-0.99833286
31	0x3f8ec93c	1.1155162
32	0x3ffc04ae	1.9688928
33	0x3e4be8bf	0.19913004
34	0x3f9296b6	1.1452243
35	0x3f6fdd93	0.9369747
36	0x3ecf56bd	0.40495864
37	0x3e0d5392	0.13801411
38	0xbf9fd553	-1.2486976
39	0xbeef9983	-0.46796808

layers.0.bias f4 [10]
0	0xbedd163c	-0.43181026
1	0xbe82a28c	-0.25514638
2	0xbe4ef46a	-0.20210424
3	0x3e76a348	0.24085724
4	0x3e933857	0.2875392
5	0x3e9e326f	0.30897853
6	0x3ec34376	0.38137406
7	0xbf09cc1d	-0.5382708
8	0x3e889f06	0.26683825
9	0x3eb47aa6	0.35249823

layers.1.weight f4 [10, 10]
0	0xbcccbce5	-0.024992416
1	0xbe801f26	-0.25023764
2	0xbed8c9e6	-0.42341536
3	0xbf26e20c	-0.6518867
4	0xbf09333e	-0.53593814
5	0x3ed95c0f	0.42453048
6	0xbe3c8fa7	-0.18414174
7	0xbf10c8d7	-0.5655646
8	0xbf40e474	-0.7534859
9	0xbf221be6	-0.6332382
10	0x3e1edcd5	0.15513928
11	0x3e276a0f	0.16349052
12	0x3f632192	0.887231
13	0xbfa123ae	-1.2589014
14	0x3f410fc0	0.7541466
15	0x3ef5eb4a	0.48031074
16	0xbdb3d48c	-0.087807745
17	0xbe9a47fc	-0.30133045
18	0x3f05fc7e	0.523384
19	0xbe12eaec	-0.14347428
20	0xbe9d5d1a	-0.30735093
21	0xbf07d0ed	-0.5305317
22	0xbf8e9c10	-1.1141376
23	0x3e875638	0.26432967
24	0x3d0e8321	0.034793023
25	0x3e65cdd6	0.22441801
26	0x3db2e8c0	0.087358
27	0x3f0e0ab0	0.5548506
28	0xbdb0e383	-0.086371444
29	0x3eed3245	0.46327415
30	0xbf53f9d0	-0.8280306
31	0x3eb073b1	0.34463266
32	0xbf35141d	-0.70733815
33	0x3f68c193	0.9092037
34	0x3ecb1f3d	0.3967227
35	0x3de3322c	0.11093554
36	0x3f5c4b64	0.86052537
37	0x3e658b29	0.22416367
38	0xbf5372d5	-0.82597095
39	0xbf52a9bb	-0.8229024
40	0xbee37715	-0.4442679
41	0x3e62af88	0.22137272
42	0xbe9875ac	-0.29777277
43	0x3dbba5a3	0.09162452
44	0x3f02e5f8	0.51132154
45	0x3e3af81b	0.18258707
46	0x3f8817fe	1.0632322
47	0xbdf84c18	-0.12123889
48	0xbe986e34	-0.29771578
49	0xbd7a417f	-0.06109762
50	0xbf54fc1d	-0.83197194
51	0xbf27d517	-0.65559524
52	0xbf4870df	-0.7829723
53	0x3ecedcb0	0.40402746
54	0x3f753bf4	0.95794606
55	0x3f29fb68	0.6639924
56	0x3fb67828	1.4255419
57	0x3f2eb33c	0.6824224
58	0x3d9fb62d	0.07798419
59	0x3dde98b6	0.10868971
60	0xbde2734c	-0.110571474
61	0xbf4c1f8c	-0.79735637
62	0xbe769273	-0.24079303
63	0xbec9adce	-0.39390415
64	0xbeb7d506	-0.3590471
65	0x3ec958ff	0.3932571
66	0x3e842c91	0.2581525
67	0x3f0daf74	0.55345845
68	0x3eb475d8	0.35246158
69	0xbd6455b8	-0.05574581
70	0x3e291751	0.16512801
71	0xbb59fb37	-0.0033261308
72	0x3f23578b	0.63805455
73	0xbc43789c	-0.011930611
74	0x3ea34973	0.31891975
75	0x3f06b46c	0.5261905
76	0x3e996de4	0.29966652
77	0xbe3661ef	-0.17810796
78	0x3f397456	0.7244314
79	0x3ef1ae4d	0.47203293
80	0xbe89d679	-0.26921442
81	0x3f07aef2	0.5300132
82	0x3e990939	0.2988985
83	0xbf05c060	-0.52246666
84	0xbecfc31f	-0.40578553
85	0xbf0d24b3	-0.55134124
86	0x3c12a220	0.008949786
87	0xbef27258	-0.47352862
88	0xbef3391b	-0.47504506
89	0xbe43e64d	-0.19130822
90	0xbdbcc73e	-0.0921769
91	0x3f6cd292	0.92508805
92	0x3f178724	0.59190583
93	0x3f98b707	1.1930856
94	0x3f179b04	0.5922091
95	0xbf67e52e	-0.90584075
96	0x3f1094d2	0.5647708
97	0xbd46d8f1	-0.048546735
98	0xbf193b12	-0.5985576
99	0xbe92905b	-0.2862576

layers.1.bias f4 [10]
0	0x3dbc95fc	0.09208295
1	0x3e575f85	0.21032532
2	0xbefbeb2e	-0.49202865
3	0x3eeb490a	0.45954162
4	0xbdfb96a6	-0.12284593
5	0xbea2d401	-0.3180237
6	0x3e2d99e3	0.16953234
7	0x3e1ef890	0.15524507
8	0xbeb04f8a	-0.34435683
9	0x3e8c18e4	0.2736274

final.linears.0.weight f4 [48, 24]
0	0x3e90d0c0	0.28284264
1	0xbf3665b7	-0.71248955
2	0xbeb4ee9e	-0.353383
3	0x3f48e602	0.78475964
4	0x3d05e734	0.032691196
5	0xbce9d94c	-0.028545998
6	0xbc0b0923	-0.008486065
7	0xbe376fb4	-0.17913705
8	0x3e70057e	0.23439595
9	0x3e6984ff	0.2280464
10	0x3c0b5318	0.008503698
11	0xbd5b899d	-0.053598035
12	0xbec5b3d0	-0.3861375
13	0xbe77d958	-0.24204004
14	0x3e07dc02	0.1326752
15	0xbed08488	-0.40726113
16	0xbe22af85	-0.15887268
17	0x3e5f1eaa	0.21789041
18	0x3ea163fc	0.31521595
19	0x3dd40dc2	0.103541866
20	0xbcabe6ca	-0.020984072
21	0x3eaa8726	0.33306235
22	0x3edb26dc	0.42803085
23	0x3eb3de25	0.3513042
24	0x3c5bec58	0.013423048
25	0x3e85901f	0.26086518
26	0x3d9bcd37	0.07607501
27	0x3f617fd5	0.8808568
28	0x3e88ac31	0.26693872
29	0x3e7b4d01	0.24541093
30	0xbd0d7daf	-0.03454369
31	0xbead4306	-0.33840197
32	0xbecbb0bb	-0.39783272
33	0x3c1ee248	0.009697504
34	0x3e78ca6d	0.2429597
35	0xbd9de836	-0.07710306
36	0x3ea2c832	0.31793362
37	0xbeed3f43	-0.46337327
38	0xbf055ebe	-0.5209769
39	0x3c04c381	0.008103252
40	0xbf43c491	-0.7647181
41	0x3ef7c0b5	0.4838921
42	0x3cf9308b	0.030418655
43	0x3d35ce6e	0.04438632
44	0xbd6edfd0	-0.058318913
45	0x3c2160b4	0.009849716
46	0xbeba71ca	-0.3641494
47	0xbee350a3	-0.44397458
48	0x3f3b6553	0.73201483
49	0x3ead7426	0.33877677
50	0xbe4e2012	-0.20129421
51	0x3f7a6277	0.97806495
52	0xbbdec958	-0.0067989044
53	0xbe82385d	-0.25433627
54	0x3f4cea95	0.80045444
55	0x3f2b6a9b	0.6695954
56	0x3f35bdad	0.7099255
57	0x3f1cd39b	0.61260384
58	0xbe868ea0	-0.2628069
59	0xbdab4fcd	-0.0836483
60	0xbedff4b2	-0.43741375
61	0x3d5fa9d8	0.054605335
62	0xbd2788ff	-0.040902134
63	0x3ea131b0	0.3148322
64	0xbee87c7a	-0.45407468
65	0x3e5db987	0.21652804
66	0xbe4fcb7e	-0.2029247
67	0xbec69620	-0.3878641
68	0xbe7a6d9d	-0.24455877
69	0x3d035074	0.032059148
70	0xbf84bf2c	-1.0370841
71	0xbe0c4283	-0.13697247
72	0xbec2e9f5	-0.3806912
73	0xbf30923c	-0.68973136
74	0x3f170241	0.58987814
75	0xbf4a77ef	-0.79089254
76	0xbe6a4ecd	-0.22881623
77	0xbe7edd2e	-0.24889061
78	0x3e0a7cdc	0.13524193
79	0x3dbce7c7	0.092238955
80	0x3e883bb0	0.26608038
81	0x3d1f1f82	0.038848408
82	0xbc501152	-0.012699442
83	0xbeb33026	-0.34997672
84	0xbf0b1536	-0.5432924
85	0x3e6b5a5a	0.22983685
86	0x3db8de93	0.09026828
87	0xbe756bd7	-0.23966919
88	0x3e46ce49	0.19414629
89	0xbe26c4a2	-0.16285947
90	0x3e90a88c	0.2825359
91	0xbd706b8f	-0.058696326
92	0x3d58559e	0.052816026
93	0x3e8c80ce	0.2744202
94	0xbd73a36d	-0.059482027
95	0xbd8a7062	-0.067597166
96	0x3edbd66a	0.42937022
97	0x3ebecb90	0.3726468
98	0xbf024e90	-0.50901127
99	0xbe304752	-0.17214707
100	0xbe70d59e	-0.23518988
101	0xbda9f074	-0.08297816
102	0xbea2689c	-0.31720436
103	0xbe534cb2	-0.20634726
104	0xbdf58fb5	-0.119903006
105	0x3e9de709	0.30840328
106	0x3d168e9e	0.036757104
107	0xbea4e3e9	-0.32205132
108	0xbe0fd514	-0.14046127
109	0xbe070184	-0.13184172
110	0xbe7eb165	-0.24872358
111	0xbe626d8d	-0.22112103
112	0xbf0f6950	-0.5602007
113	0xbd502e56	-0.05082544
114	0x3d4e0d70	0.050305784
115	0x3dba5932	0.09099044
116	0x3eaff6fa	0.34368116
117	0x3ec6f953	0.38862094
118	0xbeceb3c9	-0.4037154
119	0xbe20f68a	-0.15719047
120	0x3e51e944	0.2049914
121	0xbed27e62	-0.41112047
122	0x3d343efd	0.044005383
123	0xbebf5d44	-0.37375844
124	0x3c96bd83	0.018400913
125	0xbdd11d34	-0.10210648
126	0xbea9d3c3	-0.33169374
127	0xbe49f992	-0.1972411
128	0xbe59f38f	-0.21284316
129	0xbe02708b	-0.12738244
130	0x3e9c39bd	0.305128
131	0x3e4bedd4	0.19914943
132	0x3e75ecbd	0.2401609
133	0x3d95ae9a	0.07308693
134	0x3d121166	0.035661124
135	0x3e9bbfca	0.3041976
136	0x3d97f73f	0.07420205
137	0xbeb64504	-0.3559953
138	0x3b01b3dd	0.0019791045
139	0x3ddd88e1	0.10817123
140	0x3e7be6c4	0.24599749
141	0xbe4defae	-0.20110962
142	0xbd43d575	-0.04781099
143	0xbea3aba9	-0.31966904
144	0x3dc5183c	0.09623763
145	0xbeacb433	-0.3373123
146	0x3f61ac26	0.881533
147	0xbeb45767	-0.35222933
148	0x3ef663fd	0.4812316
149	0x3e69f695	0.2284797
150	0x3e758d17	0.23979603
151	0x3e42baf0	0.19016623
152	0xbea28db5	-0.3174874
153	0x3b3aec01	0.0028522017
154	0xbdbe1fb5	-0.092833914
155	0x3bf84ac3	0.0075772717
156	0x3eb1d7da	0.34734994
157	0xbe9dc275	-0.3081242
158	0x3f09cc55	0.5382741
159	0x3a172984	0.0005766379
160	0xbcbe7645	-0.023249755
161	0xbdfd1ce8	-0.12359029
162	0xbf027dea	-0.5097338
163	0x3ad6735c	0.0016361284
164	0xbe94293e	-0.28937715
165	0x3e85385d	0.26019564
166	0x3ee2f449	0.44327
167	0x3f054d98	0.52071524
168	0x3c7da03d	0.015480098
169	0x3e0d0f4e	0.1377537
170	0x3d4cd0e5	0.050003905
171	0x3eb24d19	0.34824446
172	0xbd559ad9	-0.052149627
173	0x3e791f38	0.24328315
174	0xbb14b7fc	-0.002269267
175	0xbd655bd7	-0.05599579
176	0xbdd04efb	-0.10171314
177	0xbdca8ba8	-0.098899186
178	0x3e7689c5	0.24075992
179	0x3da80f19	0.08206005
180	0x3ea564ce	0.3230347
181	0xbebbe80b	-0.36700472
182	0xbdf56412	-0.119819775
183	0xbe9d3844	-0.3070699
184	0xbd99a522	-0.075022
185	0x3d9b5140	0.075838566
186	0x3d0fdfd3	0.035125565
187	0x3d10841e	0.035282247
188	0x3e8af6fb	0.27141556
189	0xbe0eeace	-0.13956758
190	0xbe15b159	-0.14618434
191	0x3e399c70	0.18126082
192	0xbf302c49	-0.68817574
193	0x3f37a6bb	0.71738786
194	0xbf3bc22b	-0.7334315
195	0x3f4bb42b	0.7957179
196	0xbeb6baa2	-0.35689265
197	0xbe9f91cc	-0.31165922
198	0xbe333e8e	-0.17504331
199	0x3e27c57c	0.16383928
200	0x3e1fe666	0.15615234
201	0x3df2ad3c	0.11849448
202	0xbd193da4	-0.0374123
203	0x3e58bad5	0.21165021
204	0xbde09d3e	-0.109674916
205	0x3e13c450	0.14430356
206	0xbdcda1d5	-0.10040633
207	0xbe1ff136	-0.15619358
208	0x3e17d17c	0.14826006
209	0xbeed39c4	-0.46333134
210	0x3e6c3ecf	0.23070835
211	0x3d9020f6	0.07037537
212	0x3eb7832f	0.35842273
213	0x3cc82480	0.024431467
214	0x3e2fa1e8	0.17151606
215	0xbe806f95	-0.2508513
216	0x3ef29613	0.47380123
217	0xbf1a2c8d	-0.6022423
218	0x3e2f1ccb	0.17100827
219	0xbe22e449	-0.15907396
220	0x3eb363b2	0.35037
221	0xbeef9ca4	-0.46799195
222	0xbf0a5961	-0.5404263
223	0xbf215471	-0.6301947
224	0xbf198b0d	-0.599778
225	0xbf15c687	-0.58506054
226	0xbce31823	-0.02772147
227	0x3ea9382f	0.33050677
228	0x3e013a7a	0.12619963
229	0xbe7c7ae1	-0.2465625
230	0x3e75f070	0.24017501
231	0xbeca5429	-0.39517334
232	0xbec3af06	-0.3821947
233	0x3e86c99c	0.2632569
234	0x3e1cffc6	0.15331945
235	0x3ea1beaf	0.31590793
236	0xbd012d29	-0.03153721
237	0x3f325fa9	0.69677216
238	0x3ef20d33	0.47275695
239	0x3e74fdf6	0.23925003
240	0x3ec85cd2	0.39133316
241	0xbf0e2c9f	-0.55536836
242	0xbd04b20e	-0.03239637
243	0x3c97bdfc	0.018523209
244	0xbf2596a3	-0.6468298
245	0x3ede0f46	0.43371028
246	0x3f8bafd8	1.0913038
247	0xbf2d33a1	-0.67656904
248	0x3f2b41cb	0.6689727
249	0x3e7090b9	0.23492707
250	0xbd4018bc	-0.04689859
251	0x3e15099b	0.14554445
252	0xbf72d1c1	-0.9485131
253	0xbf684fb5	-0.90746623
254	0x3f642eab	0.8913371
255	0xbe011b01	-0.12607957

final.linears.0.bias f4 [48]
0	0x3e5454a7	0.20735417
1	0x3e615e67	0.22008668
2	0x3e81eac0	0.25374413
3	0x3e418d0f	0.18901466
4	0xbd36c8a7	-0.04462495
5	0xbe1e3282	-0.15448955
6	0x3d0a57dc	0.033775195
7	0xbda780d6	-0.081788704
8	0x3e6c9c10	0.23106408
9	0xbdca1c55	-0.09868685
10	0xbe3f1cd8	-0.18663347
11	0xbe4ed6e1	-0.20199157
12	0x3ec52463	0.38504323
13	0x3ec6bcce	0.38815922
14	0x3e34cb17	0.17655598
15	0x3e94ff38	0.29100966
16	0x3d86e14e	0.06585942
17	0x3eefc8bb	0.46832833
18	0xbe0f6e7f	-0.14006995
19	0x3e906c08	0.2820742
20	0x3e9e856b	0.30961165
21	0x3e8293e1	0.25503448
22	0x3e7e1bc4	0.24815279
23	0x3e8bf7ce	0.27337497
24	0xbdb51590	-0.08842003
25	0xbd855180	-0.065096855
26	0x3da3cb94	0.07997814
27	0x3ea00a9a	0.31258088
28	0xbe2008ea	-0.156284
29	0xbe2798a3	-0.1636682
30	0x3e9620d5	0.29321924
31	0xbe7af397	-0.24506985
32	0xbd3ae43d	-0.04562782
33	0x3ef08e02	0.46983343
34	0x3edb16d7	0.42790863
35	0x3e409107	0.18805324
36	0xbe848065	-0.25879207
37	0xbe312880	-0.17300606
38	0xbe7347bc	-0.23757833
39	0x3ef0d08a	0.47034103
40	0xbed40990	-0.41413546
41	0x3ee07ada	0.43843728
42	0x3d2bbac3	0.041926157
43	0xbe874ae2	-0.2642432
44	0x3e7cb263	0.24677424
45	0xbe03cc95	-0.1287101
46	0x3d3563b4	0.044284537
47	0x3ea54cbc	0.32285106

final.linears.1.weight f4 [48, 48]
0	0xbe6e5eb8	-0.2327832
1	0xbe688930	-0.22708583
2	0xbf01ab58	-0.50652075
3	0xbf2b1d46	-0.6684154
4	0xbdd66631	-0.1046871
5	0x3e10ffea	0.14160123
6	0xbdc4b5c2	-0.0960498
7	0xbd921a08	-0.07133871
8	0xbeec212f	-0.46119067
9	0xbea3f89d	-0.32025614
10	0xbec12be9	-0.37728813
11	0xbe988a73	-0.29793128
12	0xbf046c2f	-0.51727575
13	0xbf18323d	-0.5945166
14	0xbedab1af	-0.42713687
15	0xbf1b33db	-0.60626
16	0x3e02b68e	0.12764952
17	0xbe94bd64	-0.29050744
18	0xbec10757	-0.37700912
19	0xbe9ec7ff	-0.3101196
20	0xbeb7b508	-0.35880303
21	0xbe8b70d7	-0.27234527
22	0xbeda0fba	-0.42590123
23	0xbeccfc6a	-0.40036327
24	0xbd9181e5	-0.071048535
25	0xbf061829	-0.52380615
26	0xbe8df81f	-0.27728364
27	0x3bfe9e43	0.007770331
28	0xbe61bd14	-0.22044784
29	0xbe66eeaf	-0.22551988
30	0xbe243fc5	-0.16039951
31	0xbe810019	-0.25195387
32	0xbc7670e1	-0.015041561
33	0xbd74575e	-0.059653632
34	0xbeb149dd	-0.34626666
35	0x3d15f17b	0.036607247
36	0xbe4cbbf5	-0.19993575
37	0xbe05e60b	-0.13076036
38	0xbe8ac244	-0.27101338
39	0xbe9da3ad	-0.30788937
40	0xbedc5886	-0.43036288
41	0xbd0c6ce1	-0.034283523
42	0xbe8269b3	-0.25471267
43	0xbdcb1730	-0.09916532
44	0xbea1365e	-0.3148679
45	0xbbf5b838	-0.007498767
46	0xbe4460ae	-0.19177505
47	0xbf29931f	-0.66240114
48	0xbed80d8f	-0.42197844
49	0x3d66d308	0.0563536
50	0xbd9eb292	-0.07748903
51	0xbea8d02f	-0.3297133
52	0xbcd394e3	-0.02582783
53	0x3c246089	0.010032781
54	0xbe6c64a3	-0.23085265
55	0x3d121659	0.035665844
56	0xbe0e1512	-0.13875225
57	0xbda0b9b8	-0.07847923
58	0xbd3c039b	-0.045901876
59	0x3dd85824	0.105636865
60	0xbe7e76d4	-0.24850017
61	0xbf25fcbf	-0.64838785
62	0xbdea07a5	-0.11427239
63	0xbe48574c	-0.19564551
64	0x3dadc782	0.08485319
65	0xbed4275b	-0.41436276
66	0xbe9ec195	-0.31007066
67	0xbd5da780	-0.05411482
68	0xbef47dc6	-0.47752208
69	0xbe49c4ff	-0.19704054
70	0xbe5ceecb	-0.21575467
71	0x3d91b655	0.07114855
72	0x3dec8aca	0.115499094
73	0xbdcc715b	-0.09982558
74	0x3d8324c8	0.064035
75	0xbecc6d61	-0.399272
76	0xbe90959d	-0.28239146
77	0xbe37bfbe	-0.17944238
78	0xbecfe741	-0.4060612
79	0xbd922a4e	-0.07136975
80	0xbe8103ce	-0.25198215
81	0xbd8392cd	-0.064244844
82	0xbf2b8776	-0.6700357
83	0x3e4a64e6	0.19765052
84	0xbe071fec	-0.13195771
85	0x3e036cc6	0.12834463
86	0x3ce9ab90	0.02852419
87	0xbe07c5ff	-0.13259123
88	0xbd9329b2	-0.07185687
89	0xbe30bbcf	-0.17259143
90	0xbd2fe4e1	-0.042942885
91	0xbe0a01dc	-0.13477272
92	0xbec392ff	-0.38198087
93	0xbe6bfe78	-0.23046291
94	0xbe9100c1	-0.28320888
95	0xbea2d979	-0.31806543
96	0xbd2d68f1	-0.042336408
97	0xbf27f732	-0.65611565
98	0xbeb6ec85	-0.35727325
99	0xbf287471	-0.65802675
100	0x3ea715a2	0.32633692
101	0x3e0ffe3b	0.14061825
102	0xbf099740	-0.53746414
103	0xbe926af1	-0.28597215
104	0x3d6ed636	0.058309756
105	0xbe836780	-0.25664902
106	0xbe0f05db	-0.13967077
107	0x3e092460	0.13392782
108	0xbeaf1754	-0.34197485
109	0xbed9674d	-0.42461625
110	0xbe055bc0	-0.13023281
111	0x3de728ec	0.11287102
112	0xbe4ccad3	-0.19999246
113	0x3e536f24	0.20647866
114	0x3b611d47	0.0034349726
115	0xbe05a96b	-0.13052909
116	0xbecdf684	-0.4022714
117	0x3ddf16cc	0.1089302
118	0xbcdf1dfb	-0.027235975
119	0x3c0f6c91	0.008753912
120	0xbe3635e9	-0.17794003
121	0xbe122e6a	-0.14275518
122	0x3dff0bca	0.124534205
123	0xbebd84be	-0.37015337
124	0xbeb146c0	-0.3462429
125	0xbde179bb	-0.11009546
126	0xbf469ef7	-0.7758631
127	0x3e828279	0.25490168
128	0x3ea08592	0.31351906
129	0xbe084f55	-0.13311513
130	0x3e210054	0.15722781
131	0xbd677903	-0.05651189
132	0x3a00fb3b	0.0004920249
133	0x3eb424bb	0.35184273
134	0xbd08908e	-0.033340983
135	0xbfaff8cd	-1.3747803
136	0x3e53ebf1	0.20695473
137	0xbfc9c12d	-1.5762078
138	0xbf0f0008	-0.5585942
139	0xbcbbb431	-0.02291307
140	0xbe767594	-0.2406829
141	0xbf0f4c18	-0.55975485
142	0xbf63e17f	-0.89015955
143	0xbe4b7135	-0.19867404
144	0xbd965c03	-0.073417686
145	0xbebf86fa	-0.37407666
146	0x3d64c6bb	0.055853587
147	0xbe0ab2ed	-0.13544817
148	0xbe5623e8	-0.20912135
149	0xbd9d9314	-0.076940686
150	0x3dbac231	0.0911907
151	0x3ddfdeb2	0.10931148
152	0xbdf8e7fd	-0.12153623
153	0x3e1b28c9	0.15152277
154	0x3cf07e5f	0.029357133
155	0xbe86af46	-0.26305598
156	0x3e5d24af	0.21596025
157	0x3e26665b	0.16249983
158	0x3e74a9e7	0.23892938
159	0x3cfacb30	0.030614465
160	0xbdccf22b	-0.100071274
161	0x3d31c104	0.043396965
162	0xbdb59576	-0.08866398
163	0x3ce3dcf9	0.027815329
164	0x3e014431	0.12623669
165	0xbc9406aa	-0.018069584
166	0x3d8cc371	0.06873215
167	0xbe795a78	-0.24350917
168	0x3e20657d	0.15663715
169	0xbe729451	-0.2368939
170	0xbc6aefc8	-0.014339395
171	0xbe051973	-0.1299799
172	0xbe761a4c	-0.24033469
173	0x3e1ee013	0.15515165
174	0xbe5dd406	-0.21662912
175	0xbe38014e	-0.17969248
176	0x3e029786	0.12753114
177	0xbed91876	-0.42401475
178	0xbe11965f	-0.14217518
179	0xbe800216	-0.2500159
180	0xbe087a5b	-0.13327925
181	0xbe9328b3	-0.2874199
182	0xbeb0605e	-0.34448522
183	0xbe66862e	-0.22512123
184	0x3d4b2d10	0.04960352
185	0xbe4cc095	-0.19995339
186	0xbe29139b	-0.16511385
187	0x39f2cb86	0.00046309474
188	0xbc3b3eef	-0.011428579
189	0xbe0553f6	-0.1302031
190	0xbd5a8e45	-0.053358335
191	0x3e3c3472	0.18379381
192	0xbe5fa7cc	-0.21841353
193	0xbf08ab25	-0.53386146
194	0xbed4c002	-0.4155274
195	0xbe120aca	-0.14261928
196	0xbcddda88	-0.027081743
197	0xbe196c58	-0.14982736
198	0xbee524bc	-0.4475459
199	0xba8034b9	-0.0009781338
200	0xbc175a7a	-0.00923788
201	0xbdf3bfb0	-0.11901796
202	0xbeea113e	-0.4571628
203	0x3c7f8c53	0.015597421
204	0xbeb35c26	-0.3503124
205	0xbee29d6c	-0.44260728
206	0xbd2360af	-0.039887127
207	0xbe2490e4	-0.16070896
208	0xbe0a0745	-0.13479336
209	0xbdacf76e	-0.08445631
210	0xbe33a997	-0.17545162
211	0xbe916954	-0.2840067
212	0xbe9236fd	-0.28557578
213	0xbe52d9f0	-0.20590949
214	0xbe7f911e	-0.24957702
215	0xbe8a3003	-0.26989755
216	0xbda5826e	-0.08081518
217	0xbf092422	-0.5357076
218	0x3c834597	0.016024394
219	0xbf0efc89	-0.5585409
220	0xbe3626a4	-0.17788178
221	0xbe1dfaea	-0.15427747
222	0xbf39bdb4	-0.7255509
223	0xbd5a767f	-0.053335663
224	0x3dcbbade	0.099477515
225	0xbe934c73	-0.28769264
226	0xbf607d07	-0.87690777
227	0xbe0766fa	-0.13222876
228	0xbeb5f6ed	-0.35539952
229	0x3e5660bf	0.20935343
230	0xbe8e6b9a	-0.27816468
231	0xbf8267d2	-1.0187933
232	0x3ef8b547	0.48575804
233	0xbf4dc91a	-0.8038498
234	0xbd9c02d9	-0.07617731
235	0xbe2d32f3	-0.16913967
236	0xbec0a487	-0.37625524
237	0xbdb92bdb	-0.09041568
238	0xbeb602c6	-0.3554899
239	0xbf239813	-0.6390392
240	0xbe946422	-0.28982645
241	0xbe0c42fa	-0.13697425
242	0xbc909d52	-0.017653141
243	0x3e6a9209	0.2290727
244	0x3e984c82	0.2974587
245	0xbd6a06d4	-0.057135418
246	0x3daa2f12	0.08309759
247	0x3e3721ae	0.17883942
248	0xbe675e2f	-0.22594522
249	0x3db01ebb	0.08599611
250	0xbdf22ba5	-0.11824731
251	0x3e3cb6ba	0.1842908
252	0x3e2da5e1	0.16957809
253	0xbef43be6	-0.4770195
254	0xbe0c5345	-0.1370364
255	0x3d61a7eb	0.05509178

final.linears.1.bias f4 [48]
0	0xbea54507	-0.32279226
1	0xbe6efbed	-0.2333829
2	0x3cf72535	0.030169109
3	0xbd2a07c7	-0.041511323
4	0xbe710e6a	-0.23540655
5	0xbd10fe3f	-0.035398718
6	0xbe758982	-0.23978236
7	0xbe123a86	-0.14280137
8	0xbe67e20c	-0.22644824
9	0x3e5ed98c	0.21762675
10	0xbe007f9f	-0.12548684
11	0xbe00c6bd	-0.12575813
12	0x3cfa36ad	0.03054365
13	0x3d1f4643	0.038885366
14	0xbe940944	-0.2891332
15	0xbe623a7e	-0.22092625
16	0xbedd0743	-0.43169603
17	0xbe345133	-0.176091
18	0xbe1711b3	-0.14752845
19	0xbc2a14d0	-0.010380939
20	0xbef6e0d6	-0.4821841
21	0x3e26a9dd	0.16275735
22	0x3bd38dab	0.006456097
23	0xbe985137	-0.29749462
24	0xbe83c11f	-0.25733277
25	0x3d77921c	0.060442075
26	0xbe4afc44	-0.19822794
27	0xbdb634b9	-0.08896775
28	0x3ddde574	0.1083478
29	0xbe1c6dfd	-0.15276332
30	0x3e370b50	0.17875409
31	0x3e4f9f84	0.20275694
32	0xbe8498cb	-0.25897822
33	0x3ee12fbc	0.4398173
34	0xbe8a1f58	-0.26977038
35	0x3dc3709b	0.09542962
36	0xbea96d81	-0.33091357
37	0xbc0c7e30	-0.008575007
38	0x3e62421f	0.22095536
39	0xbe62ea6a	-0.22159734
40	0xbdb83d5e	-0.0899608
41	0xbdab779c	-0.08372423
42	0x3dd7978f	0.105269544
43	0x3ed677b6	0.41888207
44	0xbcdad8d5	-0.026714722
45	0x3e574c89	0.2102529
46	0x3e6326a8	0.22182715
47	0x3b89e2aa	0.0042079287

final.linears.2.weight f4 [4, 48]
0	0xbdd01d27	-0.1016181
1	0xbdd48831	-0.10377539
2	0xbe68c889	-0.22732748
3	0x3e46db9e	0.19419715
4	0xbe9f6081	-0.31128314
5	0xbde54df5	-0.1119651
6	0x3c8e8d43	0.017401343
7	0xbc044b26	-0.008074557
8	0xbe598cb5	-0.21245082
9	0x3e9bca9f	0.30428025
10	0x3f0f5ccb	0.56000966
11	0xbcf42212	-0.029801402
12	0xbb2615af	-0.0025342514
13	0xbe3c6a47	-0.18399917
14	0xbdb49640	-0.088177204
15	0xbe4beb19	-0.19913901
16	0xbe2b05f6	-0.16701493
17	0xbe1bd1a1	-0.15216686
18	0xbd0718fb	-0.032982808
19	0x3f268381	0.6504441
20	0xbec36016	-0.38159245
21	0x3df63d56	0.12023418
22	0x3f503c7a	0.8134228
23	0xbeb4be4c	-0.35301435
24	0x3df8d900	0.121507645
25	0xbda0bb8c	-0.07848272
26	0xbe320ad5	-0.17386945
27	0x3de54bd2	0.11196102
28	0xbdd57351	-0.104223855
29	0xbe891aa7	-0.26778147
30	0x3e882f54	0.26598608
31	0x3e218279	0.15772428
32	0xbe926e33	-0.285997
33	0x3f209252	0.6272327
34	0x3c2b3aee	0.010451062
35	0x3e129742	0.14315513
36	0xbf2d322f	-0.676547
37	0x3de5b56f	0.11216246
38	0x3d3a07de	0.04541766
39	0xbe65e278	-0.22449672
40	0x3d767722	0.060172208
41	0xbdb35b08	-0.08757597
42	0xbbd2423c	-0.006416587
43	0xbd29aed9	-0.041426513
44	0x3db3ce4e	0.08779584
45	0xbd7a3391	-0.061084334
46	0x3e22e0c6	0.15906057
47	0xbcede8dc	-0.0290417
48	0xbeb33d97	-0.35007927
49	0xbd9fe164	-0.07806662
50	0xbde869ee	-0.113483295
51	0xbd951b71	-0.07280625
52	0xbd598bc0	-0.05311179
53	0xbdb66d30	-0.089075446
54	0xbe83366a	-0.25627452
55	0x3dde6223	0.10858562
56	0x3e58d16f	0.21173643
57	0xba464d29	-0.00075645983
58	0x3eb78c6b	0.35849318
59	0x3e54ce1c	0.2078175
60	0xba78f21b	-0.0009496526
61	0x3d8d6aad	0.069051124
62	0xbed57a37	-0.41694805
63	0x3d01fc69	0.031734858
64	0xbefd0555	-0.4941813
65	0xbe3c3214	-0.18378478
66	0xbb7b7947	-0.0038371847
67	0x3ea3f081	0.32019427
68	0xbdfe3795	-0.12412945
69	0xbe96318a	-0.2933467
70	0x3f09ae2d	0.53781396
71	0x3e02051c	0.12697262
72	0xbe912040	-0.28344917
73	0xbdc7804e	-0.09741269
74	0x3e7ddc7e	0.24791142
75	0xbe30315a	-0.17206326
76	0x3e95c5fd	0.29252616
77	0xbe8047f4	-0.25054896
78	0x3e8792e7	0.26479265
79	0x3e2be9be	0.16788384
80	0xbe948efd	-0.2901534
81	0xbee5eafa	-0.44905835
82	0xbef89fa3	-0.48559293
83	0xbd8851c6	-0.06656222
84	0x3f5bc54f	0.85847944
85	0x3c27be95	0.010238309
86	0x3ea1ea42	0.31624037
87	0xbe56a885	-0.20962723
88	0xbcb518d5	-0.022106567
89	0x3e1d579d	0.15365453
90	0x3c589c75	0.013220896
91	0xbe8c4bb9	-0.27401522
92	0x3eb105c9	0.34574726
93	0x3d80c813	0.06288161
94	0xbeaba394	-0.33523238
95	0xbe0b52a3	-0.13605742
96	0xbe9513a4	-0.29116547
97	0xbed05771	-0.40691712
98	0x3ea32f1c	0.3187188
99	0x3d8638f0	0.06553829
100	0x3e025228	0.12726653
101	0xbd0ca532	-0.03433723
102	0xbd8a777c	-0.06761071
103	0xbd3f3c93	-0.046688627
104	0x3e8389e2	0.25691134
105	0xbe8507d6	-0.2598254
106	0x3e99059b	0.2988709
107	0xbe57c30d	-0.210705
108	0x3e71b411	0.23603846
109	0xbd356eb8	-0.044295043
110	0xbeec7b1f	-0.46187684
111	0xbdd3fa7d	-0.10350511
112	0x3f5669a3	0.8375494
113	0xbe575479	-0.21028318
114	0xbd57d2d3	-0.052691292
115	0x3e66ebb3	0.2255085
116	0x3f026777	0.50939125
117	0x3dd4370a	0.1036206
118	0x3f1a8398	0.60357046
119	0x3e03277b	0.1280803
120	0xbe29fd34	-0.16600496
121	0x3aa9f722	0.0012967328
122	0xbdf47a53	-0.11937394
123	0xbd849ad8	-0.064748466
124	0xbdb663ee	-0.08905779
125	0xbe452c23	-0.19255118
126	0xbe942aac	-0.28938806
127	0x3e49980b	0.19686906
128	0xbec25f2d	-0.37963238
129	0xbee2d280	-0.44301224
130	0xbe8bec34	-0.27328646
131	0x3e36e223	0.17859702
132	0xbefd8fc4	-0.49523747
133	0xbc5195d5	-0.01279207
134	0xbedc3573	-0.4300953
135	0x3e2015ef	0.15633367
136	0x3cb8eb3a	0.022573102
137	0x3bc0dbd9	0.005885583
138	0x3cfbd8fe	0.030743118
139	0x3e96aa37	0.2942674
140	0x3e1e3cd8	0.15452898
141	0xbcbbc14a	-0.022919316
142	0x3e1b22cf	0.15149997
143	0xbd5cae56	-0.053877197
144	0xbe8d2cd7	-0.27573273
145	0x3d8a3be1	0.06749702
146	0x3dcd93a1	0.100379236
147	0x3bd9624b	0.006634032
148	0x3da590e8	0.08084279
149	0x3cf59baf	0.029981462
150	0x3ee6b5e0	0.45060635
151	0x3e2b4fd8	0.16729677
152	0x3cdbfe9e	0.02685481
153	0xbbb8750c	-0.0056291874
154	0xbf22d0ef	-0.6360006
155	0xbdcdc5d9	-0.10047502
156	0xbe1c48a0	-0.15262079
157	0xbd9c3764	-0.076277524
158	0x3f255749	0.6458631
159	0x3de45b77	0.11150258
160	0x3e12b5c9	0.14327158
161	0x3e8cb3bb	0.27480873
162	0xbe2bcb9c	-0.1677689
163	0xbde5310e	-0.11190997
164	0xbe6ad692	-0.22933415
165	0x3cbd828a	0.023133535
166	0x3ee6d0de	0.45081228
167	0x3b0ee66d	0.0021804825
168	0x3e635d4b	0.22203557
169	0x3e3c31c8	0.18378365
170	0xbdb00073	-0.08593836
171	0x3e63e57e	0.22255513
172	0xbd2b2af0	-0.041788995
173	0xbc5187c1	-0.012788714
174	0x3e033837	0.12814413
175	0x3c80a765	0.01570482
176	0xbee9d94c	-0.45673597
177	0xbcb3d809	-0.0219536
178	0xbf7921a2	-0.97316945
179	0xbcc78279	-0.024354206
180	0x3bb428fe	0.0054980507
181	0x3e0efcf2	0.13963678
182	0x3e10bd98	0.14134824
183	0xbdec11a2	-0.11526801
184	0x3da6eba7	0.08150416
185	0x3eb6637f	0.35622784
186	0x3e5de04e	0.21667597
187	0x3e37e581	0.17958643
188	0x3e34407a	0.17602721
189	0xbea85fea	-0.32885677
190	0x3da0b32c	0.07846674
191	0x3e9256d8	0.28581882

final.linears.2.bias f4 [4]
0	0x3aee6062	0.0018186683
1	0x3e3e409f	0.18579338
2	0x3e58d1c9	0.21173777
3	0x3dc381c6	0.09546237

layers.0.attn.0.gnn_q.weight f4 [4, 10]
0	0x3e0842a5	0.13306673
1	0xbd1559e7	-0.03646269
2	0xbe5c09e2	-0.21488145
3	0xbc510c30	-0.012759253
4	0x3e053c0e	0.1301119
5	0x3e41d0ac	0.18927258
6	0xbdc16b40	-0.094442844
7	0xbd33f506	-0.043934844
8	0xbc81c901	-0.015842916
9	0xbebdcea0	-0.37071705
10	0xbd23cb79	-0.03998897
11	0xbd3bace2	-0.04581917
12	0x3d15ba79	0.036554787
13	0xbdb38f7b	-0.08767601
14	0x3d10a3ac	0.03531234
15	0xbe2ab9d1	-0.16672446
16	0x3e8e2a20	0.27766514
17	0xbda17a91	-0.07884706
18	0x3d39a740	0.045325518
19	0x3d6f2400	0.05838394
20	0xbe80fe56	-0.25194043
21	0x3bc7429e	0.0060809394
22	0xbbed1c8c	-0.007236069
23	0xbe258abb	-0.16166203
24	0xbdbc8b11	-0.09206212
25	0x3c3ab6f7	0.011396161
26	0xbbbaf223	-0.0057051345
27	0xbdeef8f2	-0.11668576
28	0x3e15a315	0.14612992
29	0xbd90a5b7	-0.070628576
30	0x3e1f8d30	0.15581203
31	0x3cda0a07	0.02661611
32	0x3d9e3fc7	0.07727008
33	0x3d48d534	0.04903145
34	0x3b9f0d0c	0.00485385
35	0xbe2044df	-0.15651272
36	0xbdd07e53	-0.101803444
37	0xbcdd8231	-0.02703962
38	0xbc2686bb	-0.010163958
39	0xbda39d71	-0.07989014

layers.0.attn.0.gnn_q.bias f4 [10]
0	0xbd19f86f	-0.03759044
1	0x3d1febc6	0.03904321
2	0x3d72ebc8	0.05930689
3	0x3de64301	0.11243249
4	0xbd9409c8	-0.07228428
5	0xbd55e294	-0.052218035
6	0xbc51cfa8	-0.012805857
7	0xbd489cf6	-0.048977815
8	0xbdcb734a	-0.09934099
9	0xbd954826	-0.07289152

layers.0.attn.0.gnn_k.weight f4 [4, 10]
0	0x3dca2605	0.09870533
1	0xbc3efcb8	-0.0116569325
2	0xbe70204d	-0.23449822
3	0xbcf197ba	-0.029491294
4	0x3d77975e	0.06044709
5	0x3e408395	0.18800195
6	0xbdbc36e7	-0.09190159
7	0x3e34bf76	0.17651162
8	0x3d6712ef	0.05641454
9	0x3eba5be0	0.3639822
10	0xbce10625	-0.02746875
11	0xbd14ec2d	-0.036358047
12	0x3d2cd335	0.04219361
13	0xbddbc539	-0.107309766
14	0x3d0f23c8	0.034946233
15	0xbe150a46	-0.145547
16	0x3e82789a	0.25482637
17	0xbc3f92b0	-0.011692688
18	0x3d69028c	0.056887195
19	0x3e3f5f9c	0.18688816
20	0xbe5df52d	-0.21675558
21	0x3cb51080	0.022102594
22	0x3c7848a9	0.015154042
23	0xbe0fd119	-0.14044608
24	0xbd718ccc	-0.058972165
25	0x3c3b7e11	0.011443631
26	0x3c07d166	0.008289671
27	0xbd998abc	-0.074971646
28	0x3e34d1d2	0.17658165
29	0x3b7337d5	0.0037112136
30	0x3e08e3c6	0.13368139
31	0x3c9fca3c	0.019505613
32	0x3d6f40d3	0.05841143
33	0x3d3898ab	0.04506747
34	0x3c0120ac	0.007881325
35	0xbdfde10c	-0.1239644
36	0xbdf7bc70	-0.120964885
37	0x3af2f039	0.0018534727
38	0x3d1f173a	0.03884051
39	0xbdaf7e8b	-0.08569058

layers.0.attn.0.gnn_k.bias f4 [10]
0	0x3c266ea9	0.010158219
1	0x3d200f1d	0.039076913
2	0x3dc817d2	0.09770168
3	0x3dd52174	0.10406771
4	0xbd22ca3d	-0.03974365
5	0xbd5f6977	-0.05454394
6	0xbd2070da	-0.039170124
7	0x3dafd5c5	0.08585695
8	0xbdf43ac6	-0.11925273
9	0x3da10e2e	0.07864033

layers.0.attn.0.gnn_v.weight f4 [4, 10]
0	0x3eec35ba	0.4613474
1	0xbecbd4cf	-0.39810798
2	0x3efe5a52	0.49678284
3	0x3ef82528	0.48465848
4	0x3ee648ad	0.44977322
5	0x3f2d27d4	0.676389
6	0x3f08801e	0.5332049
7	0xbe2ec63b	-0.17067806
8	0x3cfca5b8	0.03084074
9	0xbe4e20c5	-0.20129688
10	0xbbc1b6ce	-0.0059116846
11	0xbee629ac	-0.44953668
12	0x3f5e3d72	0.8681251
13	0xbba843e5	-0.005135047
14	0x3eae6049	0.34057835
15	0x3f3dc97c	0.74135566
16	0x3e0a38b0	0.13498187
17	0xbe274deb	-0.16338317
18	0xbea8d5a8	-0.32975507
19	0x3e160caa	0.14653268
20	0xbea1e9ba	-0.31623632
21	0xbed86559	-0.42264822
22	0x3eeff2fc	0.4686507
23	0x3ed08585	0.40726867
24	0x3e9cb0c1	0.30603603
25	0xbe4535ca	-0.192588
26	0x3f041fe3	0.51611155
27	0x3d9fcd2d	0.07802806
28	0xbef78898	-0.483464
29	0x3f03000f	0.51171964
30	0xbea753ab	-0.3268102
31	0xbf52ac35	-0.8229402
32	0x3f4b3e98	0.79392385
33	0x3eac77ac	0.33685052
34	0x3f8c4a44	1.0960164
35	0xbf45e9ea	-0.7731005
36	0xbe7455c7	-0.23860846
37	0xbf85a0d2	-1.0439703
38	0xbf867d3f	-1.0506972
39	0x3edbb7c2	0.42913634

layers.0.attn.0.gnn_v.bias f4 [10]
0	0xbcf16b10	-0.029469997
1	0x3d36982e	0.044578724
2	0xbdf52d80	-0.11971569
3	0x3d2bb68a	0.04192213
4	0xbde4fb68	-0.111807644
5	0x3b25d8fc	0.0025306335
6	0x3c5e378b	0.013563047
7	0xbdbf7ba2	-0.09349753
8	0x3d9383fa	0.07202907
9	0xbc3b9d11	-0.011451022

layers.0.attn.1.gnn_q.weight f4 [4, 10]
0	0xbe0bcc96	-0.13652262
1	0x3d3c8340	0.046023607
2	0xbdaf5997	-0.0856201
3	0xbe76d576	-0.24104866
4	0x3e61119d	0.21979375
5	0xba07cbc0	-0.00051802024
6	0xbd83781a	-0.06419392
7	0xbde94217	-0.11389559
8	0xbc2c3a47	-0.010511941
9	0x3e1ee5e4	0.15517384
10	0xbdc92801	-0.09822083
11	0xbce49da8	-0.027907208
12	0xbcf8bef1	-0.030364485
13	0xbdc58d46	-0.096460864
14	0xbdaf147b	-0.08548828
15	0xbbe22e0c	-0.006902462
16	0xbcf5eb50	-0.030019432
17	0xbd8a72b2	-0.06760158
18	0xbd44bb25	-0.048030037
19	0xbdb73d71	-0.08947266
20	0x3d946bf5	0.07247154
21	0x3dca9250	0.09891188
22	0xbdb587b7	-0.08863776
23	0x3d8fd08c	0.07022199
24	0xbd6dacad	-0.058026005
25	0xbac797f9	-0.0015227786
26	0xbc860575	-0.016360024
27	0xbd013faf	-0.031554874
28	0xbc2a44cd	-0.01039238
29	0x3d2accaa	0.04169909
30	0x3d59bcf9	0.053158734
31	0x3d0540ca	0.03253249
32	0xbcc47807	-0.023983015
33	0x3d54e382	0.05197478
34	0x3d8b9f56	0.068175
35	0xbcff22d4	-0.031144537
36	0xbd8153c3	-0.063148044
37	0x3d90cf4d	0.070707895
38	0xbd79dc85	-0.06100132
39	0xbc21498b	-0.009844194

layers.0.attn.1.gnn_q.bias f4 [10]
0	0x3b2323a8	0.002489308
1	0x3ce60f81	0.028083565
2	0x3af4fbf3	0.0018690809
3	0xbc954b77	-0.018224461
4	0xbc06a8b1	-0.00821893
5	0x3bce1cd7	0.006290059
6	0xbc8b1027	-0.016975475
7	0x3cd9cada	0.026585985
8	0xbd05a600	-0.032629013
9	0x3d5fac3d	0.05460762

layers.0.attn.1.gnn_k.weight f4 [4, 10]
0	0xbe2d2083	-0.16906933
1	0xbde5dcaf	-0.11223733
2	0x3ddd3083	0.108002685
3	0xbe692266	-0.22767028
4	0x3e234714	0.15945083
5	0xbca761c7	-0.020432366
6	0xbd104155	-0.035218555
7	0xbe013ffc	-0.12622064
8	0x3cc75b35	0.024335483
9	0xbe0af58c	-0.13570231
10	0x3ba7ca9c	0.0051205885
11	0xb99a1ad0	-0.00029393146
12	0xbbd9ca8f	-0.0066464613
13	0xbdbdc21d	-0.0926554
14	0xbcafd2f8	-0.021462902
15	0x39bab901	0.00035614523
16	0xbd6317a0	-0.055442452
17	0xbcb00b5c	-0.021489792
18	0xbd8403e0	-0.064460516
19	0x3dd1a814	0.102371365
20	0xbda361da	-0.07977648
21	0x3d1c6032	0.038177676
22	0x3daa726c	0.083226055
23	0xbd7429fb	-0.05961035
24	0x3d18aba2	0.037273057
25	0xbbcbe6d4	-0.006222585
26	0x3d2020d4	0.039093807
27	0x3db95c93	0.0905086
28	0xbc94489c	-0.01810103
29	0x3d8d9109	0.06912429
30	0xbd82748a	-0.06369884
31	0xbb25ff09	-0.0025329015
32	0x3c94405a	0.018097091
33	0xbd8ce14b	-0.06878909
34	0xbd30583f	-0.043052908
35	0xbcc93ab0	-0.024564117
36	0x3b88dbea	0.0041766064
37	0x3df7e309	0.121038504
38	0xbd2e89f0	-0.042612016
39	0xbd64e2de	-0.05588042

layers.0.attn.1.gnn_k.bias f4 [10]
0	0xbc743ae8	-0.0149066225
1	0x3cbbe8d3	0.022938168
2	0xbce15caa	-0.027510006
3	0xbba8d5d0	-0.0051524416
4	0xbd270c14	-0.040783003
5	0x3b93cba7	0.0045103612
6	0xbc2e261f	-0.010629206
7	0xbc489201	-0.012241841
8	0xbcd56ea6	-0.026053738
9	0xbc8f5da3	-0.017500704

layers.0.attn.1.gnn_v.weight f4 [4, 10]
0	0x3e2dd54b	0.16975896
1	0xbf0ffe05	-0.5624698
2	0x3e1b9935	0.15195163
3	0x3df9fe48	0.122067034
4	0x3f1bdf78	0.6088786
5	0x3efcc933	0.49372253
6	0xbd50db9d	-0.05099069
7	0xbf117685	-0.5682147
8	0x3f338b84	0.7013476
9	0x3f0caba1	0.54949385
10	0xbeb36608	-0.3503878
11	0xbe5e960f	-0.2173693
12	0x3ead9cc2	0.3390866
13	0xbf19f8db	-0.6014535
14	0x3e372eaa	0.17888895
15	0x3f26f351	0.6521502
16	0x3e97f9f7	0.29682896
17	0xbf037158	-0.51344824
18	0x3e31e754	0.17373401
19	0x3d3b3c2a	0.045711674
20	0x3e6027e1	0.21890213
21	0x3d7009a9	0.058602963
22	0x3f42f0e7	0.7614884
23	0x3e572da2	0.21013501
24	0xbde227cf	-0.11042749
25	0xbe00407e	-0.12524602
26	0xbdc0cdbf	-0.09414243
27	0xbe272546	-0.16322812
28	0x3f3b1bdc	0.73089385
29	0x3f5fad59	0.8737388
30	0xbece4221	-0.40284827
31	0xbdc6303c	-0.09677169
32	0xbf238524	-0.6387503
33	0x3ebf82ca	0.37404472
34	0x3dd787d5	0.10523955
35	0xbf686981	-0.90785986
36	0xbf62037e	-0.8828658
37	0x3e17047d	0.14747806
38	0x3ee8b5fc	0.45451343
39	0xbf29f17b	-0.66384095

layers.0.attn.1.gnn_v.bias f4 [10]
0	0xbe0b89a9	-0.13626732
1	0xbd8fccd4	-0.0702149
2	0xbdc736fb	-0.097272836
3	0xbd97b321	-0.07407213
4	0xbb4bc4df	-0.0031092686
5	0xbdaaede0	-0.08346152
6	0xbd1e5963	-0.038659465
7	0xbd1da2f4	-0.038485482
8	0x3c76f44f	0.015072896
9	0xbe0832c9	-0.13300623

layers.0.mlp.linears.0.weight f4 [16, 4]
0	0x3e0750a1	0.13214351
1	0xbb0a8209	-0.0021134636
2	0xbee746dd	-0.45171252
3	0x3ee30f91	0.44347814
4	0x3ee9658b	0.45585284
5	0xbcbe5670	-0.023234576
6	0xbe7e078b	-0.24807565
7	0x3eb95fc3	0.36205873
8	0x3f0b57ab	0.54430646
9	0x3ef64f91	0.4810758
10	0xbe8ae569	-0.2712815
11	0x3d068a90	0.032846987
12	0xbe227a1d	-0.15866895
13	0x3e87d42c	0.26529062
14	0xbeb904aa	-0.3613637
15	0xbe5d4ab8	-0.21610534
16	0xbea0e780	-0.3142662
17	0xbdcd40f9	-0.10022158
18	0xbee2b2ed	-0.44277135
19	0xbebc20ea	-0.3674386
20	0xbeaedcf5	-0.34152952
21	0xbe11ca1c	-0.14237255
22	0xbf05f40c	-0.5232551
23	0x3d5dd8ca	0.054161824
24	0x3e522c83	0.20524792
25	0xbec4fa60	-0.3847227
26	0x3eb67f37	0.35643932
27	0xbe09a258	-0.13440835
28	0xbe1d1d79	-0.15343274
29	0xbec7df1b	-0.39037403
30	0xbe265b3e	-0.16245744
31	0xbed46be3	-0.4148856
32	0x3e8cdf00	0.27513885
33	0x3dfdc14d	0.12390385
34	0x3f01edbe	0.5075339
35	0x3e0ee829	0.1395575
36	0x3e1b1486	0.15144548
37	0xbe8ef0a9	-0.27917984
38	0xbec9df43	-0.39428148
39	0xbe9efb7f	-0.3105125
40	0x3e2d4548	0.1692096
41	0xbdd1578b	-0.102217756
42	0xbca75130	-0.020424455
43	0xbd873f6b	-0.06603893
44	0x3bfa5541	0.0076395576
45	0xbe64647f	-0.22303961
46	0xbece4506	-0.40287036
47	0x3d634a60	0.05549085
48	0x3e26a1d7	0.16272675
49	0xbe9ee1f0	-0.31031752
50	0x3c580c8b	0.013186584
51	0x3e974e23	0.295518
52	0xbdb645c4	-0.089000255
53	0x3e3fd066	0.18731841
54	0x3f0e367c	0.55551887
55	0x3ed34e87	0.4127085
56	0x3de06a81	0.10957814
57	0xbccaae5f	-0.02474135
58	0x3e531824	0.20614678
59	0xbec30a4b	-0.3809379
60	0xbef3331c	-0.4749993
61	0x3ebf6e82	0.37388998
62	0x3f147ffa	0.58007777
63	0xbe81c1d4	-0.25343192

layers.0.mlp.linears.0.bias f4 [16]
0	0xbd8994cb	-0.06717833
1	0x3d14e265	0.03634872
2	0x3d3cccff	0.046093937
3	0x39c27864	0.00037092261
4	0x3d9bad00	0.076013565
5	0x3d0ec8b7	0.034859385
6	0x3dd08590	0.10181725
7	0xbcf8613d	-0.030319804
8	0xbcaf7026	-0.021415781
9	0x3cfabf53	0.030608809
10	0x3dd729c4	0.10506013
11	0x3d9b5c9f	0.075860254
12	0xbdcd5dd9	-0.10027666
13	0xbdcd3dd2	-0.10021557
14	0xbda2abb6	-0.079429075
15	0x3c9ce223	0.0191508

layers.0.mlp.linears.1.weight f4 [16, 16]
0	0xbd7bc83a	-0.061470248
1	0x3cd2ebce	0.025747206
2	0xbe66dd2b	-0.22545306
3	0xbb4f80e5	-0.003166252
4	0xbe018471	-0.12648179
5	0x3c718538	0.0147412345
6	0x3e83914a	0.25696784
7	0x3edce1d4	0.43141043
8	0x3ea4cbfa	0.32186872
9	0x3e474c25	0.1946264
10	0x3e2e2a2a	0.17008272
11	0x3e30584b	0.17221181
12	0x3eb3bed0	0.35106516
13	0xbe951711	-0.2911916
14	0x3d25a6dd	0.040442336
15	0x3ce3cc39	0.027807342
16	0x3e815ee3	0.25267705
17	0x3e6bdde2	0.2303386
18	0x3ed066da	0.4070347
19	0x3cc6a95c	0.024250679
20	0x3e6ba02f	0.23010324
21	0x3e073935	0.13205417
22	0xbdc72392	-0.097235814
23	0x3bd02d85	0.0063530826
24	0xbebe33c5	-0.37148872
25	0xbd4c2ce1	-0.049847487
26	0x3e3347db	0.1750788
27	0x3e9aa115	0.3020102
28	0x3e838b63	0.2569228
29	0xbe3c38a9	-0.18380989
30	0xbcfc819e	-0.030823525
31	0x3e7710d2	0.2412751
32	0xbe01351a	-0.12617913
33	0xbd932b37	-0.07185977
34	0x3e93adc8	0.28843522
35	0xbee97e27	-0.4560406
36	0x3e16b6de	0.14718196
37	0xbea0762e	-0.31340164
38	0x3e9e62d2	0.3093477
39	0x3c12ec4c	0.00896747
40	0x3ec2620b	0.37965426
41	0xbebcde21	-0.3688822
42	0x3c9793f0	0.01850316
43	0x3d1bae80	0.038008213
44	0xbe77825b	-0.2417082
45	0x3e6cb735	0.23116763
46	0xbc813d41	-0.015776278
47	0x3e85f79a	0.26165468
48	0x3cb40c9b	0.021978667
49	0x3bfd46fe	0.00772941
50	0x3e4971f3	0.19672374
51	0x3ebb68b6	0.36603326
52	0xbe911090	-0.2833295
53	0x3ece4083	0.40283594
54	0xbe8e919b	-0.27845463
55	0x3c40bcf0	0.011763796
56	0x3e5164e0	0.20448637
57	0x3d100d6f	0.03516906
58	0x3e88257d	0.265911
59	0x3eb1d43b	0.34732231
60	0xbdf12833	-0.117752455
61	0xbe6e38d1	-0.23263861
62	0x3e666ef5	0.22503264
63	0xbe7798ab	-0.24179332
64	0xbe509123	-0.20367865
65	0xbd5df0c7	-0.0541847
66	0x3da30364	0.07959631
67	0xbea9ce69	-0.3316529
68	0x3eba9c20	0.3644724
69	0x3e90e645	0.28300682
70	0x3e897f09	0.26854733
71	0x3d9e0536	0.07715838
72	0xbea56f31	-0.32311395
73	0x3ea0bbb4	0.31393206
74	0xbe9b02bb	-0.3027552
75	0xbe46849e	-0.19386527
76	0xbe315c5e	-0.17320392
77	0xbeb7cb0c	-0.358971
78	0xbe65250f	-0.22377418
79	0xbea0ca4a	-0.31404334
80	0xbebc4a14	-0.36775267
81	0xbda39b07	-0.079885535
82	0x3d33fdaa	0.043943085
83	0xbe8b797e	-0.2724113
84	0x3d17b120	0.037034154
85	0x3ebc6bba	0.3680094
86	0x3ec0cb2b	0.37655005
87	0x3e74d999	0.23911132
88	0xbd521797	-0.05129203
89	0xbe1cb608	-0.15303814
90	0x3d01b687	0.031668212
91	0xbea44c96	-0.3208968
92	0xbe1be31e	-0.15223357
93	0xbd639733	-0.055564117
94	0x3e9e61e2	0.30934054
95	0xbe3dd87f	-0.18539618
96	0x3dc97d11	0.09838308
97	0x3c61025a	0.013733471
98	0xbe90ce0b	-0.28282198
99	0xbedbb845	-0.42914024
100	0xbe697f75	-0.22802527
101	0xbcfaa0b8	-0.030594215
102	0xbe42e441	-0.19032384
103	0x3cf29d7c	0.02961611
104	0x3e2b15ed	0.16707583
105	0xbe8790d5	-0.26477686
106	0x3e1965b0	0.14980197
107	0x3e0dbf01	0.13842393
108	0x3e4271d2	0.18988732
109	0x3eeed8fb	0.46649918
110	0xbeab74aa	-0.33487445
111	0x3e2d928c	0.16950434
112	0xbde05129	-0.1095298
113	0xbee32cd0	-0.44370127
114	0xbf1622b0	-0.5864668
115	0xbe68e322	-0.22742894
116	0xbeb3b00c	-0.3509525
117	0xbd416af0	-0.047221124
118	0xbe6ea8ca	-0.23306575
119	0x3ebd4350	0.36965418
120	0x3f01574f	0.5052385
121	0xbd8192df	-0.063268416
122	0xbebd954a	-0.3702796
123	0xbdd0886f	-0.10182273
124	0x3d86e949	0.06587464
125	0x3efa119c	0.4884156
126	0x3eafb3b6	0.34316796
127	0x3e7f6751	0.24941756
128	0x3c864aa0	0.016393006
129	0xbe4c18a8	-0.1993128
130	0xbee87c12	-0.45407158
131	0x3c1e1554	0.00964864
132	0x3e886412	0.26638848
133	0xbe3ff349	-0.1874515
134	0x3ebf96dc	0.37419784
135	0x3ca5a08f	0.020218162
136	0x3dda68fc	0.106645554
137	0x3e550d8d	0.2080595
138	0xbd82dac2	-0.06389381
139	0xbe60a91b	-0.21939509
140	0x3e8b86e3	0.27251348
141	0x3d76d178	0.06025836
142	0xbe91822b	-0.28419623
143	0xbe710bb9	-0.23539628
144	0xbe7f9596	-0.24959406
145	0xbe4d807d	-0.20068546
146	0xbe7e2450	-0.2481854
147	0x3e4e08c4	0.20120531
148	0x3e6346ca	0.22194973
149	0xbbf53936	-0.0074836267
150	0xbe90c6dd	-0.2827672
151	0x3dbba2e9	0.09161932
152	0x3eab145e	0.33413976
153	0xbeb9c5dd	-0.3628377
154	0x3eb0288a	0.3440593
155	0x3e700072	0.2343767
156	0x3ca93d92	0.020659242
157	0xbe5679d4	-0.20944911
158	0xbe824a1b	-0.25447163
159	0xbdd799ac	-0.105273575
160	0xbe933d96	-0.28757924
161	0xbdb07109	-0.0861531
162	0xbecb6a25	-0.3972942
163	0xbe047639	-0.12935723
164	0xbeeb741f	-0.4598703
165	0xbe1640f1	-0.1467321
166	0x3e84826f	0.25880763
167	0x3e06926a	0.1314179
168	0x3ef6b3bf	0.4818401
169	0xbef00493	-0.4687849
170	0xbdae816c	-0.08520779
171	0xbf0dbc02	-0.55365
172	0x3e6b5910	0.22983193
173	0xbded1b7b	-0.11577507
174	0x3dc0c9c0	0.09413481
175	0x3f039b04	0.5140841
176	0x3e331751	0.17489363
177	0xbe272f22	-0.16326573
178	0xbe37d501	-0.17952348
179	0xbd6e72aa	-0.05821482
180	0x3ebd870d	0.37017098
181	0x3ec7f3d6	0.3905322
182	0x3ec94269	0.3930848
183	0xbdd98705	-0.10621456
184	0xbebb991e	-0.36640257
185	0x3db66d7f	0.089076035
186	0xbe65afbf	-0.22430323
187	0x3ed06105	0.4069902
188	0x3dedfee7	0.116208844
189	0x3ecb49d9	0.3970478
190	0x3ca97655	0.020686308
191	0x3e7bb8d2	0.24582222
192	0xbdb95d09	-0.09050948
193	0xbe8b9364	-0.27260888
194	0xbec9bdf0	-0.39402723
195	0xbe9b9ed2	-0.30394608
196	0xbc623a84	-0.0138078965
197	0x3e429b23	0.19004492
198	0x3ec2bf67	0.38036653
199	0x3df93bf1	0.12169636
200	0x3eb2aea6	0.3489887
201	0xbeeaa9ad	-0.45832577
202	0x3e2dcd40	0.16972828
203	0xbde693b8	-0.11258644
204	0xbe015329	-0.1262938
205	0xbe462977	-0.19351755
206	0x3e87cb43	0.26522264
207	0x3ebe8075	0.3720738
208	0x3e53eea0	0.20696497
209	0xbebd0e80	-0.36925125
210	0x3e60d2cd	0.21955414
211	0x3cafa544	0.02144111
212	0x3eb3d9dc	0.3512715
213	0x3eb3180a	0.34979278
214	0x3e8c8366	0.27444
215	0xbe3cfbf2	-0.18455485
216	0xbe3bf040	-0.18353367
217	0xbc8b89f5	-0.017033556
218	0xbe8a3a0d	-0.26997414
219	0xbe5d045e	-0.21583697
220	0x3ad8d574	0.0016543106
221	0x3ea2a7f9	0.31768778
222	0x3ebfdb5b	0.37472042
223	0xbede8d07	-0.4346697
224	0xbecf7af5	-0.40523496
225	0xbe57d699	-0.21077956
226	0x3e3c2483	0.18373303
227	0xbe631e93	-0.22179632
228	0xbefc6699	-0.49297026
229	0x3e394f10	0.18096566
230	0x3ea92b3c	0.33040798
231	0xbefa1a28	-0.4884808
232	0xbe66b4b0	-0.22529864
233	0xbd8d0890	-0.06886399
234	0x3e051268	0.12995303
235	0xbe19ecd7	-0.15031753
236	0xbee62e1f	-0.44957063
237	0xbe00afda	-0.12567082
238	0xbda76f9b	-0.08175584
239	0x3e482d7d	0.19548602
240	0xbeb446f4	-0.35210383
241	0x3eaa8bb5	0.33309713
242	0x3e2abd79	0.1667384
243	0xbe8dca76	-0.27693528
244	0x3e50b60e	0.20381948
245	0x3d515fe9	0.051116858
246	0x3df17fa6	0.11791925
247	0x3c9099d1	0.01765147
248	0xbe8e4a4e	-0.27791065
249	0xbe93993f	-0.28827855
250	0xbcca9b2c	-0.024732195
251	0x3e508133	0.20361786
252	0xbe333cf4	-0.1750372
253	0xbebfe33e	-0.3747806
254	0xbeb8c5c7	-0.36088392
255	0xbeeca614	-0.46220458

layers.0.mlp.linears.1.bias f4 [16]
0	0x3d9d0789	0.07667453
1	0x3d34e3ec	0.044162676
2	0x3e0406f4	0.12893277
3	0x3d3fb5e8	0.04680434
4	0x3d1f7b15	0.03893574
5	0xbd3214dd	-0.043476928
6	0x3b70bc76	0.0036733425
7	0xbd76bb78	-0.060237378
8	0x3cd1650d	0.02556088
9	0xbd88ec6d	-0.0668572
10	0xbc93c3aa	-0.018037636
11	0x3d4860d6	0.048920475
12	0x3d633176	0.05546709
13	0xbc82cfee	-0.01596829
14	0x3d66f994	0.05639036
15	0x3d7b9931	0.06142539

layers.0.mlp.linears.2.weight f4 [8, 16]
0	0x3e1d00c9	0.15332331
1	0x3b3cf272	0.0028831032
2	0x3cdd96a0	0.027049363
3	0xbd09156f	-0.033467706
4	0xbe90b7ab	-0.28265128
5	0xbc7856b8	-0.015157394
6	0x3d2a222e	0.041536503
7	0xbe6bbd04	-0.23021322
8	0x3e41cdc7	0.18926154
9	0xbe67cbd3	-0.22636347
10	0xbe8da575	-0.27665296
11	0xbe21e678	-0.15810573
12	0xbe89032d	-0.26760235
13	0xbd51fb3e	-0.051264994
14	0xbe204455	-0.15651067
15	0x3e34873e	0.17629716
16	0x3e059722	0.13045934
17	0x3d6bb7c8	0.057548314
18	0x3eb3afa0	0.3509493
19	0xbe828212	-0.2548986
20	0xbe24b780	-0.16085625
21	0x3e41d6ad	0.18929549
22	0x3e6c00e1	0.2304721
23	0x3e34bace	0.17649385
24	0x3e595274	0.2122286
25	0x3d685d49	0.05672959
26	0x3df9ef0e	0.12203799
27	0xbd964bec	-0.073387
28	0x3e292530	0.16518092
29	0xbe3c1225	-0.18366297
30	0x3e9f8ee8	0.31163716
31	0xbe8bcf7c	-0.27306736
32	0xbe52e5c4	-0.20595461
33	0x3e2334bf	0.1593809
34	0xbe5a3625	-0.21309717
35	0xbe00ceb9	-0.12578858
36	0xbda1ee0f	-0.07906734
37	0xbe6cf307	-0.23139583
38	0xbd7c37bb	-0.061576586
39	0xbe2ababe	-0.16672799
40	0xbdd71bea	-0.10503371
41	0x3bb6e17e	0.00558108
42	0xbe81d880	-0.2536049
43	0xbde295e0	-0.11063743
44	0xbd561b6c	-0.052272245
45	0xbea1f15c	-0.31629455
46	0xbddb4f23	-0.107084535
47	0x3e6f9493	0.2339652
48	0xbe917eb4	-0.2841698
49	0xbe0489bc	-0.12943166
50	0xbe1f3158	-0.15546167
51	0x3e38fc68	0.18065035
52	0x3db8dbcc	0.09026298
53	0x3d75d66f	0.060018953
54	0xbdca3229	-0.098728485
55	0xbe81a20a	-0.25318938
56	0xbda8872f	-0.08228909
57	0x3de7c605	0.11317066
58	0x3bd7db12	0.0065873945
59	0xbe464a67	-0.1936432
60	0xbe6b8252	-0.22998932
61	0x3deaddf8	0.114681184
62	0x3e32db9e	0.1746659
63	0x3e20d56c	0.15706414
64	0xbe85609c	-0.2605027
65	0xbcda57e8	-0.026653245
66	0x3eaa8258	0.3330257
67	0xbe96c08e	-0.29443783
68	0xbe8c4183	-0.2739373
69	0xbe89bc8e	-0.26901668
70	0xbd7015c8	-0.058614522
71	0x3dc4d8bb	0.096116506
72	0x3e431da3	0.19054274
73	0xbde153f0	-0.11002338
74	0x3e9b4e59	0.30333212
75	0x3e30ab73	0.17252903
76	0x3e439250	0.19098783
77	0xbe46c8f0	-0.19412589
78	0x3ddaf6f7	0.10691636
79	0x3dbe797e	0.093005165
80	0x3df14596	0.117808506
81	0xbec5f39b	-0.3866242
82	0x3d9952d6	0.07486503
83	0xbe89e9da	-0.26936227
84	0xbe169660	-0.14705801
85	0x3d944483	0.0723963
86	0xbc2049d1	-0.009783224
87	0x3e8e94ba	0.27847844
88	0xbd928241	-0.0715375
89	0xbcaa27eb	-0.020770987
90	0x3e97749c	0.29581153
91	0xbe704333	-0.23463134
92	0x3dbeaa5d	0.09309838
93	0xbe7d05f7	-0.24709307
94	0x3e9ce04b	0.30639872
95	0xbdf232de	-0.118261084
96	0x3dbc526a	0.09195407
97	0x3d0d74ac	0.034535095
98	0x3c3c0cc3	0.011477652
99	0x3e8236ab	0.25432333
100	0xbdcd671c	-0.10029432
101	0x3e71a9d4	0.2359994
102	0xbe0de604	-0.13857275
103	0xbdd68661	-0.104748495
104	0xbe471aa9	-0.19443764
105	0x3da33f54	0.07971063
106	0xbe9f4692	-0.31108528
107	0x3d941990	0.07231438
108	0xbdd02c31	-0.10164679
109	0x3e1b0ab8	0.15140808
110	0x3eb224d7	0.34793732
111	0x3e611f05	0.2198449
112	0xbe161ab5	-0.14658625
113	0x3c15abb8	0.009135179
114	0xbe3b3034	-0.18280107
115	0xbce15501	-0.027506353
116	0xbded7e88	-0.115963995
117	0x3e2a2cba	0.16618624
118	0xbd5af82b	-0.053459328
119	0x3e17917b	0.1480159
120	0x3df927f8	0.121658266
121	0x3e33ac21	0.1754613
122	0x3e3faed0	0.1871903
123	0xbd1e57f7	-0.03865811
124	0xbe5183c0	-0.20460415
125	0x3de9f657	0.11423939
126	0xbe2d56e7	-0.16927682
127	0xbdbd16f6	-0.09232895

layers.0.mlp.linears.2.bias f4 [8]
0	0x3d5bf50d	0.053700496
1	0x3e7c96ee	0.2466695
2	0x3e28aa86	0.164713
3	0xbd89b6a8	-0.06724292
4	0xbdb23c30	-0.08702886
5	0x3e0bf40d	0.13667317
6	0x3e19ca44	0.15018564
7	0xbe94cba2	-0.2906161
