checkpoints/QM9/ccsd_qm9_Base_CC.pth (torch, 430715 bytes, 472 tensors)

layers.0.weight f4 [4, 10]
0	0x3f9773e5	1.1832243
1	0x3fd0e343	1.6319355
2	0xbf35d98d	-0.7103508
3	0xbeed2102	-0.46314245
4	0xbf29657c	-0.6617048
5	0xbdbabba2	-0.09117819
6	0x3f925536	1.1432254
7	0x3e7613f7	0.24031053
8	0xbf81d4c3	-1.0143055
9	0xbf331d7e	-0.69966877
10	0xc089c0ab	-4.304769
11	0x3fc721df	1.5557212
12	0xbf448a14	-0.7677319
13	0xbe84a5b6	-0.25907677
14	0xbf1a1d50	-0.6020098
15	0xbe309eb8	-0.17248046
16	0x3f6afe4c	0.91794276
17	0x3eed6cc5	0.46372047
18	0xbf7c9388	-0.98662615
19	0xbf52b72c	-0.8231075
20	0x3f626813	0.88440055
21	0x3fc5edce	1.5463197
22	0xbf350dab	-0.7072398
23	0x3d974fa5	0.07388238
24	0xbf345a75	-0.70450526
25	0xbec25a1b	-0.3795937
26	0x3f823151	1.01713
27	0x3eb5198d	0.35371056
28	0x404d9831	3.212414
29	0xbf43a13d	-0.76417905
30	0xbd802be5	-0.06258372
31	0x3fae1f3b	1.3603281
32	0x409388b6	4.6104383
33	0x3f7096e4	0.9398024
34	0x4087484b	4.227575
35	0x3f859ab0	1.0437832
36	0x3f5ce4ef	0.86286825
37	0x3f35cf0f	0.7101907
38	0x3d68aac2	0.056803472
39	0xbf349d89	-0.7055288

layers.0.bias f4 [10]
0	0xc033abfd	-2.8073723
1	0xbf9b6590	-1.214037
2	0xbe02835d	-0.12745424
3	0x3ee6dc12	0.45089775
4	0x3f363298	0.7117095
5	0x3e859905	0.26093307
6	0x3df0ad31	0.11751784
7	0xc018faeb	-2.3903148
8	0x40142756	2.3149009
9	0x3f81b64d	1.0133759

layers.1.weight f4 [10, 10]
0	0x3bf72317	0.007542025
1	0xbe7b6c16	-0.2455295
2	0xbd095e01	-0.033536915
3	0xbd4f05b0	-0.050542533
4	0xc042829a	-3.0392213
5	0xbd81fb31	-0.06346739
6	0x3e8e7cbd	0.27829543
7	0xbe9fcd79	-0.3121145
8	0xbe0e124a	-0.13874164
9	0x3e11ffb7	0.14257704
10	0x3db55d46	0.08855681
11	0x3f21fff3	0.6328117
12	0x3efca29b	0.49342808
13	0x3d36d344	0.044635072
14	0x3ef15663	0.4713622
15	0x3fd0bfc7	1.6308526
16	0x3eca3aca	0.39497977
17	0xbd6223ad	-0.055209804
18	0xbfea87be	-1.8322675
19	0x3e9a51bb	0.3014048
20	0xbb8bd1a0	-0.0042669326
21	0xbd0f3e2c	-0.0349714
22	0xc0280302	-2.6251836
23	0xbe73018e	-0.23731062
24	0x3bcc070b	0.0062264255
25	0xbde1f202	-0.110324875
26	0xbfb18df4	-1.3871446
27	0x3f84e4d4	1.0382333
28	0xbe3e80ea	-0.18603864
29	0x3d2a53e0	0.041583896
30	0xbf6504a0	-0.8946018
31	0x3e68523b	0.22687618
32	0xbe2fdbc9	-0.17173685
33	0x3f19c72d	0.60069543
34	0xbe49b8b2	-0.19699362
35	0xbe625b78	-0.22105205
36	0x40029888	2.0405598
37	0x400600bc	2.0937948
38	0xbdc8c5d5	-0.098033585
39	0x3e192e2d	0.14959021
40	0x4007a70c	2.1195707
41	0x3da3368c	0.07969388
42	0x3e5e756c	0.2172448
43	0x3e079f7f	0.13244437
44	0x3dc94a64	0.09828642
45	0x3d091b72	0.03347344
46	0x3f4c2724	0.79747224
47	0xbfc77218	-1.5581694
48	0x3d5c1cbd	0.053738344
49	0xbe92dc82	-0.2868386
50	0xc015fff3	-2.343747
51	0xbdf38914	-0.1189138
52	0xbf3fddf9	-0.7494808
53	0xbf2a3775	-0.6649087
54	0xbe3df322	-0.18549779
55	0x3e869205	0.2628328
56	0x404c4fa7	3.1923616
57	0x40405407	3.0051286
58	0x3e0d5983	0.13803677
59	0x3e8dada3	0.27671537
60	0x3d98dd83	0.07464125
61	0xbf8a8615	-1.0822169
62	0xbea30b12	-0.31844383
63	0x3e7ba17b	0.24573319
64	0xbf279e43	-0.65475863
65	0x3fb41d1b	1.4071382
66	0xbb98ebb3	-0.0046667694
67	0x3f443f2b	0.76658887
68	0x40346dee	2.8192096
69	0xbe7e7c36	-0.2485207
70	0x3e6b8620	0.23000383
71	0x3e56d009	0.20977797
72	0x3fb83d8b	1.4393781
73	0xc002addf	-2.0418622
74	0x401daf3a	2.46382
75	0x3fb3525e	1.4009511
76	0x3fb49684	1.4108434
77	0xbdba1937	-0.090868406
78	0x3ff1af8e	1.88817
79	0x40161533	2.345044
80	0xbe1f3a3c	-0.15549558
81	0x3d454816	0.04816445
82	0xbe20cd5d	-0.1570334
83	0xc0353c6e	-2.8318133
84	0xbddf4977	-0.10902684
85	0x3e1dd4a5	0.15413149
86	0xbc807c44	-0.015684254
87	0xbf712517	-0.9419722
88	0x3d999281	0.074986465
89	0xbda890a4	-0.08230713
90	0x3ebeb681	0.37248614
91	0x403ae54a	2.9202447
92	0x3f484567	0.782309
93	0x3db78431	0.089607604
94	0x3e87e499	0.26541594
95	0x3f9d7f43	1.2304462
96	0x3e52e7e8	0.20596278
97	0xbe456858	-0.19278085
98	0xbf1ad5ad	-0.60482293
99	0x3f231d4a	0.63716567

layers.1.bias f4 [10]
0	0x3ef57ac8	0.47945237
1	0xbeb9a773	-0.36260566
2	0xbf23fe75	-0.64060146
3	0x3e3976f0	0.18111777
4	0xbdcf7d14	-0.10131279
5	0xbf913af5	-1.1346117
6	0xbe398b86	-0.1811963
7	0xba8066dd	-0.0009796281
8	0x3a6d52d5	0.00090531755
9	0x4013f65c	2.3119116

final.linears.0.weight f4 [48, 24]
0	0xbe3397b9	-0.17538346
1	0xbeca94db	-0.39566693
2	0xbe5f223e	-0.21790406
3	0x3fc1f8c7	1.5154046
4	0x3da71676	0.08158581
5	0x3e739148	0.23785889
6	0xbe3785e5	-0.1792217
7	0x3e9107d2	0.2832628
8	0x3f375db3	0.7162735
9	0x3e7123e6	0.2354885
10	0xbe197bdf	-0.1498866
11	0x3e832e5d	0.2562131
12	0x3dbc4655	0.09193102
13	0xbda5c385	-0.08093933
14	0xc03808b7	-2.875532
15	0xbd51ecc0	-0.051251173
16	0x3dcf8a45	0.10133795
17	0xbcd50fb1	-0.026008459
18	0x3cb01c1a	0.021497775
19	0xbd6362f2	-0.055514283
20	0x400ee893	2.2329452
21	0x3f567e21	0.8378621
22	0x3ead0742	0.337946
23	0x3f0c0aed	0.5470417
24	0xbcdc1973	-0.026867604
25	0xbd868d84	-0.06569961
26	0xbd4520a5	-0.048126835
27	0x3f826af2	1.0188887
28	0x3ec48b46	0.38387507
29	0xbe4daac3	-0.20084672
30	0xbead116f	-0.33802363
31	0xbf7a49a5	-0.9776862
32	0xbf46c58e	-0.77645195
33	0xbf7dd906	-0.99159276
34	0xbe935a55	-0.28779855
35	0x3eb0c8b9	0.3452814
36	0xbb132859	-0.002245447
37	0x3e8b92b1	0.27260354
38	0xbe9c3a6f	-0.3051333
39	0xbf37a419	-0.7173477
40	0xc00b5aa3	-2.177407
41	0xbe5a26a8	-0.21303809
42	0x3e20fbb4	0.15721017
43	0xbf19b392	-0.6003963
44	0xbfa011cf	-1.2505435
45	0x3f45a728	0.77208185
46	0xbee9f2b6	-0.45692986
47	0xbf61696b	-0.8805148
48	0x3f02c5d8	0.51083136
49	0x3f120f81	0.5705491
50	0x3f10be2b	0.56540173
51	0xbe29a5ae	-0.16567108
52	0xbe15531c	-0.14582485
53	0xbf969b69	-1.1766177
54	0x3ec1fff6	0.37890595
55	0xbe00c179	-0.12573804
56	0x3eb7d770	0.35906553
57	0x3eb938e7	0.36176226
58	0xbecb8088	-0.397465
59	0x3dff5d4d	0.124689676
60	0xbec56f73	-0.38561592
61	0x3f25955d	0.64681035
62	0xbe88217e	-0.26588053
63	0x3f47095b	0.7774865
64	0xbd9c30cc	-0.07626495
65	0xbf3a59a8	-0.72793055
66	0x3ee72fb0	0.4515357
67	0xbf27d720	-0.6556263
68	0x3ede0853	0.43365726
69	0x3e003bbb	0.12522785
70	0xbeb8153c	-0.359537
71	0xbf10f50a	-0.566239
72	0xbf2f1fe6	-0.6840805
73	0xbead799a	-0.33881837
74	0x3ed37eb0	0.41307592
75	0xbe0e5e8c	-0.13903254
76	0x3f052a32	0.5201751
77	0x3e570098	0.2099632
78	0xbda36d83	-0.07979872
79	0xc0025d04	-2.0369272
80	0x3ea62251	0.32448056
81	0x3fad770c	1.3551955
82	0x3e0c1db1	0.13683201
83	0xbe9a0759	-0.3008373
84	0xbfacb2f1	-1.3492109
85	0x3e974691	0.29546025
86	0xbe2ba8ac	-0.16763562
87	0xbe007dbd	-0.12547965
88	0xb9b972a0	-0.00035371352
89	0xbf453fd8	-0.7705054
90	0x3efe9243	0.49720964
91	0x3d8148ba	0.063126996
92	0x3e0697f1	0.13143899
93	0xbe22cf70	-0.15899444
94	0x3c9d817a	0.019226778
95	0xbd936342	-0.07196666
96	0x400b5d79	2.17758
97	0xbf941b51	-1.1570836
98	0xbf6d04ca	-0.9258543
99	0x3d1b87c3	0.03797127
100	0xbd32adc6	-0.043622755
101	0x3d969a26	0.0735362
102	0xbb86322b	-0.004095336
103	0xbf2188e1	-0.63099486
104	0xbbf50a89	-0.0074780625
105	0x3f08b21f	0.5339679
106	0x3d0d330f	0.03447252
107	0xbebd48c8	-0.3696959
108	0xbd6262bb	-0.055269938
109	0x3d8efbe4	0.06981638
110	0x3d86a12f	0.06573712
111	0xbbaba8f2	-0.0052386457
112	0xbdc3a603	-0.095531486
113	0xbe7b1135	-0.24518283
114	0x3d086e84	0.03330852
115	0xbd094cf5	-0.033520658
116	0xbdb60b0f	-0.08888828
117	0xbdc88c6a	-0.09792407
118	0x3d3efcba	0.046627738
119	0x3f11e2c7	0.5698666
120	0x3ea6273d	0.3245181
121	0x3e45d625	0.19319971
122	0x3e3b910c	0.1831705
123	0xbf874580	-1.0568085
124	0xbac9da69	-0.0015400174
125	0x3e0c28dc	0.13687462
126	0xbc3b5d48	-0.011435814
127	0x3dc27db3	0.094966315
128	0x3e76744c	0.24067801
129	0xbdd8e117	-0.105898075
130	0xbe44122e	-0.1914756
131	0x3d94c340	0.072638035
132	0xbcf8f57a	-0.03039049
133	0xbcb48aef	-0.022038905
134	0xbeb5d1c5	-0.35511604
135	0x3dcaf963	0.09910848
136	0x3e407192	0.18793324
137	0x3d3886ae	0.045050316
138	0x3c1e123d	0.009647903
139	0xbc65528e	-0.013996733
140	0x3e8f2ce7	0.27963945
141	0x3be81f7a	0.0070838304
142	0x3e2181cb	0.15772168
143	0xbd196c11	-0.037456576
144	0x3e36f8ae	0.17868301
145	0xbf95c24f	-1.1699923
146	0x3f757f05	0.9589694
147	0x3de981ad	0.11401687
148	0xbd536a76	-0.0516152
149	0x3c722f06	0.014781719
150	0x3dc70c69	0.09719164
151	0x3c85a4c6	0.016313922
152	0xbd8fd66d	-0.0702332
153	0xbda17809	-0.07884223
154	0xbdeef7b7	-0.116683416
155	0x3eb910ae	0.36145538
156	0x3eb04701	0.34429172
157	0xbe59e3c0	-0.21278286
158	0x3c86f700	0.0164752
159	0xbef350cf	-0.4752259
160	0x3d2defa2	0.04246486
161	0x3f5a6b61	0.853201
162	0x3eff6c5a	0.49887353
163	0xbf14ab01	-0.5807343
164	0xbe0b48fb	-0.13602059
165	0x3e85fa2e	0.26167434
166	0x3d2dff2e	0.042479686
167	0xbdd0d818	-0.101974666
168	0x3d659bd1	0.0560568
169	0x3e167a19	0.14695014
170	0x3e871db3	0.26389846
171	0x3d8fe5ab	0.070262276
172	0xbcda91b6	-0.026680809
173	0xbf8adffe	-1.0849607
174	0x3e4354c2	0.19075301
175	0xbf33fb80	-0.70305634
176	0x3e8f679e	0.2800874
177	0x3e60313a	0.21893778
178	0x3e2565c8	0.16152108
179	0xbe25a552	-0.16176346
180	0x3e3cbd64	0.18431622
181	0x3ea5e69b	0.324025
182	0x3ef94750	0.4868722
183	0xbf5f47ab	-0.8721873
184	0x3f2dc490	0.67878056
185	0xbe500f27	-0.2031828
186	0x3e94b563	0.29044637
187	0x3f0eef4e	0.558339
188	0x3e70ee48	0.23528397
189	0xbcb0b228	-0.021569327
190	0xbeb96f45	-0.36217704
191	0x3fefa826	1.872319
192	0xbfca817a	-1.5820763
193	0x3fa05bf8	1.2528067
194	0x3ede4e34	0.4341904
195	0x3d598df9	0.05311391
196	0xbd6cf21b	-0.057848077
197	0xbdf9b3cd	-0.121924974
198	0x3cc6ce97	0.024268432
199	0xbe021a06	-0.1270524
200	0xbcc3dab3	-0.023907995
201	0x3e58b967	0.21164475
202	0x3db9516d	0.09048734
203	0xbf03c890	-0.5147791
204	0xbe127e17	-0.14305912
205	0xbcf40136	-0.029785734
206	0x3c3e900e	0.011631025
207	0xbb696e47	-0.003561871
208	0x3c8326e1	0.01600975
209	0xbdfd46ef	-0.12367045
210	0x3d3c6135	0.04599114
211	0x3d88d267	0.06680756
212	0x3d2c609c	0.04208432
213	0xbdb59117	-0.08865564
214	0x3bb3c793	0.0054864376
215	0xbd9a3881	-0.075303085
216	0x3db35b99	0.08757705
217	0xbdde3499	-0.10849876
218	0x3e39ffa0	0.1816392
219	0xbe9ff6d9	-0.31243017
220	0x3f36ff16	0.7148298
221	0x3e9b73b7	0.3036172
222	0xbe4582f4	-0.19288236
223	0xbdb79463	-0.089638494
224	0x3ddf6926	0.10908727
225	0xbf2efc34	-0.6835358
226	0xbe50b2fb	-0.20380776
227	0x3ef1a396	0.4719512
228	0x3f79d291	0.97586924
229	0xbe38d1bf	-0.18048762
230	0xbea0a1ba	-0.31373388
231	0x3da04a81	0.078267105
232	0xbf383bac	-0.7196605
233	0x40529793	3.2905014
234	0xbe94015e	-0.28907293
235	0xbe085e5d	-0.13317247
236	0xbef564bc	-0.47928417
237	0x3fb301c9	1.398492
238	0xbe491201	-0.19635774
239	0x3daeb95b	0.085314475
240	0xbe8c1015	-0.2735602
241	0xbf04860e	-0.5176705
242	0xbe7e63a8	-0.24842703
243	0xbf7a3183	-0.977318
244	0xbf42c508	-0.76081896
245	0x3fad9f6a	1.3564274
246	0x3eb9294f	0.36164328
247	0x3c754ad0	0.01497145
248	0x3f117049	0.5681196
249	0x3fa238c1	1.267357
250	0x3e6087fb	0.21926872
251	0x3f0d9747	0.55308956
252	0xbf622b84	-0.8834765
253	0xbfc7a2a2	-1.5596507
254	0x3f17dcd2	0.5932132
255	0x3dbcd01d	0.09219382

final.linears.0.bias f4 [48]
0	0x3e7eee0f	0.248955
1	0xbdeeea15	-0.11665741
2	0xbc6e2933	-0.01453619
3	0x3f478ced	0.7794941
4	0x3ed714be	0.42008013
5	0x3b90ac7f	0.0044150944
6	0xbe052403	-0.13002019
7	0xbe8d5315	-0.2760245
8	0x3f8b36c2	1.0876086
9	0xbe9c5721	-0.30535224
10	0xbe86ff34	-0.2636658
11	0x3db307e6	0.08741741
12	0x3dc1c625	0.09461621
13	0x3f20d2b4	0.6282151
14	0x3eef7d5f	0.46775338
15	0x3d9debd2	0.07710995
16	0x3f1b214f	0.605977
17	0x3f137ba0	0.5761051
18	0xbefb3f41	-0.49071696
19	0x3ea116fc	0.31462848
20	0xbddf5e0b	-0.10906609
21	0x3f95d66a	1.1706059
22	0x3e3b20ac	0.18274182
23	0x3f155f21	0.5834828
24	0x3e12372e	0.14278862
25	0xbf125885	-0.5716632
26	0x3f013fc9	0.50487953
27	0xbe20633b	-0.15662853
28	0xbf51bed1	-0.8193179
29	0xbf6684d1	-0.9004641
30	0xbfa245f2	-1.2677596
31	0xbec38e1c	-0.38194358
32	0x3e64adc3	0.2233191
33	0x3e53536a	0.20637289
34	0x3f3291c8	0.69753695
35	0xbf90ad4a	-1.1302884
36	0xbf16e5d0	-0.58944416
37	0x3e9d13f4	0.30679286
38	0xbedfec6a	-0.43735057
39	0x3f2581d7	0.64651245
40	0xbf2d40a1	-0.6767674
41	0x3f885a97	1.0652646
42	0xbe374099	-0.17895736
43	0xbf55e3ad	-0.8355053
44	0x3ea40eb9	0.32042482
45	0xbe4161c5	-0.18884952
46	0x3ea8282c	0.3284315
47	0x3f3c4ddb	0.735563

final.linears.1.weight f4 [48, 48]
0	0xbe960dd2	-0.2930742
1	0xbc2d308a	-0.010570655
2	0xbd36ab4b	-0.04459695
3	0xbeca1e39	-0.39476183
4	0xbea09284	-0.31361783
5	0xbec0d00f	-0.37658736
6	0xbe8c8716	-0.27446812
7	0x3ec66e3e	0.38755983
8	0xbca13868	-0.019680217
9	0xbdce5215	-0.1007425
10	0xbe1400fd	-0.14453502
11	0xbe61fb95	-0.22068627
12	0xbe819d37	-0.25315258
13	0xbebf9d54	-0.3742472
14	0xbe9a8dca	-0.301863
15	0xbdbda41d	-0.09259818
16	0xbe4bd218	-0.19904363
17	0xbe6c1f07	-0.23058711
18	0xbe0a20f7	-0.13489138
19	0xbe9ab45a	-0.30215722
20	0xbe65102f	-0.22369455
21	0xbea5a6a1	-0.3235369
22	0xbea30ae2	-0.3184424
23	0xbe5af8d7	-0.21383987
24	0xbe522430	-0.20521617
25	0xbf2e7b97	-0.68157333
26	0xbf241570	-0.6409521
27	0x3e4077ed	0.18795748
28	0xbd6dae5e	-0.058027618
29	0xbec2d39e	-0.38052076
30	0x3e7024a8	0.23451483
31	0xbeae46a1	-0.3403826
32	0xbe5de42d	-0.21669073
33	0xbe21fed8	-0.15819871
34	0x3e910e72	0.28331333
35	0x3e82a937	0.25519726
36	0xbe836e60	-0.25670147
37	0xbe99e244	-0.3005544
38	0x3e1e1d9f	0.15440987
39	0xbe990db6	-0.29893273
40	0x3eca0233	0.39454803
41	0xbe850670	-0.25981474
42	0x3e006c41	0.12541296
43	0xbe7c8537	-0.24660192
44	0xbef68917	-0.48151466
45	0xbea50370	-0.32229185
46	0xbe0e7cbb	-0.13914768
47	0xbe8f67ec	-0.28008974
48	0xbf2a25c3	-0.6646387
49	0xbf188aa3	-0.5958654
50	0xbec89c80	-0.391819
51	0xbeb9682d	-0.36212292
52	0xbee169bf	-0.4402599
53	0x3d3f1428	0.046650082
54	0xbf2c768e	-0.673684
55	0x3f14fe56	0.58200586
56	0xbecbcb09	-0.3980334
57	0xbf4544ee	-0.77058303
58	0xbf27ecf1	-0.6559592
59	0xbed4d7ad	-0.41570798
60	0xbf17a444	-0.59235024
61	0xbf4ed1c8	-0.8078885
62	0xbf42ff30	-0.76170635
63	0xbf0e64ae	-0.55622375
64	0x3e2581d5	0.16162808
65	0xbed15e62	-0.4089232
66	0xbf2ab831	-0.66687304
67	0xbec22586	-0.37919253
68	0xbee4f91a	-0.447213
69	0xbd2fa1e8	-0.042879015
70	0xbdb1351f	-0.0865271
71	0xbe2023e6	-0.15638694
72	0xbf00f0fe	-0.50367725
73	0xbf060170	-0.52345943
74	0xbe3add9f	-0.18248604
75	0xbdc5146a	-0.09623034
76	0xbf20798c	-0.62685466
77	0x3f4bacc4	0.79560494
78	0xc0299a51	-2.6500437
79	0xbf268af7	-0.65055794
80	0xbf09a99d	-0.53774434
81	0xbe67f03d	-0.22650237
82	0xbea17ee9	-0.31542137
83	0xbeb5abf4	-0.35482752
84	0xbf4400f5	-0.7656396
85	0xbf4ec273	-0.80765456
86	0xbd943933	-0.072374724
87	0xbec337b6	-0.38128442
88	0xbf39f4da	-0.7263924
89	0xbec86ea0	-0.391469
90	0xbcd896da	-0.02643912
91	0xbe9dda52	-0.30830628
92	0xbe3ac346	-0.18238553
93	0x3c28df76	0.0103071835
94	0xbf4bf99b	-0.7967774
95	0xbf573370	-0.8406286
96	0xbe2eb9d0	-0.1706307
97	0xbd9b0963	-0.0757015
98	0x3d007640	0.031362772
99	0xbe2956ff	-0.16537093
100	0xbdb81b5a	-0.08989592
101	0x3ce694a9	0.028147059
102	0xbdb7eedf	-0.08981108
103	0x3e8a29c5	0.26984993
104	0xbf0c3af9	-0.54777485
105	0xbb12f0f8	-0.002242146
106	0xbdc3fafd	-0.095693566
107	0xbd7ee231	-0.06222743
108	0xbe04df94	-0.12975913
109	0xbdfa888e	-0.12233077
110	0xbde9b4a4	-0.114114076
111	0x3cf2431c	0.029573016
112	0xbe916ca1	-0.2840319
113	0xbe016f4d	-0.12640114
114	0xbd209dfe	-0.039213173
115	0xbe28f971	-0.16501404
116	0xbdfddc64	-0.12395552
117	0xbdbcbb86	-0.09215455
118	0xbea065cd	-0.31327668
119	0xbe11210a	-0.1417276
120	0xbdfbf5d2	-0.12302746
121	0xbdd3fca7	-0.10350924
122	0xbced464a	-0.02896418
123	0x3e01a434	0.12660295
124	0xbe24402e	-0.16040108
125	0xbdc1e4e8	-0.094674885
126	0x3e6b3624	0.22969872
127	0xbdb1611c	-0.086611
128	0xbd09b649	-0.033621106
129	0xbe12d288	-0.14338124
130	0xbd8e164a	-0.06937845
131	0xbdb57e4a	-0.08861978
132	0xbe517685	-0.20455368
133	0xbd3340e7	-0.043763068
134	0x3e009bfa	0.125595
135	0xbf102905	-0.5631259
136	0x3d3ac98b	0.045602363
137	0xbebc4b73	-0.36776313
138	0xbe8d04bb	-0.27542672
139	0xbddf47aa	-0.10902341
140	0xbe8773ed	-0.26455632
141	0xbe78b4c3	-0.24287705
142	0xbd7eb29c	-0.062182054
143	0xbd76ffe8	-0.060302645
144	0x3cbf8cab	0.023382505
145	0xbcb2fda3	-0.021849459
146	0x3c0a159c	0.008428004
147	0xbb0c51dc	-0.0021411097
148	0x3a621a69	0.0008625151
149	0x3c570f9b	0.013126279
150	0x3c8b091c	0.016972117
151	0x3c025ce2	0.007956715
152	0xbc976de3	-0.018485015
153	0xbb9f3c93	-0.004859516
154	0x3b8383d4	0.004013518
155	0xbb27f3a9	-0.002562741
156	0xbbf5d337	-0.0075019854
157	0x3cccac75	0.024984578
158	0xbb99ccb4	-0.004693592
159	0xbcb2a07e	-0.021805044
160	0xbb0205c2	-0.0019839858
161	0xbbfad411	-0.007654675
162	0x3bd44f77	0.0064791995
163	0xbc805384	-0.015664823
164	0xbcd5c1b4	-0.026093341
165	0x3a730dc1	0.0009271764
166	0xbc06ddfd	-0.008231637
167	0xbc089f02	-0.008338692
168	0x3c8903b3	0.016725397
169	0x39cc4b5d	0.00038966062
170	0xb9fffb21	-0.00048824496
171	0xbc1ee643	-0.009698453
172	0xbc903928	-0.01760538
173	0xbc45fb56	-0.012083849
174	0xbb22db1f	-0.0024849845
175	0xbc9b593f	-0.018963454
176	0xbb34f7f4	-0.0027613612
177	0xbb871036	-0.0041218055
178	0xbb0ef4e4	-0.0021813447
179	0x3b614b4e	0.003437716
180	0x3cc2625c	0.023728542
181	0x3bacfc10	0.0052790716
182	0x3c41f996	0.011839291
183	0xbaf512fa	-0.0018697672
184	0xbbc5a4cb	-0.0060316077
185	0xbc56e45e	-0.01311597
186	0xbc0da0da	-0.008644307
187	0xbb2932ad	-0.0025817559
188	0x3c87ad40	0.016562104
189	0x3a64cc85	0.00087279856
190	0x3c8bed43	0.017080909
191	0x3b2b6acd	0.0026156188
192	0xbf1f89ce	-0.6231965
193	0xbecc2c61	-0.39877608
194	0xbe62c20a	-0.22144333
195	0xbe42900a	-0.19000259
196	0xbed5f6c4	-0.4178983
197	0x3dc88445	0.097908534
198	0xbe70b6ef	-0.23507284
199	0x3ee4986f	0.44647548
200	0xbf82d52a	-1.0221303
201	0xbe913f7e	-0.28368753
202	0xbedc6ee3	-0.4305335
203	0xbc841497	-0.0161231
204	0xbf15fcf3	-0.58589095
205	0xbefadf60	-0.48998547
206	0xbf1069cf	-0.5641145
207	0xbe01e008	-0.12683117
208	0xbef15b39	-0.4713991
209	0xbeb912c6	-0.36147135
210	0xbec0e6a1	-0.37675956
211	0xbe7d91f9	-0.24762715
212	0xbea779f4	-0.3271023
213	0xbe041d22	-0.12901738
214	0xbe626ed9	-0.22112598
215	0xbeb94ab0	-0.36189795
216	0xbea2361c	-0.31681907
217	0xbeb4ad44	-0.3528844
218	0xbda39582	-0.07987501
219	0xbc81414c	-0.015778206
220	0xbed7ead4	-0.42171347
221	0x3ce31a83	0.027722603
222	0x3e89bc3d	0.26901427
223	0xbef33d7f	-0.47507855
224	0xbeb30e8d	-0.3497204
225	0xbe61da73	-0.22055988
226	0xbdd49701	-0.10380364
227	0x3e9a1385	0.30093017
228	0xbeebbcb6	-0.46042413
229	0xbeba976f	-0.3644366
230	0xbc771840	-0.015081465
231	0xbf09f787	-0.5389332
232	0x3ea22762	0.31670672
233	0xbfb56234	-1.4170594
234	0x3cd63e9a	0.026152898
235	0xbe94e600	-0.29081726
236	0xbe2417d2	-0.16024712
237	0xbd5c68f8	-0.053811044
238	0xbf191db3	-0.5981094
239	0xbf272b38	-0.6530032
240	0xbd2c7219	-0.042101
241	0xbc1fdc8d	-0.009757173
242	0x3c876874	0.0165293
243	0xbdb750e2	-0.08950974
244	0xbd1225a7	-0.03568044
245	0x3ecb8dd7	0.39756653
246	0xbc3445e5	-0.011002992
247	0x3da59a30	0.080860496
248	0x3d6f079d	0.05835687
249	0xbcb403cf	-0.021974472
250	0xb9912dbf	-0.0002769064
251	0x3d1888e0	0.03723991
252	0xbd3e585a	-0.046470977
253	0xbd9fcef6	-0.078031465
254	0xbcf06c70	-0.029348582
255	0x3c14ba94	0.009077687

final.linears.1.bias f4 [48]
0	0xbb7970e0	-0.0038061664
1	0xbe94a599	-0.2903259
2	0xbe86fe00	-0.26365662
3	0xbb17de93	-0.0023173436
4	0xbeff4b78	-0.49862266
5	0xbed11dd6	-0.40843076
6	0xbe9766d2	-0.29570633
7	0xbd4ea6d4	-0.05045207
8	0xbec90316	-0.39260167
9	0xbeaa046d	-0.33206502
10	0x3e182cae	0.14860794
11	0xbe84e139	-0.2595308
12	0xbe97f3e3	-0.29678258
13	0xbea94949	-0.33063725
14	0x3e042b65	0.12907179
15	0xbf0cadbf	-0.54952615
16	0xbed5f710	-0.41790056
17	0x3c13a0e0	0.009010524
18	0x3dc72f0f	0.097257726
19	0xbe813647	-0.25236723
20	0xbe5b121d	-0.21393628
21	0xbe7af616	-0.24507937
22	0x3e4ab969	0.19797291
23	0xbf070175	-0.527366
24	0xbe60b844	-0.21945292
25	0xbd815551	-0.06315101
26	0xbe94ba95	-0.290486
27	0xbee2d804	-0.44305432
28	0xbdd9804a	-0.10620172
29	0xbd28231f	-0.04104912
30	0xbc9a30e9	-0.01882215
31	0x3eca5e7d	0.39525214
32	0x3cfce76e	0.030872073
33	0x3f08ce49	0.53439766
34	0xbeaf21ee	-0.34205574
35	0x3da6db86	0.081473395
36	0xbf0577c2	-0.5213586
37	0xbe3c3e6a	-0.18383184
38	0x3cd8fc2a	0.026487429
39	0xbdf224d2	-0.11823429
40	0xbe929613	-0.28630123
41	0x3d4b7e05	0.04968073
42	0xbbf0da14	-0.0073502157
43	0x3de7ca02	0.11317827
44	0x3e4cd680	0.200037
45	0xbcf61ed8	-0.030044004
46	0x3ebad398	0.36489558
47	0x3c710402	0.014710428

final.linears.2.weight f4 [4, 48]
0	0xbe4c8cd8	-0.19975603
1	0x3dba5391	0.0909797
2	0xbe322f0f	-0.17400764
3	0xbbaf5493	-0.005350658
4	0xc00037e6	-2.0034118
5	0xbe4aea60	-0.1981597
6	0xbf04b52b	-0.5183894
7	0xbce29b32	-0.027661894
8	0xbe05965b	-0.13045637
9	0x3eb6b352	0.35683686
10	0x3fcf06fb	1.6174005
11	0xbdfc9932	-0.12333907
12	0xbd997c2f	-0.07494389
13	0xbdfb26bf	-0.122632496
14	0xbfe1d11d	-1.7641941
15	0xbf85b879	-1.0446922
16	0xbfc5ed1d	-1.5462986
17	0xbf0cf6b1	-0.5506392
18	0xbeaf938e	-0.34292263
19	0x405fa5c4	3.4944925
20	0xbf169778	-0.5882487
21	0x3f846707	1.0343941
22	0x3ff707cf	1.9299258
23	0xbecb125c	-0.39662445
24	0x3d0bcc79	0.034130547
25	0xbf266f41	-0.6501351
26	0xbed66866	-0.41876525
27	0x403d3b48	2.9567432
28	0xbdd02377	-0.101630144
29	0xbf53298d	-0.82485276
30	0x3ec20bef	0.3789973
31	0xc042ffe3	-3.046868
32	0xbfc5e70b	-1.5461134
33	0x3f25f757	0.64830536
34	0x3f06fc01	0.5272828
35	0x3e635173	0.22199039
36	0xbfd8bd06	-1.6932685
37	0x404d2e8b	3.2059658
38	0x3c307c70	0.010771856
39	0xbecce926	-0.40021628
40	0x3e5d2b52	0.21598557
41	0x3ead77e4	0.33880532
42	0x3daa9209	0.08328635
43	0x3ddd37be	0.108016476
44	0x3f608ed2	0.87717927
45	0xbcd81e2e	-0.026381578
46	0x3e3aeaca	0.18253627
47	0x3ef5465e	0.47905248
48	0xbdd801aa	-0.105471924
49	0x403dcae4	2.9655085
50	0xbe34c7d2	-0.1765435
51	0xbbc4fbd2	-0.0060114646
52	0x3f8c0a03	1.0940555
53	0xbe4cdd44	-0.20006281
54	0xc0113e1d	-2.269416
55	0x3daa9a46	0.083302066
56	0x3d0b6960	0.03403604
57	0xbd29992d	-0.041405845
58	0x3fc8e1f4	1.5693955
59	0x3ea98fa0	0.3311739
60	0xbe2aece0	-0.16691923
61	0xbe0f1c7b	-0.13975708
62	0xbfe149fd	-1.7600704
63	0x3f7071ac	0.9392345
64	0xbfd63d04	-1.673737
65	0xbef61535	-0.48063055
66	0x3e27001a	0.16308632
67	0xbfcdc0ce	-1.6074464
68	0xbf95594e	-1.1667879
69	0xbed912b9	-0.42397097
70	0x3fe96333	1.8233398
71	0x3e133a0d	0.14377613
72	0xbe5a0312	-0.21290234
73	0xbf09deca	-0.53855574
74	0x3fbe42ee	1.4864175
75	0xbfc40a52	-1.531565
76	0x3e9741fe	0.29542536
77	0xbf294263	-0.66116923
78	0x3f37714b	0.71657246
79	0x3fdbeb53	1.718119
80	0xbfc788cd	-1.5588623
81	0xbe8e365e	-0.27775854
82	0xbffe8eac	-1.988729
83	0x3e64f80d	0.22360249
84	0x4067a584	3.6194773
85	0xbfba3959	-1.4548751
86	0x3ac456b6	0.0014979455
87	0xbf2959c5	-0.661526
88	0xbd9e9a7f	-0.077443115
89	0x3f045269	0.5168825
90	0x3db6f9ad	0.089343406
91	0xbe69ef1b	-0.22845118
92	0x3f6c88c9	0.9239622
93	0xbca5af74	-0.020225264
94	0xbebbba32	-0.36665493
95	0x3eec6944	0.4617406
96	0xbde59da6	-0.1121171
97	0xc045475f	-3.0824811
98	0x3ebf9191	0.37415746
99	0x39cfcd1a	0.0003963493
100	0x3f79b415	0.9754041
101	0xbe47964b	-0.19490926
102	0x403a6577	2.912443
103	0xbd4767f6	-0.04868313
104	0x3d75d45b	0.06001697
105	0xbe90dc54	-0.28293097
106	0x3fc7a234	1.5596375
107	0xbe642e41	-0.2228327
108	0x3e7c3d34	0.24632722
109	0xbe155e53	-0.14586763
110	0xbfe48285	-1.7852331
111	0x3e35c205	0.17749794
112	0x40440b28	3.063181
113	0xbeee97f9	-0.4660032
114	0x3e3ae532	0.18251494
115	0xbff1d29c	-1.8892398
116	0x3fcfa509	1.622224
117	0xbf149bc6	-0.5805019
118	0x3feb4d54	1.8382974
119	0x3e8a0e90	0.26964235
120	0x3e5613d8	0.20906007
121	0xbf0df307	-0.55448955
122	0xbf6eb756	-0.932485
123	0xbfb07d89	-1.378831
124	0xbe47273c	-0.1944856
125	0xbf26905f	-0.6506404
126	0xbf83c4ce	-1.0294435
127	0x3fa193be	1.2623212
128	0xbfc2fddf	-1.5233725
129	0xbeca020c	-0.39454687
130	0x3fa60551	1.2970372
131	0x3e5ceded	0.21575136
132	0xc0000b4a	-2.000689
133	0xbfe65198	-1.799365
134	0x3b237748	0.0024942923
135	0x3f869b4b	1.0516142
136	0xbe0559be	-0.13022515
137	0x3efd2c46	0.4944784
138	0x3d80f2c2	0.062963024
139	0x3e02f16c	0.12787408
140	0x3f75d8ce	0.9603394
141	0xbbf2b044	-0.0074062664
142	0x3e45a8cf	0.19302677
143	0x3f0251d5	0.50906116
144	0xbfdc8568	-1.7228212
145	0xbce23d04	-0.027616985
146	0x3c373daa	0.011184135
147	0xbab86bcf	-0.0014070215
148	0xba8287ae	-0.0009958649
149	0x3e073433	0.13203506
150	0x3d2a6fa8	0.04161039
151	0xbc29cf03	-0.010364297
152	0x3c9a2520	0.01881653
153	0xbc602dd6	-0.013682803
154	0xc036a8da	-2.854056
155	0x3c193c26	0.009352719
156	0xbc602cc3	-0.013682547
157	0xbe87b12b	-0.26502356
158	0x403e29d4	2.971303
159	0xbd6b2b7e	-0.057414524
160	0x3e3b04a8	0.18263495
161	0x3f8d55ec	1.1041846
162	0x3c14e255	0.009087165
163	0x3cfa6069	0.03056355
164	0xbe7cd201	-0.24689485
165	0xbb509ed8	-0.003183296
166	0x4028aeb9	2.6356642
167	0xbcdc7b1e	-0.026914176
168	0xbcb96398	-0.022630498
169	0x3f0d3828	0.5516381
170	0xbd3599ad	-0.04433601
171	0x3c1ed17b	0.009693499
172	0xbcbab25d	-0.022790128
173	0xbf3d40ab	-0.739268
174	0xbb1f2bd2	-0.0024287594
175	0xbc728355	-0.01480182
176	0xc0435fe8	-3.0527287
177	0x3cec3fa2	0.028838936
178	0xbd4f8afa	-0.050669648
179	0xbdcc367c	-0.099713296
180	0xbc77e52b	-0.0151303215
181	0x3d815719	0.06315441
182	0xba97d775	-0.0011584597
183	0x3d616402	0.055027016
184	0xbcb14e41	-0.02164376
185	0x3fa73969	1.3064395
186	0x3ea48e38	0.32139754
187	0xbb0e8409	-0.002174618
188	0xbf319850	-0.69373035
189	0xbec05a2f	-0.37568805
190	0x3b91f38c	0.004454082
191	0x3f51dea5	0.81980354

final.linears.2.bias f4 [4]
0	0x3ec28819	0.3799446
1	0xbeed793b	-0.46381554
2	0x3e250e19	0.16118659
3	0x3d7962e6	0.060885333

layers.0.attn.0.gnn_q.weight f4 [4, 10]
0	0x80049af1	-4.22924e-40
1	0x000134e9	1.10816e-40
2	0x001beaaf	2.563747e-39
3	0x00059fea	5.16544e-40
4	0x00072088	6.54518e-40
5	0x00130e29	1.749954e-39
6	0x001e6088	2.789694e-39
7	0x8021fae6	-3.120577e-39
8	0x001329c8	1.759863e-39
9	0x001eab02	2.816411e-39
10	0x800d5722	-1.225119e-39
11	0x8013016a	-1.745382e-39
12	0x0022a51b	3.181636e-39
13	0x8014eca1	-1.921596e-39
14	0x000a63d3	9.54165e-40
15	0x80065507	-5.81515e-40
16	0x80024509	-2.08436e-40
17	0x80229d48	-3.178829e-39
18	0x8009ecec	-9.11511e-40
19	0x000dc86f	1.265763e-39
20	0x800150bc	-1.20798e-40
21	0x00072054	6.54446e-40
22	0x0018a688	2.263792e-39
23	0x002a7cb9	3.901833e-39
24	0x0012fc0d	1.743458e-39
25	0x800e3ae8	-1.306829e-39
26	0x0006df06	6.31019e-40
27	0x0014d273	1.912205e-39
28	0x800a519c	-9.47631e-40
29	0x801e566a	-2.786064e-39
30	0x8012f849	-1.742107e-39
31	0x8010581a	-1.500973e-39
32	0x000526eb	4.73139e-40
33	0x0006fad4	6.40993e-40
34	0x000dc75e	1.265381e-39
35	0x002308bc	3.217376e-39
36	0x0005aae8	5.20487e-40
37	0x001be526	2.561761e-39
38	0x0000160c	7.909e-42
39	0x001e860b	2.80315e-39

layers.0.attn.0.gnn_q.bias f4 [10]
0	0x800e3611	-1.305092e-39
1	0x00009bdb	5.591e-41
2	0x0013864d	1.793052e-39
3	0x800a5b38	-9.51078e-40
4	0x0005a6fb	5.19079e-40
5	0x8012feb6	-1.744412e-39
6	0x0009f643	9.14862e-40
7	0x8000a678	-5.9718e-41
8	0x0006d6d4	6.28079e-40
9	0x0018a441	2.262975e-39

layers.0.attn.0.gnn_k.weight f4 [4, 10]
0	0x000e72c5	1.326868e-39
1	0x800e3ac9	-1.306785e-39
2	0x00268d55	3.540449e-39
3	0x0011baea	1.628256e-39
4	0x800aad8e	-9.80615e-40
5	0x0012fff8	1.744863e-39
6	0x800a9df4	-9.75018e-40
7	0x80009ebd	-5.6945e-41
8	0x00009c71	5.612e-41
9	0x8009f0ee	-9.12949e-40
10	0x801a42c2	-2.411671e-39
11	0x00044914	3.93557e-40
12	0x000621fa	5.63201e-40
13	0x0019b390	2.360302e-39
14	0x000dc224	1.263506e-39
15	0x0014e75d	1.919707e-39
16	0x801313cc	-1.751976e-39
17	0x800e2e5f	-1.302332e-39
18	0x80130a37	-1.748539e-39
19	0x801ec9d7	-2.827471e-39
20	0x8018a352	-2.26264e-39
21	0x00017a8a	1.35794e-40
22	0x001a410c	2.411057e-39
23	0x800a597c	-9.50456e-40
24	0x000e6188	1.320685e-39
25	0x80217138	-3.071187e-39
26	0x00049203	4.19721e-40
27	0x800a791a	-9.61798e-40
28	0x801e7dfe	-2.800262e-39
29	0x0016edf9	2.10575e-39
30	0x8006cb9b	-6.24053e-40
31	0x80000506	-1.802e-42
32	0x800bee9f	-1.095792e-39
33	0x8005aa7e	-5.20339e-40
34	0x000e6883	1.323189e-39
35	0x001fa186	2.904844e-39
36	0x8018a13a	-2.261889e-39
37	0x00189bbd	2.25992e-39
38	0x8005a6e7	-5.19051e-40
39	0x8010a9ad	-1.530236e-39

layers.0.attn.0.gnn_k.bias f4 [10]
0	0x00189e6f	2.260887e-39
1	0x801e7f72	-2.800784e-39
2	0x8001079a	-9.4562e-41
3	0x000c7321	1.143326e-39
4	0x0022a26a	3.18067e-39
5	0x000ed76c	1.362976e-39
6	0x0018a0c4	2.261724e-39
7	0x00189caf	2.26026e-39
8	0x00071ce0	6.53207e-40
9	0x00061aca	5.60623e-40

layers.0.attn.0.gnn_v.weight f4 [4, 10]
0	0xbf0807ab	-0.531367
1	0xbdfd36ef	-0.123639934
2	0xbee4f75e	-0.44719976
3	0x3eee4ffa	0.46545392
4	0x3d405504	0.046956077
5	0x3ed29fe1	0.41137603
6	0x3e9038a5	0.28168216
7	0x3f0b0e8e	0.54319084
8	0x3f23fecb	0.6406066
9	0xbeba1436	-0.36343545
10	0xbeca3d39	-0.39499834
11	0xbde8fc6c	-0.11376271
12	0xbe42f17d	-0.19037433
13	0x3f76b253	0.9636585
14	0x3f3b4155	0.73146564
15	0x3cef089e	0.029178914
16	0x3f3360dc	0.7006967
17	0xbe886a3e	-0.26643556
18	0xbf3019b9	-0.6878925
19	0x3d0062cd	0.031344224
20	0x3ded40fd	0.11584661
21	0xbe4c70a4	-0.19964844
22	0xbe063fce	-0.13110277
23	0xbeda6c48	-0.42660737
24	0x3f416a23	0.75552577
25	0x3ea111ae	0.314588
26	0x3f110091	0.5664149
27	0xbf28e7ee	-0.65978897
28	0x3f2e4af4	0.6808312
29	0xbf1852cf	-0.59501356
30	0xbefd73f8	-0.4950254
31	0x3f8cbab7	1.0994481
32	0xbe7f43a4	-0.24928147
33	0x3ef21c90	0.47287416
34	0xbe147785	-0.14498718
35	0x3f0452f6	0.5168909
36	0xbf56b2f4	-0.8386681
37	0xbf8b49b9	-1.0881873
38	0x3e77b930	0.24191737
39	0x3c2a2883	0.010385635

layers.0.attn.0.gnn_v.bias f4 [10]
0	0x3ed57028	0.4168713
1	0x3e00b0f9	0.1256751
2	0x3ebdddb1	0.370832
3	0xbeb90748	-0.36138368
4	0xbdf1c46d	-0.11805043
5	0xbeb30014	-0.34960997
6	0xbe9794f8	-0.29605842
7	0xbea8ada8	-0.3294499
8	0xbef87b6a	-0.48531657
9	0x3eacac7d	0.33725348

layers.0.attn.1.gnn_q.weight f4 [4, 10]
0	0x801308c9	-1.748026e-39
1	0x80269a39	-3.545074e-39
2	0x800611f9	-5.5746e-40
3	0x80048f0a	-4.18655e-40
4	0x000e62c5	1.321129e-39
5	0x800a250c	-9.31645e-40
6	0x00048175	4.13782e-40
7	0x0006f852	6.40094e-40
8	0x000108d1	9.4998e-41
9	0x8000cfbc	-7.4521e-41
10	0x800ad550	-9.94877e-40
11	0x00063fde	5.73924e-40
12	0x8016bfb9	-2.089158e-39
13	0x000e395d	1.306275e-39
14	0x80103f6d	-1.492121e-39
15	0x800e6441	-1.321661e-39
16	0x0011b6d4	1.62679e-39
17	0x800d8123	-1.240187e-39
18	0x000f48c8	1.403641e-39
19	0x8018a769	-2.264107e-39
20	0x8006b2a6	-6.151e-40
21	0x802694d2	-3.543136e-39
22	0x800bdb06	-1.088761e-39
23	0x8006af10	-6.13814e-40
24	0x001be91a	2.56318e-39
25	0x8026b86f	-3.555911e-39
26	0x801a2229	-2.399977e-39
27	0x000084e5	4.7674e-41
28	0x00000913	3.255e-42
29	0x800dcaea	-1.266653e-39
30	0x800ca391	-1.160703e-39
31	0x001371fe	1.785767e-39
32	0x800833b2	-7.53229e-40
33	0x8001513c	-1.20977e-40
34	0x800f3a6d	-1.398492e-39
35	0x80044e31	-3.95392e-40
36	0x80043ccf	-3.89156e-40
37	0x8006f5ed	-6.39235e-40
38	0x001893ff	2.257143e-39
39	0x0012fc6a	1.743588e-39

layers.0.attn.1.gnn_q.bias f4 [10]
0	0x801309f1	-1.748441e-39
1	0x8014e7c4	-1.919852e-39
2	0x0018a2fd	2.262521e-39
3	0x802ac01e	-3.92601e-39
4	0x80058441	-5.06621e-40
5	0x000a2426	9.31323e-40
6	0x800bcd6b	-1.08388e-39
7	0x800d5844	-1.225525e-39
8	0x801e7c53	-2.799664e-39
9	0x8006e215	-6.32116e-40

layers.0.attn.1.gnn_k.weight f4 [4, 10]
0	0x800e6bba	-1.324342e-39
1	0x000e064d	1.287957e-39
2	0x000a5d49	9.5182e-40
3	0x800177aa	-1.34763e-40
4	0x8018a6fb	-2.263953e-39
5	0x00045399	3.97331e-40
6	0x001b6b00	2.517943e-39
7	0x800f493c	-1.403804e-39
8	0x001c1a70	2.580878e-39
9	0x8022cc19	-3.195623e-39
10	0x800ebd34	-1.35357e-39
11	0x0005102d	4.6498e-40
12	0x8009f264	-9.13473e-40
13	0x8001220a	-1.04046e-40
14	0x00001229	6.515e-42
15	0x0004902c	4.19061e-40
16	0x80017785	-1.34711e-40
17	0x800f0c54	-1.381955e-39
18	0x800610d6	-5.57053e-40
19	0x800f3f04	-1.400138e-39
20	0x80012619	-1.05502e-40
21	0x8018a641	-2.263693e-39
22	0x000449a6	3.93762e-40
23	0x001be3be	2.561257e-39
24	0x00131c29	1.754976e-39
25	0x8009f5bf	-9.14677e-40
26	0x001e85c1	2.803047e-39
27	0x800e99ea	-1.340911e-39
28	0x002a421e	3.880809e-39
29	0x000098b9	5.4787e-41
30	0x000e6ad1	1.324015e-39
31	0x8012f76a	-1.741794e-39
32	0x001eb70d	2.820731e-39
33	0x80061b9d	-5.60919e-40
34	0x801c605f	-2.605965e-39
35	0x80000720	-2.556e-42
36	0x80015be9	-1.24807e-40
37	0x001c18a3	2.580232e-39
38	0x800a3344	-9.36746e-40
39	0x802ac329	-3.927101e-39

layers.0.attn.1.gnn_k.bias f4 [10]
0	0x8006a52f	-6.1027e-40
1	0x80012422	-1.04798e-40
2	0x0016c5a8	2.091287e-39
3	0x8000cfd4	-7.4555e-41
4	0x8000c7f9	-7.1737e-41
5	0x000a5a80	9.5082e-40
6	0x8006d847	-6.28599e-40
7	0x00109868	1.524041e-39
8	0x802a5561	-3.887719e-39
9	0x0011b154	1.624817e-39

layers.0.attn.1.gnn_v.weight f4 [4, 10]
0	0x39e17555	0.00043002763
1	0xbe23131b	-0.15925257
2	0x3a6ee04d	0.0009112403
3	0xb996b040	-0.00028741546
4	0x3f01995a	0.5062462
5	0x3e2168d7	0.1576265
6	0xbe1b9ef1	-0.1519735
7	0x3d6934b0	0.056935012
8	0xb781e601	-1.5485102e-05
9	0x38592edb	5.178047e-05
10	0x39de2c1a	0.00042375998
11	0xbf0ced8e	-0.5504998
12	0x3a2fdd9b	0.0006708742
13	0xbb11513b	-0.0022173661
14	0xb845bfe1	-4.714716e-05
15	0xbea8ef3d	-0.32995024
16	0xbdf1b5ea	-0.118022755
17	0x3dfa1c55	0.12212435
18	0x394b4a8c	0.0001938736
19	0xb905c720	-0.00012758048
20	0x3a1ad27b	0.0005905998
21	0xbeba82a5	-0.364278
22	0x3a4c712e	0.00077988475
23	0xba7a7d1e	-0.0009555387
24	0x3c8b04d9	0.016970085
25	0xbe8e62e6	-0.2780983
26	0xbe1d7d75	-0.1537989
27	0xbf0216f5	-0.5081628
28	0x39b34aeb	0.0003419736
29	0x38cc1549	9.731443e-05
30	0xb8f03412	-0.00011453791
31	0xbf1eecdb	-0.6208016
32	0xbb47053d	-0.0030368112
33	0x3c53b2aa	0.012921015
34	0xbecd836c	-0.4013933
35	0x3f742906	0.95375097
36	0x3e376a09	0.17911543
37	0xbe29b538	-0.16573036
38	0xbb22cec3	-0.0024842478
39	0xba81d0ae	-0.000990411

layers.0.attn.1.gnn_v.bias f4 [10]
0	0xb9fd4feb	-0.00048315464
1	0x3e698ff4	0.2280882
2	0xba702bb0	-0.00091617834
3	0x3a1f6123	0.0006079843
4	0xbeb7b919	-0.35883406
5	0xbd1a81e6	-0.037721537
6	0x3e161e56	0.1466001
7	0x3c8872a8	0.016656235
8	0xb994ea86	-0.00028403493
9	0xb87c4e9c	-6.0154693e-05

layers.0.attn.2.gnn_q.weight f4 [4, 10]
0	0x0006ac34	6.12788e-40
1	0x000197f4	1.46346e-40
2	0x8005c2b3	-5.29022e-40
3	0x8003484a	-3.01439e-40
4	0x000008ee	3.203e-42
5	0x80031dad	-2.86152e-40
6	0x8000c098	-6.909e-41
7	0x000aefde	1.004403e-39
8	0x800c48bd	-1.12812e-39
9	0x0000e0ad	8.0598e-41
10	0x00003780	1.991e-41
11	0x80004cbe	-2.753e-41
12	0x80062f7b	-5.68046e-40
13	0x0008dfbf	8.14949e-40
14	0x8000e311	-8.1456e-41
15	0x00094de7	8.54466e-40
16	0x8001cd7e	-1.65552e-40
17	0x00042ca1	3.83352e-40
18	0x000b50f7	1.039235e-39
19	0x80050069	-4.59325e-40
20	0x8005aaa0	-5.20386e-40
21	0x800706af	-6.45246e-40
22	0x80099205	-8.78901e-40
23	0x80051c2e	-4.69286e-40
24	0x001619f1	2.029687e-39
25	0x8009fed2	-9.17932e-40
26	0x8004a245	-4.25553e-40
27	0x000390d5	3.27462e-40
28	0x8008ba49	-8.0151e-40
29	0x80059ae4	-5.14742e-40
30	0x000ca759	1.162059e-39
31	0x000a5f48	9.52535e-40
32	0x0002f428	2.71258e-40
33	0x800fa6de	-1.437393e-39
34	0x000166a4	1.28656e-40
35	0x8002004b	-1.83776e-40
36	0x800467ec	-4.04622e-40
37	0x800887c2	-7.83385e-40
38	0x00009848	5.4628e-41
39	0x0001c994	1.64148e-40

layers.0.attn.2.gnn_q.bias f4 [10]
0	0x0003c6bc	3.46799e-40
1	0x000cfd1a	1.192822e-39
2	0x800182c0	-1.3874e-40
3	0x80049702	-4.21513e-40
4	0x8004d2d6	-4.42976e-40
5	0x00031b45	2.85289e-40
6	0x8001e19a	-1.72766e-40
7	0x00000429	1.492e-42
8	0x000616db	5.59212e-40
9	0x000559a9	4.91341e-40

layers.0.attn.2.gnn_k.weight f4 [4, 10]
0	0x000d3818	1.213984e-39
1	0x0009376f	8.46405e-40
2	0x800d53e3	-1.223954e-39
3	0x8000ecbe	-8.4927e-41
4	0x00085fef	7.69098e-40
5	0x80031b01	-2.85194e-40
6	0x8003d55b	-3.52044e-40
7	0x00058f1a	5.10513e-40
8	0x0004e2dc	4.48724e-40
9	0x8009e455	-9.0843e-40
10	0x800187ae	-1.40508e-40
11	0x800419e4	-3.7663e-40
12	0x800df5ca	-1.282034e-39
13	0x80013daa	-1.13956e-40
14	0x000493e1	4.20391e-40
15	0x0004fcc1	4.58013e-40
16	0x0000e4e1	8.2106e-41
17	0x0002d12d	2.58709e-40
18	0x000dcb21	1.26673e-39
19	0x8002dad2	-2.62169e-40
20	0x000489a1	4.16714e-40
21	0x800c279f	-1.11624e-39
22	0x8009c7bf	-8.98175e-40
23	0x00080272	7.35561e-40
24	0x800588a8	-5.082e-40
25	0x800a9ac3	-9.73873e-40
26	0x000497a6	4.21743e-40
27	0x0002849c	2.31242e-40
28	0x000123b3	1.04642e-40
29	0x80004432	-2.4464e-41
30	0x00056233	4.94405e-40
31	0x8014a225	-1.894876e-39
32	0x000bd752	1.087433e-39
33	0x800bef16	-1.095958e-39
34	0x0003ab85	3.37036e-40
35	0x80056948	-4.96945e-40
36	0x8009beb3	-8.9493e-40
37	0x80066c96	-5.89966e-40
38	0x0004d892	4.45033e-40
39	0x80045e2a	-4.01122e-40

layers.0.attn.2.gnn_k.bias f4 [10]
0	0x000542c1	4.83124e-40
1	0x0013fdfd	1.835988e-39
2	0x800bc827	-1.081992e-39
3	0x8008e227	-8.15812e-40
4	0x801117b6	-1.56971e-39
5	0x00018999	1.41196e-40
6	0x8006439b	-5.75265e-40
7	0x0007675f	6.79931e-40
8	0x0002daa4	2.62104e-40
9	0x8009360b	-8.45906e-40

layers.0.attn.2.gnn_v.weight f4 [4, 10]
0	0x39b40209	0.00034333792
1	0xb88f04ce	-6.819666e-05
2	0x3abb5473	0.0014292136
3	0xb9cac9a5	-0.0003867868
4	0x3e4a2e92	0.19744328
5	0xb857af58	-5.1423296e-05
6	0x3d16968c	0.036764666
7	0xbdb40293	-0.087895535
8	0xbdcff136	-0.10153429
9	0x38ca74fc	9.6539006e-05
10	0x3ace4d2c	0.0015739552
11	0x39b62bdf	0.00034746432
12	0xba8c29da	-0.0010693625
13	0xba2a94c0	-0.0006507151
14	0xbd83f56b	-0.06443294
15	0x39e5d7f9	0.00043839196
16	0x3e6c10fb	0.23053353
17	0xbbadeb39	-0.0053075817
18	0xbe8678e5	-0.2626411
19	0xb8f31e12	-0.00011592744
20	0xb9c5752c	-0.00037662068
21	0xba2f4b15	-0.00066869083
22	0x3ad3c036	0.0016155306
23	0xb80dfcc9	-3.3852444e-05
24	0xbcb0a3e3	-0.021562522
25	0x3aa886f4	0.0012857602
26	0xbe6322b3	-0.22181205
27	0xbd038252	-0.032106705
28	0xbe88ff41	-0.26757243
29	0x3a146d08	0.0005661999
30	0xbab81fcf	-0.0014047566
31	0xbb187976	-0.0023265756
32	0x3c26f406	0.010190016
33	0x39a5bc68	0.00031611626
34	0x3e7b389a	0.2453331
35	0x3b3b7a72	0.0028606919
36	0xbd279a6b	-0.04091875
37	0x3f0ed65c	0.55795836
38	0xbe017e8c	-0.1264593
39	0x3b05fd6b	0.0020445238

layers.0.attn.2.gnn_v.bias f4 [10]
0	0xb9fb9bdb	-0.00047990572
1	0xb8ac4ee1	-8.2162915e-05
2	0x36e6c4b0	6.8774316e-06
3	0x39c3f010	0.0003737216
4	0xbe0e35c6	-0.138877
5	0xb8aba4ee	-8.184636e-05
6	0xbcb1f308	-0.021722332
7	0x3d95172e	0.07279812
8	0x3e0e1bee	0.13877842
9	0xb87e667d	-6.065377e-05

layers.0.attn.3.gnn_q.weight f4 [4, 10]
0	0x3c70d81f	0.014699965
1	0xbd7eed24	-0.062237874
2	0xbca0bc85	-0.019621143
3	0xbb21eca9	-0.002470771
4	0xbc039e13	-0.008033293
5	0xbd8c4981	-0.06849957
6	0x3cf05537	0.029337509
7	0xbcf2e093	-0.029648101
8	0x3d796599	0.060887907
9	0xbcae86ab	-0.021304449
10	0xbd775f6b	-0.060393732
11	0xbd011642	-0.031515367
12	0x3cc8d939	0.024517642
13	0xbcb5b53c	-0.022181146
14	0x3cda8ea6	0.026679348
15	0xbcb7fc20	-0.02245909
16	0xbc9f0a4d	-0.019414091
17	0x3d110a06	0.03540995
18	0xbce3fcee	-0.027830567
19	0xbb449656	-0.0029996834
20	0xbc5c3258	-0.013439737
21	0x3cc74c38	0.024328336
22	0x3bf4eb7a	0.00747436
23	0xbd885f25	-0.066587724
24	0x3cc13351	0.02358404
25	0x3cd80aaa	0.026372273
26	0xbd018d90	-0.031629145
27	0x3cb79b73	0.022412991
28	0xbc72f048	-0.014827795
29	0xbcb060c1	-0.02153051
30	0x3cb181a2	0.021668259
31	0xbc190421	-0.009339363
32	0x3ca979b5	0.020687917
33	0xbd05f68e	-0.032705836
34	0x3cc8229b	0.024430564
35	0x3c021f3d	0.007942018
36	0xbca39955	-0.019970575
37	0x3ce9c9f2	0.028538678
38	0x3c35d26c	0.011097532
39	0x3cfcf951	0.030880602

layers.0.attn.3.gnn_q.bias f4 [10]
0	0xbbf1ba08	-0.007376913
1	0x3c763bec	0.015028935
2	0x3c244d6e	0.010028226
3	0xbbf418a2	-0.0074492255
4	0x3be8b9a1	0.007102207
5	0x3caa6de0	0.020804346
6	0xbc3e6746	-0.011621302
7	0x3c80b81e	0.015712794
8	0xbc3a94a0	-0.011387974
9	0xbb5fb3df	-0.003413431

layers.0.attn.3.gnn_k.weight f4 [4, 10]
0	0x3a2745e1	0.0006380957
1	0x3d7a523c	0.06111358
2	0x3d1729c3	0.03690506
3	0xbd0e3026	-0.034713887
4	0x3c4a67f6	0.012353888
5	0x3da004ae	0.078133926
6	0xbd06d852	-0.032921143
7	0x3d3d7dcf	0.04626256
8	0xbd5b64aa	-0.053562798
9	0x3b134209	0.002246978
10	0x3c840969	0.016117768
11	0xbc8c89bd	-0.017155522
12	0x3c00d35f	0.007862895
13	0xbd498faf	-0.049209293
14	0xbc5ace06	-0.013354784
15	0x3bd0f88e	0.0063772863
16	0x3c869c3c	0.01643192
17	0x3b076068	0.0020656828
18	0xbd254f78	-0.04035899
19	0x3cd350ac	0.025795303
20	0x3d6961c2	0.056977995
21	0x3c72762d	0.014798683
22	0xbc35512f	-0.011066719
23	0x3c2a691e	0.010401038
24	0xbca3d6c5	-0.019999871
25	0xbb952446	-0.0045514433
26	0x3cc266af	0.023730604
27	0xbd182c5c	-0.03715168
28	0x3cb05b59	0.021527933
29	0x3ce5d540	0.028055787
30	0xbc411f10	-0.011787191
31	0x3b0e7af2	0.0021740762
32	0x3c22ea68	0.009943582
33	0xbc629626	-0.0138297435
34	0xbcba21ac	-0.022721134
35	0xbc936dcc	-0.017996691
36	0x3d1c87b4	0.038215354
37	0xbd3ca3a2	-0.04605449
38	0xbd1a6091	-0.03768975
39	0xbcedb8b3	-0.029018736

layers.0.attn.3.gnn_k.bias f4 [10]
0	0x3bc8aea2	0.0061243335
1	0xbc51f69e	-0.012815146
2	0xbc0818f1	-0.008306728
3	0x3c366ff8	0.011135094
4	0xbc05bdd0	-0.008162931
5	0xbc97f56a	-0.01854964
6	0x3c4b53a0	0.0124100745
7	0xbc495eb8	-0.012290649
8	0x3c96504a	0.018348832
9	0xbc0a94a4	-0.00845829

layers.0.attn.3.gnn_v.weight f4 [4, 10]
0	0xbbb62fc0	-0.0055598915
1	0x3b0e8884	0.002174885
2	0xbbff61c2	-0.007793636
3	0xbbf5dda8	-0.00750323
4	0xba259c6a	-0.0006317558
5	0xbb42b8c2	-0.0029712175
6	0xbb351643	-0.0027631677
7	0x3d6caa7d	0.057779778
8	0xbab518a9	-0.0013816553
9	0xbc9c2a52	-0.019063149
10	0xbc8d4577	-0.017245037
11	0x3c241857	0.010015569
12	0x3d40ccf7	0.04707047
13	0x3bf252a6	0.0073951064
14	0x3ba5d993	0.0050613373
15	0x39ea7432	0.0004471853
16	0xbc2370fc	-0.009975668
17	0x3d8fbac4	0.070180446
18	0xbb63e704	-0.0034775147
19	0x3c5ae701	0.01336074
20	0xbc655d31	-0.013999269
21	0xbc5518cb	-0.013006399
22	0xbcd77f2c	-0.026305757
23	0x3c013ed4	0.007888515
24	0x3c634a70	0.013872728
25	0xbcadcf43	-0.021216994
26	0xbc4b7bfa	-0.012419695
27	0x3cc6bbc6	0.02425946
28	0xbb9d4d44	-0.0048004705
29	0x3dabbf5c	0.08386108
30	0xbcc39ece	-0.023879435
31	0x3c5302ca	0.012879083
32	0xbc1c0b10	-0.009524122
33	0x3e24e4d9	0.16102923
34	0x3a6e7b2e	0.00090973347
35	0xbbd67464	-0.0065446366
36	0xbc2faa18	-0.010721706
37	0x3ce8550f	0.028360872
38	0xbc0844cb	-0.008317183
39	0xbcf0bf35	-0.02938805

layers.0.attn.3.gnn_v.bias f4 [10]
0	0x39c88c2c	0.0003825141
1	0xbacb1d17	-0.001549634
2	0x3bb319bf	0.0054657157
3	0x398731ba	0.00025786256
4	0x3aecb66b	0.0018059736
5	0xbabc3327	-0.0014358506
6	0xba84d94f	-0.0010135564
7	0xbd1ab9fd	-0.03777503
8	0xb911adac	-0.00013892975
9	0x3b8fc907	0.004387978

layers.0.mlp.linears.0.weight f4 [16, 8]
0	0x0004722f	4.08303e-40
1	0x0014dbe3	1.91559e-39
2	0x8007de13	-7.22514e-40
3	0xbd324e9e	-0.043532006
4	0xbe9b5e80	-0.30345535
5	0xbe9f2e98	-0.31090236
6	0xbe3804ab	-0.1797053
7	0xbd1f0375	-0.038821656
8	0x802a6f3a	-3.896991e-39
9	0x800d7e22	-1.23911e-39
10	0x00086dce	7.74074e-40
11	0xbd9e1b04	-0.077199966
12	0x3e2c91fe	0.16852567
13	0xbf6df1b0	-0.9294691
14	0xbd8f03c9	-0.06983144
15	0x3da366b7	0.07978576
16	0x0019b632	2.361247e-39
17	0x80042eb7	-3.841e-40
18	0x80119451	-1.61441e-39
19	0xbb435e94	-0.0029811012
20	0xbae3775d	-0.0017354299
21	0xbc02bbc2	-0.007979335
22	0x3977abaa	0.00023619705
23	0x3a2c7249	0.0006578309
24	0x00007673	4.2492e-41
25	0x00053a74	4.80147e-40
26	0x80016d6a	-1.31086e-40
27	0xbc0ce910	-0.008600488
28	0xbe602c46	-0.21891889
29	0x3d225a44	0.039636865
30	0x3d01869c	0.031622514
31	0x3a91a6b9	0.0011112309
32	0x800b7eb5	-1.055644e-39
33	0x800e3a0f	-1.306524e-39
34	0x000d2640	1.207583e-39
35	0x3da32e8a	0.07967861
36	0x3eb3d750	0.35125208
37	0x3ee47bb7	0.44625637
38	0xbd852cf9	-0.065027185
39	0xbd559e88	-0.05215314
40	0x0011b100	1.624699e-39
41	0x000ad93a	9.96281e-40
42	0x8004291d	-3.8209e-40
43	0xbd82849d	-0.0637295
44	0x3ec90b35	0.39266363
45	0x3ec107c2	0.3770123
46	0x3e5d112e	0.21588585
47	0xbc500f89	-0.012699016
48	0x802a71e1	-3.897943e-39
49	0x00045695	3.98402e-40
50	0x8008c6f2	-8.06052e-40
51	0x3ca1e3bf	0.019761918
52	0xbd194d59	-0.03742728
53	0x3f0e06ed	0.5547932
54	0xbd8d87f8	-0.069106996
55	0x3d030f53	0.031997036
56	0x80048c1d	-4.17605e-40
57	0x801c9834	-2.625994e-39
58	0x0000fc7d	9.0576e-41
59	0xbd20eb41	-0.039286856
60	0xbbe5fb67	-0.007018495
61	0xbcb71952	-0.02235094
62	0xbe1501d9	-0.14551486
63	0x3bc3f6f5	0.0059803673
64	0x001f620b	2.882072e-39
65	0x000cb9a6	1.168624e-39
66	0x800a850a	-9.6608e-40
67	0xbc71d3af	-0.014759942
68	0xbfb79a29	-1.4343921
69	0x3e6569c2	0.22403625
70	0x3df42656	0.119213745
71	0x3add3c0f	0.0016878861
72	0x00008130	4.6344e-41
73	0x801eb726	-2.820766e-39
74	0x0007a949	7.03577e-40
75	0x3d149293	0.036272597
76	0xc006be84	-2.1053782
77	0x3d40e62f	0.04709452
78	0x3d17246c	0.03689997
79	0xba65ec36	-0.0008770855
80	0x000f4ba8	1.404673e-39
81	0x80070169	-6.43354e-40
82	0x00067aa5	5.9501e-40
83	0x3ce5e9f0	0.028065652
84	0x3fdf1c30	1.7430477
85	0xbe1e824a	-0.15479389
86	0xbd27b811	-0.040947024
87	0x3b2ff46f	0.0026848575
88	0x00131a72	1.754361e-39
89	0x8012fa7e	-1.742899e-39
90	0x0002c681	2.54881e-40
91	0xba96323a	-0.001145906
92	0xbf9199af	-1.1375026
93	0xbdd7bb60	-0.10533786
94	0xbd8f303a	-0.0699162
95	0x3ba1bb6c	0.0049356725
96	0x800159f3	-1.24103e-40
97	0x800d55a7	-1.224588e-39
98	0x000668f9	5.8867e-40
99	0xbd12d90a	-0.035851516
100	0x4001b030	2.0263786
101	0x3d645dcf	0.055753525
102	0xbc17d1db	-0.009266342
103	0xbbadb9ed	-0.005301705
104	0x000d127f	1.200497e-39
105	0x0014ea91	1.920856e-39
106	0x0000b5d8	6.5233e-41
107	0xbba6ee21	-0.005094305
108	0xbf06f69f	-0.52720064
109	0xbe92ca96	-0.28670186
110	0xbd455296	-0.048174463
111	0x3d1416d3	0.03615458
112	0x80011e9e	-1.02819e-40
113	0x8013761f	-1.787248e-39
114	0x00121b10	1.662747e-39
115	0x3d8fa7cc	0.070144266
116	0xbf19d3b6	-0.6008867
117	0xbe0e4a23	-0.13895468
118	0x3d9dfade	0.07713865
119	0xbcf0ea67	-0.029408647
120	0x00137d86	1.789904e-39
121	0x0019ab58	2.357354e-39
122	0x80051578	-4.66879e-40
123	0x3db468da	0.08809061
124	0x3f9f2139	1.2432014
125	0x3df846a2	0.12122847
126	0x3d512397	0.05105933
127	0x3c7844a6	0.015153086

layers.0.mlp.linears.0.bias f4 [16]
0	0x3ce03fa6	0.0273741
1	0x3e885bca	0.2663253
2	0x3ae26293	0.0017271809
3	0xbd214847	-0.03937557
4	0x3df60bec	0.12013993
5	0xbf3d59cb	-0.7396514
6	0xbe7e9e3d	-0.2486505
7	0x3ed82379	0.42214563
8	0x3f813358	1.0093794
9	0xbebf841f	-0.37405488
10	0xbe326de2	-0.1742473
11	0xbecd1f2b	-0.40062842
12	0xbf4116ec	-0.754256
13	0xbe16cdda	-0.14726964
14	0x3e738a67	0.23783265
15	0xbf00ee7c	-0.503639
