checkpoints/QM9/gdss_qm9_retrained.pth (torch, 360983 bytes, 306 tensors)

layers.0.weight f4 [4, 16]
00000000: 44d7 693e 5b52 b63e a637 24bf 824e 6c3f
00000010: 4776 d73c 4864 0c3d 5b22 823e fafe a73e
00000020: 63a6 da3f a25b de3e 1fc3 ad3e 8794 9abc
00000030: 8414 8bbd 0125 893f aaaf e93e 6221 993e
00000040: b865 743e 4d71 cf3e 5075 a1bf 1d43 79c0
00000050: 41d5 9dbc 1820 f03a d247 7f3e 7489 0a3f
00000060: 6ce2 d73f 247f 5cc0 b78b c73e a7c2 f53c
00000070: 6902 e8bc 214b 723e 8fa1 d43e 1b30 743e
00000080: 2ecb 7f40 c42b d43e ea16 8fbe 0412 4c3f
00000090: d9ba 313d 3d1a bfbc d171 453a 05d4 a03f
000000a0: 2341 c23f 0b9d ba3e 44ed 923e a29a 4bbd
000000b0: 9bd0 9fbd 7aa4 db3e ab7f 77c0 65a9 503e
000000c0: de51 44bd 3370 54be 45b4 b7be b856 6c3d
000000d0: f057 9f40 0a9c 583c 662d b3bf 0ac6 58bd
000000e0: dfa1 993e 96d6 c03c 0536 da3d be2d b8bf
000000f0: 970c 8b3f 6301 573e 5c95 2a3d 4b74 99c0
0.22836024 0.35609707 -0.6414741 0.92307293 0.026301516 0.034275323 0.25416836 0.3281172
1.7082027 0.43429285 0.33937928 -0.018869651 -0.067910224 1.0714418 0.45641834 0.29908282
0.23866928 0.4051613 -1.2613926 -3.8947213 -0.019266726 0.0018320112 0.24929741 0.54115987
1.6865973 -3.44526 0.3897378 0.030000044 -0.028321462 0.23661472 0.4152951 0.23846476
3.996776 0.4143964 -0.2794717 0.7971499 0.043391082 -0.023327941 0.00075319136 1.2564703
1.5176128 0.3644794 0.28696644 -0.049708016 -0.0780346 0.42898923 -3.8671672 0.20377119
-0.047929637 -0.20745926 -0.35879722 0.05769989 4.9794846 0.013220796 -1.399823 -0.05292324
0.3000631 0.023539823 0.10654835 -1.438896 1.0863217 0.20996623 0.041646346 -4.795446

layers.0.bias f4 [16]
00000000: dcec 943f 7135 903f f66d 8d3f 938c 67bf
00000010: 7391 ef3e 4c71 d93f 5790 3ebe a52c 80bf
00000020: 65ad 8dbf 79ab c5bf 6633 c0be 05d5 3ebf
00000030: d459 cbbe 1ade 8bbf 61a6 04bf c473 9f3d
1.1634784 1.1266309 1.1049182 -0.90448874 0.46790656 1.69877 -0.18609749 -1.0013624
-1.1068541 -1.5442954 -0.37539214 -0.7454379 -0.3971697 -1.0927155 -0.51816374 0.077857524

layers.1.weight f4 [16, 16]
00000000: 2def ccbe 6c5b 89bd e2b2 ba3e eb18 f23c
00000010: 6092 81c0 23ca debd 8ad2 45bc 6f7e 17be
00000020: a734 3bbe 85ef 0d3f aeba eabe ccef 623e
00000030: b6e8 813d 0e8e 173f 5374 a63d 914e 03be
00000040: e13a efbd 0aee 7e3f 4107 60bf 5993 a83f
00000050: 0495 a33f a71a 42bf a7b7 4f3e 75b1 97bf
00000060: 148f 0d3f 6021 bcbe f1cc 3bbf 77ad e73e
00000070: 41a3 cdbe dcac 8a3f 78be ee3e c150 d83d
00000080: e3c3 0a3e 3d26 a9bf 96a2 44bd 8d5e 07bf
00000090: 25af 33be 8bb3 a9bd c48b 95bd 9bdc cdbd
000000a0: 680c 0cbf 9dc2 be3e 0692 5bbf 7acd fb3e
000000b0: 6894 cabe 1612 e8bc 75dd 353e d379 93be
000000c0: 4bfb 7c3f 1cf4 8abe 6f60 a9be c35e bf3c
000000d0: 9aec 4d3d 8b70 773d 2c38 80be eb4b 4abd
000000e0: 31fc e53e d09f df3e 5d0e a73b 4fc4 b0be
000000f0: bfb9 1a3f 6251 783e 7206 d93e 74ed 15be
00000100: f70e a53e 4381 f8bd 706b da3e 03b5 0a3f
00000110: 752c b7bc f853 1e40 58b9 0cbf 6906 07bf
00000120: 71b1 93bf 7f46 ab3c c5e8 f83e ac66 243f
00000130: 907e c6bd fd6e debe bbb6 143e 32c8 8cbf
00000140: 5528 02bf b9f1 823f 22d1 fbbe c626 9f3f
00000150: c430 ff3f 69d6 2dbf fdeb 853f c47d 4e3e
00000160: 48b1 743f c65d 88bf 5b50 093f 529e 183d
00000170: 422d 81bf d2ec af3f 3aff 97bf 0ead 1e3f
00000180: b6f7 6d3e edbe b13e c341 02c0 57cd 8ebe
00000190: 9978 36bd 1593 25bf 9937 6b3e a4f3 08bf
000001a0: ec38 87be badc 303d ea2a 8d3c 67b4 3a40
000001b0: 1a05 293e 9cf1 3dbd 1473 a7bd 0942 9bbf
000001c0: a299 dfbe 3197 8b3f 952f fbbe b7df 0a3f
000001d0: 3a2f a2be 0c92 7bbe 8802 033f 5d84 003e
000001e0: c960 bc3d 4d4a 21bc b9f5 083e 8a5a 773e
000001f0: 8856 6cbd 0dfe 93be acdf 41bd 49d1 c0bd
00000200: 7786 193e 6cdc 82bf 9cc5 d83e 0b59 34bf
00000210: c17e 80bd 8a78 aa3d f270 3ebf 63a5 f13d
00000220: f135 a63e e041 0340 c6a4 c4bb 6184 aa3d
00000230: ff15 05bf d69c 71bf 5032 6abf 2021 84be
00000240: 3274 36bf 605a 1f3e 1b0b 423f d06a 763d
00000250: 0d08 74be cd58 66bd 61a5 a63e 774f f53d
00000260: 3864 15be 6415 03be 79d8 a83d e300 563f
00000270: 8159 4fc0 9e75 0740 1ea1 90bd ad2b 623d
00000280: cea0 1b3e 08f2 c53f d2cc 173e 3866 523e
00000290: ffd2 abbe 7d7c 903b 385b 0c3f 96a6 cfbf
000002a0: 88c4 903e c359 10bf 320a bdbf b663 a7be
000002b0: 6a2c a03e c1cc adbe 58a6 2940 a750 dd3e
000002c0: 5e69 89be d055 08be 1825 efbf 1ce1 723f
000002d0: 7d90 cebe a422 bcbe 4e00 5fbf c6c9 e33e
000002e0: 6b6f 40bf fce9 1b3f a710 4a3f e4b4 1140
000002f0: b48d 1a3f 1e25 b73e 6516 e73e be85 81bf
00000300: 1027 8ebe c9ba 9dbe ebcc ac3f 736d 6fbf
00000310: 545d 34bf 3b4c 2c3f c7c3 703f 0e08 803e
00000320: c36f 8f3f 46de 823c 6cdb 143e ebad 0ec0
00000330: 35d6 8e3e 0b61 fbbe fe34 b53e 3a0d e63e
00000340: 75be dbbe 11ce e53f 1420 15bf eb6d 353e
00000350: 7b72 043e f26c 33be e032 aa3e df57 f4be
00000360: a5b9 02bf ca4a f8be 3b7f 1e3f 5560 5abf
00000370: dceb 31be 1155 8c3e d1ca dbbe 7320 173f
00000380: 040d d5be f3c5 76be b404 363e 82de b43d
00000390: 4c11 44be 3857 38bd 464e 3f3a 0e26 da3c
000003a0: fc1d 21be dbd0 283f 5715 27bf c89d c0bb
000003b0: 2a26 1fbe 6b07 44ba 8ac5 693e 1276 a4bd
000003c0: d5c3 843e 3ff2 7bbe 7b2c a73f 35e8 19bf
000003d0: 51fe fcbd 881f 453f fe7f 453f 0fe8 b5be
000003e0: 482d 32be 25bb 52be c5a1 633e f140 81bf
000003f0: 5f84 2fbe c6e2 2fbf 1d72 1a3e b807 e3bf
-0.40026227 -0.067068905 0.36464602 0.029552897 -4.049118 -0.10878398 -0.012074122 -0.14794324
-0.18281804 0.554436 -0.4584555 0.22161788 0.06343214 0.59201133 0.08127656 -0.1282294
-0.11681152 0.9958197 -0.8751107 1.3169967 1.2779851 -0.7582192 0.20284902 -1.185103
0.55296445 -0.36744213 -0.7335959 0.4524953 -0.40163615 1.0834002 0.4662969 0.105622776
0.13551287 -1.3214794 -0.048006617 -0.5287865 -0.17547281 -0.08286198 -0.07302049 -0.10051843
-0.5470643 0.37257853 -0.8576969 0.49180204 -0.3956635 -0.028328937 0.1776026 -0.28803882
0.9882094 -0.27139366 -0.33081385 0.023360616 0.05027447 0.060410064 -0.25042856 -0.049388807
0.4491897 0.43676615 0.005098148 -0.34524772 0.60439676 0.24249795 0.4238773 -0.14641362
0.3223798 -0.1213403 0.42660093 0.5418245 -0.022360066 2.473875 -0.5497031 -0.52744156
-1.1538526 0.020907639 0.4861509 0.64219165 -0.09692109 -0.43444052 0.14522831 -1.0998595
-0.5084279 1.0230018 -0.49182993 1.2433708 1.9936757 -0.6790529 1.0462643 0.20165163
0.9558301 -1.0653617 0.5363824 0.03726036 -1.0091937 1.3744147 -1.1874764 0.6198281
0.23239025 0.34715977 -2.0352638 -0.27891037 -0.044548605 -0.64677554 0.22970428 -0.53496766
-0.26410615 0.04317925 0.017232377 2.917261 0.16505852 -0.046372995 -0.08176246 -1.2129527
-0.436719 1.0905515 -0.4905974 0.5424761 -0.31676656 -0.24567431 0.5117574 0.12550493
0.09198148 -0.009844375 0.13374986 0.24155632 -0.05769971 -0.28904763 -0.04733245 -0.09414918
0.149927 -1.0223517 0.42338264 -0.7044837 -0.062741764 0.08323772 -0.7439109 0.11799123
0.3246303 2.0508957 -0.006001088 0.083260305 -0.5198669 -0.9437994 -0.9148302 -0.25806522
-0.7127105 0.15561819 0.75798196 0.060160458 -0.23831196 -0.05623703 0.3254805 0.11978047
-0.14589012 -0.12801129 0.08244414 0.83595103 -3.239838 2.1165538 -0.07061981 0.055217434
0.15198061 1.5464487 0.14824226 0.20546806 -0.33559415 0.0044093714 0.5482669 -1.6222713
0.2827494 -0.56386966 -1.4768736 -0.3269326 0.31283885 -0.33945277 2.6507778 0.43225595
-0.268382 -0.13313985 -1.8683195 0.9487474 -0.4034461 -0.3674518 -0.8710984 0.44489878
-0.7517001 0.60903907 0.7893166 2.2766657 0.6037247 0.35770506 0.45134273 -1.011894
-0.27764177 -0.30806568 1.3500036 -0.9352638 -0.7045491 0.6730382 0.9404873 0.25006145
1.1205982 0.015975129 0.14536828 -2.229365 0.27897802 -0.49097475 0.35391992 0.44931966
-0.42918745 1.7953511 -0.5825207 0.17717712 0.12934296 -0.17522028 0.3324194 -0.4772329
-0.5106452 -0.4849456 0.6191289 -0.8530324 -0.1737513 0.2740865 -0.42928174 0.5903389
-0.41611493 -0.24098949 0.17775232 0.088315025 -0.19147223 -0.045005053 0.00072977354 0.026629474
-0.15734094 0.6594369 -0.65266937 -0.005878184 -0.15541902 -0.0007477912 0.22829261 -0.080303326
0.25930658 -0.24604128 1.3060449 -0.60119945 -0.123531945 0.7700124 0.77148426 -0.3552861
-0.17400086 -0.20579202 0.22229679 -1.0097944 -0.1714034 -0.68705404 0.15082593 -1.773673

layers.1.bias f4 [16]
00000000: c1b1 acbe 1b86 303e e71d b4bd d72c 97bf
00000010: fde7 84bb c9b0 cfbe af2e cdbe ab16 c93f
00000020: 1646 52bf 6958 453e c8b2 8e3f d292 053e
00000030: 0bcf 04bf 5d54 943d 5a9d a63f 338f 0a3f
-0.33729365 0.17238657 -0.08794766 -1.1810559 -0.0040559755 -0.40564564 -0.4007468 1.5710043
-0.8213819 0.19272007 1.114831 0.13044289 -0.5187842 0.072426535 1.301677 0.54124755

final.linears.0.weight f4 [72, 36]
00000000: acef 0ebf 0c54 663e ec35 03bf dd11 b33e
00000010: 5511 3ebf 71f8 f73d bbf1 33bf 0482 843d
00000020: 2a8e 5fbc ff7c f03a a784 a93e e44e 983e
00000030: 7cf7 44be f22d 78bf 46a1 713d ceab 593e
00000040: e0e7 2ebe fba1 3ebe ece2 efbd 826a 093e
00000050: eb53 273e 7d8f dd3c 1552 473e e3bb f7be
00000060: 93e8 40bf 7c25 903d 5c29 6fbd b775 60be
00000070: 50a7 9cbe d959 0d3f b3b7 3dbd a61b dbbd
00000080: 6371 4bbf 30b7 b43e 43f6 823e c065 e5bd
00000090: 2b4f 633d ef00 7d3c 9b26 803d c6f6 a13f
000000a0: ff96 5b3c db7a b338 36f8 a43d 28ac 1f3e
000000b0: f94b d0be 39b0 84bd 2de5 963e 3d2d 9a3e
000000c0: 4f6f aa3c 671d d43c 4c0f c2bd 2fc5 013f
000000d0: 641a ae3d bdc7 0cbe a9eb c63d af0a e03e
000000e0: e7b6 2fbf f67d a03e 0c80 2dbe 2666 2b3f
000000f0: 8a6f 77bb d220 4ebf 9b22 dabe 7f79 7c3e
00000100: f7b1 4b3f ae30 423e c557 b7be 3fb5 22bf
00000110: e116 a93d 4483 fc3e 4304 04bf c7ef e93f
00000120: f5f4 f2bd 78e4 1d3e a3f4 2a3e da86 9e3e
00000130: d66b 22bf b8e8 d8be 3426 523f f785 1f3d
00000140: 4143 5ebe f977 50bd bbdb 65bf 415b 88bf
00000150: f674 e0bf 1e29 4a3e 645d 4abf 28de b8be
00000160: f262 c13e f23a 9bbf 168b c6bd 7f2b f7be
00000170: 99e7 5a3e df71 d43d 6e2d f2be 32d7 193f
00000180: d01a 09bf 9b54 94be d90c 70be bed5 f2bf
00000190: 5182 493e b2ee a03f ae33 3abf 09f0 0b3f
000001a0: fdb4 903d ef82 dcbe 30d8 32bf 7a63 1abf
000001b0: cc3d 0a3e e5de e73d 2af9 eb3d 97a9 db3e
000001c0: 32ca 75be 64bb febd 543b febd 495c 2ebd
000001d0: 1304 1f3e 80dc 943d 4af4 013f 3917 13bd
000001e0: a9f1 13be fd5c ce3c e8bc 83be 27e3 013e
000001f0: 6794 f83d cd33 1c3d de4a f5bc b865 863d
00000200: 5ac1 81be 1924 10be 113c b53f f94b babf
00000210: 242e d3be 4431 843d 6dba ab3f 659d ce3e
00000220: bb06 c73f 8e40 6bbd ad23 61bf 5820 14c0
00000230: 543e 0f3e 2b9b f2bc cb59 a83d f50a 9c3f
00000240: dba3 5e3d 3e1c 053d 2d48 143d 1cf9 06bf
00000250: 68af 4d3d 67c8 66bd 487b 0cbd 267b 5c3c
00000260: 8fcd 1d3f de75 a6be e036 723c 1c1f eebc
00000270: 9871 34bd c2c8 31bd f674 053e 1739 7abd
00000280: cd73 37be 7c8c 6a3d 41b8 c53d bbfd 16bf
00000290: 3c03 063e 65e9 55be ca2d 1bbf 25d4 e2be
000002a0: e151 46be 3c9e 97be 1204 333f 0c70 3abe
000002b0: da82 e6be 0a95 b5bc 079e 643d 7f97 393f
000002c0: 5d70 393e b42b 6abd b072 883d fcdd 75be
000002d0: bf1c 883f 0dee 963f aa51 05c0 2f47 d8bb
000002e0: d985 eb3d 1b3c 873e 6750 2d3e 2b57 dd3d
000002f0: 8257 b33d ce55 b33e 8576 c73c dba3 d3bd
00000300: e1ac 5d3e 27a0 3dbe 742f a3bd 6d16 e6bd
00000310: d64e efbd 23ed 67bd 13b9 18be e494 ac3d
00000320: 4b36 753e d460 b93c 2388 803c 42b8 6ebe
00000330: 2ab8 b1bc a32c 463d e13f a6bd a4e1 60bd
00000340: 809c a5bd 94dc c2bd bd5b 183e 397a fe3a
00000350: 0fd8 a4bd 07e0 fbbd e5cb 443d 2a90 b83c
00000360: 6cc2 21bf a84e 18bf 24aa 5b3f 646b 10bd
00000370: 5ae1 933d 8c52 44bc d96e 6c3d 568c 153d
00000380: 7446 19bc 27e8 993d dde0 2dbd c655 d1bb
00000390: 188c e2bd 0a15 15be a535 b0bd 4a1c a8bc
000003a0: aa71 803d 708c ee3d 7dfe 0dbe a301 6f3d
000003b0: 9a8c d63d c478 07be db58 10bd 1063 8cbe
000003c0: 9dc1 29be 69c0 f33d 62f8 a1bd 3343 bebd
000003d0: cca3 84be 6227 cd3d d3d4 503d 6eb5 22be
000003e0: 9412 0c3e f4ec 8cbd 38b3 31bd fbbd 4abe
000003f0: 75ee 1ebf f1bf 44bf c8e3 b13f 3801 993e
-0.5583446 0.22492999 -0.51254153 0.34974566 -0.74245197 0.12107933 -0.70290726 0.06470111
-0.013644734 0.0018347799 0.33109018 0.2974769 -0.19235033 -0.96945107 0.058991693 0.21256945
-0.17080641 -0.18616478 -0.11713204 0.13419536 0.16340606 0.02704596 0.19464906 -0.48385534
-0.7535488 0.070383996 -0.058389053 -0.21919905 -0.305964 0.5521522 -0.046317767 -0.10698633
-0.7946989 0.3529601 0.25578508 -0.11201048 0.055495422 0.015442117 0.062573634 1.2653434
0.0134026995 8.558269e-05 0.08055155 0.15593016 -0.40682963 -0.06478924 0.29471722 0.3011264
0.02080503 0.025892926 -0.09475574 0.50691503 0.08501127 -0.13748069 0.09712917 0.4375815
-0.6863846 0.313461 -0.16943377 0.6695274 -0.0037755691 -0.8051883 -0.42604527 0.24655722
0.7956843 0.18963882 -0.3580915 -0.6355781 0.08256317 0.49318898 -0.51569 1.8276299
-0.11863128 0.15419185 0.16694884 0.3096226 -0.63445795 -0.4236505 0.82089543 0.03894612
-0.21705343 -0.050895665 -0.8978841 -1.0652848 -1.7535694 0.19742247 -0.7904875 -0.36106992
0.37770802 -1.2127364 -0.09694497 -0.48275372 0.2137741 0.10373282 -0.47300285 0.60093987
-0.5355654 -0.289708 -0.23442401 -1.8971479 0.19678618 1.2572844 -0.72735107 0.5466314
0.07065771 -0.43068644 -0.69861126 -0.6030804 0.13500136 0.11321811 0.11522134 0.42902824
-0.24002913 -0.12438086 -0.1241366 -0.04256848 0.15528898 0.072686195 0.5076338 -0.03591082
-0.14447655 0.025190825 -0.25730062 0.12684308 0.121376805 0.03813534 -0.029942926 0.0656237
-0.25342828 -0.1407627 1.4158956 -1.4554435 -0.4124614 0.06454709 1.3416268 0.40354457
1.5548929 -0.05743461 -0.8794506 -2.314474 0.1398862 -0.029615005 0.08220252 1.2190844
0.054355484 0.032497637 0.036201645 -0.5272386 0.05021611 -0.056343462 -0.034297258 0.013457095
0.6164178 -0.325118 0.014783591 -0.029067568 -0.044053644 -0.04340435 0.13032898 -0.0610896
-0.17915268 0.057262883 0.09654284 -0.5898091 0.13087171 -0.20889814 -0.60616744 -0.44302478
-0.19367172 -0.2961291 0.69928086 -0.18206805 -0.45021707 -0.022165794 0.05581477 0.7249679
0.1810927 -0.057170585 0.066625 -0.24010462 1.0633773 1.1791397 -2.0831094 -0.0066002826
0.11500139 0.26413044 0.16925202 0.108076416 0.08756925 0.350264 0.024348507 -0.10333987
0.2164798 -0.18518125 -0.07968035 -0.11234746 -0.11684959 -0.056622636 -0.1491435 0.08426836
0.23946492 0.022629179 0.015689915 -0.23312476 -0.021694262 0.048382413 -0.08117653 -0.054902688
-0.08086491 -0.09514728 0.14878745 0.0019415087 -0.080490224 -0.12298589 0.04804601 0.02252968
-0.6318729 -0.5949502 0.8580649 -0.035258666 0.07220717 -0.011982571 0.0577229 0.036510788
-0.009355176 0.07514983 -0.042450774 -0.006388399 -0.11061877 -0.14558807 -0.08603982 -0.020521302
0.0627168 0.1164788 -0.13866611 0.05835117 0.10476036 -0.13229662 -0.03524099 -0.2741933
-0.16577764 0.11901934 -0.079087034 -0.09290161 -0.25906217 0.10017277 0.050984215 -0.15889522
0.13678962 -0.06881133 -0.043383807 -0.19799034 -0.62082607 -0.7685538 1.3897638 0.29883742

final.linears.0.bias f4 [72]
00000000: 61a4 913e 9ff6 65bd 1411 d93e 7ff6 af3d
00000010: a041 d2be e0fe 023f ff23 2f3e 8cac 223e
00000020: fa4a a53e 5a8c b8be e593 b7be a52d 813e
00000030: f3f0 61be 885f 2fbf 6e1f 0f3b 0d78 f3bc
00000040: 13f4 b33d 8b12 03bf 95d0 6dbf 2c95 403e
00000050: 8597 edbe 3e49 263e af03 9c3e 0523 96bc
00000060: 9010 853d b2df cd3e 7639 21bd df07 ec3e
00000070: b297 0fbf df37 a3ba 5e50 3c3f 2a18 113e
00000080: 6b88 1ebf 5adf 28be 5bdb fc3c 280a b6bd
00000090: e460 f4bd 8845 0b3f 8ccd 93bb f212 b2ba
000000a0: 625f a63e c13e 9dbe 6241 3fbd 0bc0 3ebb
000000b0: a2ea 77be a2e8 2dbf 31cd e23e 7027 06bf
000000c0: 4445 d63d 3a5c 8a3e 07f1 d03e 25fd 973e
000000d0: c457 a7be bebf aebe 7b4b 90bc 0bfc 193e
000000e0: 41fb 01bf 50f1 43be 82da bd3c e600 5c3f
000000f0: 2e5b 05bd 6a10 a03e 6db3 73bf d6b6 263e
00000100: b5df 86bc ac96 f63e 1dec 21bc 4dd2 aa3d
00000110: 40bf 843e d72f 943b 4fa7 273f abac 3d3f
0.28445724 -0.0561434 0.42395842 0.08591937 -0.41065693 0.5117016 0.17103575 0.15886134
0.32283765 -0.3604458 -0.35855022 0.25230137 -0.22064571 -0.68505144 0.0021838802 -0.02972033
0.08786788 -0.5120017 -0.92896396 0.18806905 -0.46404663 0.16238877 0.3047156 -0.018327245
0.064973 0.40209728 -0.03936144 0.46099755 -0.56090844 -0.0012452564 0.7356013 0.14169374
-0.6192691 -0.16491452 0.030866316 -0.08888656 -0.11932543 0.5440297 -0.004510587 -0.0013585968
0.32494646 -0.3071194 -0.046693213 -0.0029106166 -0.24210599 -0.67933095 0.44297174 -0.52403927
0.1046243 0.27023488 0.4080889 0.2968532 -0.32684147 -0.34130663 -0.017614117 0.15037553
-0.5077401 -0.19135022 0.023175482 0.8593887 -0.03255766 0.31262523 -0.95195657 0.16280684
-0.016464094 0.4816183 -0.009882954 0.08340893 0.25927162 0.0045223045 0.6548967 0.74091595

final.linears.1.weight f4 [72, 72]
00000000: dcd8 91be 1f59 0bbf 06dd 18bf 0352 40bf
00000010: ebb2 06be 0eeb 81be b93f c4bd 8585 89be
00000020: b026 e0be 2819 6ebe b83b bcbe 7490 0ebd
00000030: 9618 1ebf f915 0dbf ad24 423b bc3f bebe
00000040: 26d6 ad3c 5c26 7fbe 928d d73e ea2f 4abe
00000050: 47a5 71bc ac4d 92bd 4636 2bbf 26be f1bc
00000060: 9d85 f3be e1e6 06bf 6c60 89be fb20 acbe
00000070: e812 a5be 7a0b 3abc abb9 26bf 441f 8cbf
00000080: c0fb f5be 2f0e 33bf f602 11be 5d0f 463e
00000090: 6924 40bf c1fd 92be 9392 89ba 17b5 5cbf
000000a0: c21b 57be c6ed 1fbd 0f35 ec3c a10e 4cbe
000000b0: 1533 fabe 50ee f33e 97c5 a9be b9c5 92be
000000c0: c1cf 9dbe 76b1 2fbf 56d6 9cbe 48c6 08bb
000000d0: 452d 0dbf 294f 653d 12f3 253d 709b f7be
000000e0: c68b 24bf 4b0e 16bf 6a61 49bf 079f f73b
000000f0: 4fc3 b43d f372 debe 858a dabf c27c 3ebf
00000100: 89e4 a7bd 5652 be3c 2202 0dbc c872 e8bc
00000110: 7e98 93bd 6b24 f8be 5bc2 55bf b9ed 4abf
00000120: e604 503d d732 06bd ed5a b6bc 00ee f5bb
00000130: 0d83 7f3d 9ffa 56be 3ac4 12be 664a 02bc
00000140: ff0a 833e 7577 093d b7da 1fbc 59d4 b5bc
00000150: d924 46bd b5fa 69bb 5c2a a23b 57b5 9a3d
00000160: ae74 423c edbf c23d 2082 53be f6dd 973d
00000170: 7a72 b93c eac3 52bd 5642 74bd 1958 863c
00000180: c7fc bdbc 4a80 b5be 2158 bcbd 8154 c93c
00000190: a1c5 3abc da5f 8fbb 55b5 09be 4d64 5f3c
000001a0: b7f2 553c 15e1 043c 27b1 143e 0172 363d
000001b0: da6b c13a bc59 3f3d 27c5 82bb e776 a83d
000001c0: ecf8 c3bd d708 493c d5e0 d53c 7c48 803d
000001d0: 27b2 e0bc aa5e 7b3e 0c63 c0bd 725b 9d3b
000001e0: b1fe 52bd a0fa deba 4a54 6bbe 88f4 0c3d
000001f0: 2808 433e ca31 363e c5fb d83d c411 c6bc
00000200: 1491 cd3d 8cdc 1dbb 33f4 8f3d a6cd 0fbe
00000210: 7c0a 973e 377a d23a 38b4 4dbe 1e31 943d
00000220: 8521 903d e83a 8dbc c931 02bc cad1 52bd
00000230: 103c babd 1d6f af3d 58ad 883d 9de5 0a3d
00000240: 23c7 b3be 376f 60bf 71ce 3dbf 00c9 4bbf
00000250: e071 a4be 7924 63be 0273 45be 7344 b3be
00000260: fdd5 60bf e732 a0be 5de5 3fbf d1ec 833d
00000270: ab68 03bf bafe dcbe c188 bebb dda6 37bf
00000280: 3793 423c db77 f03e ca90 133f ebf9 c3be
00000290: 0366 01be ffcf 623e 45ab 36bf 788f e3bd
000002a0: dbd8 01bf dadd 36bf d886 95bc 9e84 d7be
000002b0: 92c5 f7be f71d 223b 0e0d 14bf 766c 033e
000002c0: 4e00 6cbf 474a 3abf f09d 04be 9241 033e
000002d0: a278 55bf 6b38 4ebd 3abf 963b 53d9 10bf
000002e0: 41fc 87be 524b 84bc d02a 31bd f69b 12be
000002f0: 5d93 74bd 0c5d 083f a821 a4be cbb1 aebf
00000300: 1447 2a3d eb0d 2cbf 9841 b1be 8b73 33bd
00000310: a088 23bf 59cd b9bc cbf1 6bbe 28c4 9cbe
00000320: 1c1b 15bf d72d 14bf f221 32bf acdf 7ebe
00000330: c61b 82be 5c84 a9be 2dfb 1e3f d19d 59bf
00000340: 7e91 15be 35e4 083d 5889 773c d695 fc3b
00000350: 2565 94bd 0b59 0abf 8816 80bf ea55 39bf
00000360: 6d8c 06be 840b 8bbb 3b2c 45be 5f44 8ebe
00000370: ec90 dc3d 01d3 8dbe 08ee 07be d617 b8be
00000380: 218a 99be 0ba0 523e ffb6 00bf 4125 113d
00000390: a73c 81be 481d 32bd db98 bd3b 6f7e 35bf
000003a0: 425e ec3d 1ea5 a23e ec0b 953e d31d 2bbe
000003b0: 1a15 0a3e 07a7 063e 0928 bdbe d569 803a
000003c0: f52f 7cbd 19fe cebd 3f62 4bbd 2e5a c4be
000003d0: 3603 11bf f91c 0a3c 6c67 8ebe b7e6 e8bc
000003e0: 6461 29bf 34da 13be 3a47 53bd 0fff 4cbe
000003f0: 2c82 d6be 9cda 20bd 2bfd 11bb a964 f1bd
-0.28485763 -0.54432863 -0.59712255 -0.7512514 -0.1315419 -0.25374645 -0.09582467 -0.2685968
-0.43779516 -0.23251784 -0.36764312 -0.03480573 -0.61756265 -0.5511165 0.0029623911 -0.37158
0.021220278 -0.24916977 0.42100197 -0.1974484 -0.014748878 -0.07143721 -0.6687969 -0.029509615
-0.47562876 -0.52696043 -0.26831377 -0.33618912 -0.32240987 -0.011355275 -0.65127057 -1.0947042
-0.48043633 -0.6994352 -0.14161286 0.19341798 -0.7505556 -0.28709224 -0.0010495953 -0.8621382
-0.21006683 -0.039045118 0.028833894 -0.19927455 -0.48867097 0.47642756 -0.33158562 -0.28666475
-0.30822566 -0.6863016 -0.30632275 -0.0020870138 -0.551472 0.055983696 0.040515013 -0.48360777
-0.6427578 -0.5861556 -0.7866427 0.0075567993 0.08826315 -0.43447074 -1.7073523 -0.74409115
-0.081978865 0.02323262 -0.0086064655 -0.028375044 -0.0720682 -0.48465285 -0.8349969 -0.79268986
0.05078592 -0.03276333 -0.022260154 -0.0075051785 0.06238084 -0.20994042 -0.14332667 -0.007952308
0.25594327 0.03356119 -0.0097567355 -0.022195982 -0.048374984 -0.0035702412 0.0049488973 0.07554119
0.011868639 0.09509263 -0.20655107 0.074153826 0.022637594 -0.05145637 -0.059633575 0.01639943
-0.023191823 -0.3544944 -0.09196497 0.024576427 -0.011399657 -0.00437544 -0.13448079 0.013634753
0.013058356 0.008110304 0.14520703 0.044542316 0.0014756874 0.046716437 -0.0039907875 0.08225804
-0.095689625 0.012270174 0.026108185 0.06263825 -0.0274287 0.2454783 -0.09393892 0.004802161
-0.051512424 -0.0017011948 -0.22981372 0.03441289 0.1904608 0.1779243 0.10594896 -0.024178393
0.10037437 -0.0024087755 0.07028999 -0.14043292 0.29500186 0.0016058151 -0.20088279 0.07235931
0.07037643 -0.017240003 -0.00794644 -0.0514696 -0.09093487 0.08566115 0.06673688 0.033910383
-0.35112867 -0.876697 -0.7414313 -0.79603577 -0.3211813 -0.22181882 -0.19282153 -0.3501316
-0.8782652 -0.31288835 -0.74959356 0.064416535 -0.51331586 -0.4316309 -0.005814642 -0.7173899
0.011875919 0.46966442 0.57642806 -0.3827661 -0.1263657 0.22149657 -0.71355087 -0.11111349
-0.5072152 -0.7143227 -0.018252775 -0.42093366 -0.48392922 0.0024737099 -0.5783242 0.12834343
-0.92187965 -0.7276959 -0.12950873 0.12817982 -0.83387196 -0.050346773 0.0046004327 -0.5658161
-0.26559642 -0.016149197 -0.04325372 -0.14317307 -0.05971085 0.5326698 -0.32056928 -1.3648008
0.04157169 -0.6720874 -0.34620357 -0.043811362 -0.6388035 -0.022680925 -0.23041455 -0.30618405
-0.5824449 -0.57882446 -0.69583046 -0.24890012 -0.25411814 -0.33108795 0.62102014 -0.85006434
-0.14606282 0.03342076 0.015108429 0.0077082915 -0.07245854 -0.5404212 -1.0006876 -0.7239672
-0.13139506 -0.004243316 -0.19255154 -0.27786538 0.10769829 -0.27700046 -0.13274395 -0.35955685
-0.29988196 0.20568864 -0.5027923 0.03543592 -0.25241587 -0.043484956 0.005786044 -0.7089605
0.11541416 0.317666 0.29110658 -0.16710596 0.13484612 0.13149653 -0.36944607 0.0009797165
-0.061569173 -0.10107059 -0.04965424 -0.38350052 -0.56645525 0.008429759 -0.2781328 -0.028430326
-0.6616423 -0.14438707 -0.0515816 -0.20019172 -0.41896188 -0.039270982 -0.0022276144 -0.117867775

final.linears.1.bias f4 [72]
00000000: 86c8 febd e054 f2be 63f8 6f3e 61c1 153e
00000010: c47f 923d 825f 5ebc 74a0 54bd 0820 413e
00000020: 62cc 823d 0f30 113c 0edf e6be 5331 28be
00000030: 94f8 e53c 40f0 1fbe 1e10 15be e644 01bf
00000040: 99a1 cabc 9c7c 333d 6336 b8bd 54ea 363e
00000050: 59cd 273e d271 68bb 8138 cabc 11aa 66be
00000060: 9288 653e b5cd 8b3c 3fde 76bb c266 dc3e
00000070: 42ba dd3c 3813 99be 9525 abbe 668b 49be
00000080: 5492 37be eab1 d8bd 8701 bdbd 23a7 433e
00000090: f780 c7bd ecc5 cabe cabf 91be 553d 3ebe
000000a0: 2847 993d a28a 42be a881 cd3c c2cb 67be
000000b0: 2666 3ebe aa8f 823c 80fe 403e fecd 963d
000000c0: 1ccb 25bd b31e 51be e456 e9bd 7788 d7bd
000000d0: 7c77 603e 77ff 493c e3ab 023b 1270 f0be
000000e0: 1be9 2bbe 269d 2d3e 47ce 0e3d 3189 9ebd
000000f0: 2437 953c 02c8 99be d018 c4be 4c3d 7e3e
00000100: f8e1 9abd 5551 f53d 9c03 1abd 1591 1ebb
00000110: 5371 3ebd 7bf4 04bd 7882 2b3d 1a31 8cbe
-0.124405906 -0.4733038 0.23434596 0.1462455 0.071532756 -0.0135725755 -0.051910833 0.18859875
0.06386639 0.008861556 -0.45092052 -0.16425066 0.028072633 -0.15618992 -0.1455693 -0.50495756
-0.024735259 0.04382001 -0.089947484 0.17862827 0.16386928 -0.0035468233 -0.024685146 -0.22525813
0.22415379 0.017065862 -0.003766909 0.43047148 0.027066354 -0.29897475 -0.3342711 -0.19682083
-0.17926913 -0.105808094 -0.09228807 0.19106726 -0.09741395 -0.39604127 -0.28466636 -0.18578084
0.07484275 -0.18998197 0.025086239 -0.22636321 -0.18593654 0.015937645 0.18847084 0.07363509
-0.040476903 -0.20421867 -0.11393526 -0.105240755 0.2192058 0.012328974 0.0019938878 -0.46960503
-0.16788141 0.16954479 0.03486469 -0.07741011 0.01821477 -0.30035406 -0.3830018 0.2482807
-0.07562631 0.119784035 -0.0376011 -0.0024195362 -0.046494793 -0.032459717 0.04187247 -0.27381212

final.linears.2.weight f4 [4, 72]
00000000: 30f6 bb3f ebd1 1cbe 6acf ab3f d4cb 023f
00000010: 15ac 2b40 a2f0 b13e 2559 68bf 062c 38bf
00000020: 5968 353e ec4c 9d3e 3632 3dbf a3c3 e3bd
00000030: b604 0abe b465 743f f759 6dbe 4f1b 0cc0
00000040: 107c 2c3d ee9a 773f 822f a3be 6161 1040
00000050: f5a5 adbf 7a27 abbb 0446 87bc e0d6 8dbe
00000060: dc9b b73e a5c3 0bbd fae2 13bb de3b 0f3e
00000070: 30b3 dd3d 817b 523f e16c b9bd 5276 b23f
00000080: 36ac 34bf 0edc 51bd 63e5 c53e 2ad2 cebe
00000090: 7c5c 1cbe 3b1e c7bd 6956 dbbd 8216 52be
000000a0: 47c7 cb3e 87be 0bbf 7465 b03e 3d67 b9be
000000b0: 8a38 0bbd 6207 b53d bbde 273f a5b0 363e
000000c0: fdc8 acbd 3f79 31bf fada 23bf 9b6c ddbe
000000d0: 1843 ac3d 8585 f9bf 822e 1ebb 535e 29bf
000000e0: 9c51 62bd b24e a7bf a27b 22c0 445b cb3f
000000f0: 856e fb3d ce69 bbbf 32f5 a8bf efb0 8e3e
00000100: edf1 803d 7172 dabb 77fa e33c 752d 2abb
00000110: 3a31 303e fb2a fc3e 1b8f 8bbe 5b16 3140
00000120: 82ab 0cc0 0ada 863d 74cf a33f 46d8 483f
00000130: c2e3 c5bf 5393 a13e 6d88 003f b886 29bf
00000140: 949c 3e3e 1d63 a8bc 2ac1 9e3c 3236 733f
00000150: 2298 3bbe d128 20c0 5619 32bf 085a 7d3f
00000160: d81f b23f 2b81 cdbe 9a8f a8be 5435 c33f
00000170: 8dfe cabf 7692 053c a9ce a3bd 5b0e 193f
00000180: d689 ddbd b701 d5bc b6c6 a73b 576c 85bd
00000190: 6ff9 fabd 1d1a 243f cc6b 233e 373c 4cbf
000001a0: d5fc 9abe 8bea f4bd 63a8 80bf c0cf fdbe
000001b0: 5de0 803e d229 e8bd 5c41 0f3d 9603 60be
000001c0: f15c bcbe 8910 513e 5a61 b23e d1e8 5a3f
000001d0: a7bd 1e3e aa7b 073e 913d 0e3f 6ef9 ff3d
000001e0: 1e47 ba3d 91db 3cbf 3c12 8a3f 27bd 0ebf
000001f0: e84c 07bd b48a 2c3f c3b5 803b ae75 083f
00000200: b236 a4be 3e87 e8bf dd77 b83f a694 cd3f
00000210: 0107 d53d 6ce0 4340 b989 d5bf 3c1e a33e
00000220: 2068 ffbd 9613 d5bb a5a3 cb3c 7042 beba
00000230: 7341 4cbd 9ddf a13e b89f 9fbe f2eb bebf
00000240: e80a 343f ec41 953d ee51 9f3f 814f af3e
00000250: 5448 adbf f1e4 af3e 2bc1 e73e e9e2 1cbf
00000260: de45 473e 0590 b83e 5a90 1e3f 8a88 69be
00000270: 9f14 65be b026 da3f d93d 0a3f 9e1e 8d3f
00000280: 22b0 b1bf 8b8c 00bf 0ffa 79be 678b c43f
00000290: df4d c4bf e36c 51bb 8849 2fbd 9869 08bf
000002a0: 68d0 8c3d 223c 00bd bc28 aeba dfe2 9dbd
000002b0: 244d 613c 8b89 c2bf 53a3 d5bd ae39 14bf
000002c0: 144b 893f 6e28 823f 0019 0e3f 369f d4be
000002d0: c7cf 81be 93b3 533e 31d5 743d 0281 59be
000002e0: 95a8 043b 7d03 12bf eab5 b13e 36f4 aabe
000002f0: 5e5e 09be e2df 20be a9dc 193f d488 553e
00000300: 0064 de3c 795b a33f a528 b9be cdae eabe
00000310: 8fa2 29bd e0fd 983f a203 e1b9 add5 3e3d
00000320: f0cb ad3e 7090 dbbf 6a31 8f3f e9f6 47c0
00000330: c37d da3d 0756 f4bf eed5 3e40 05cf da3e
00000340: 5c9c 823d 8c5e 363c 8431 183d af7f 3d3b
00000350: 75a1 10be d71c 5abf dcce 5bbe a0a7 acbf
00000360: ab7c 923d 7a8d 6a3c 57fd d83f 6158 2dbf
00000370: 65b4 c6bc 7f9a eebe 119a d03c 922d c1be
00000380: ec7b a93c 6470 ffbe bfb7 9b3c 08bf df3e
00000390: e47e 3ebf 8a78 29bd 18e7 e13e 6700 c1bc
000003a0: 4225 87bc 22e7 1fbd 5f12 28bf 54b8 b4bf
000003b0: 26dd fb3f 6add f33b 77f8 6b3f b011 e8bd
000003c0: e510 3240 9dbb b03e a0ad 223b 44e0 47bc
000003d0: edd3 28bc d7cf 5e3d 401a 523c 352e 01bd
000003e0: ebb6 e8bc 9d09 47bd 40a2 bb3d c174 513f
000003f0: 0b38 94be 1d28 11ba 9f3f 54bc abb0 99bd
1.4684505 -0.15314452 1.3422673 0.5109227 2.682378 0.347539 -0.90761024 -0.71942174
0.17715587 0.3072275 -0.7390474 -0.11121299 -0.1347836 0.95467687 -0.2317885 -2.1891668
0.042110503 0.9672078 -0.31872183 2.2559435 -1.3566271 -0.005223212 -0.016512878 -0.27703
0.358611 -0.034122128 -0.0022565708 0.13987681 0.10825193 0.822197 -0.0905397 1.3942358
-0.70575273 -0.05123525 0.3865157 -0.40394717 -0.15269655 -0.09722563 -0.10709841 -0.20516399
0.39800474 -0.54587597 0.34452403 -0.36211577 -0.033989467 0.08839299 0.65574235 0.17840822
-0.08436773 -0.6932563 -0.64006007 -0.43246922 0.084112346 -1.9493872 -0.0024136608 -0.6615955
-0.05525361 -1.3070891 -2.538796 1.5887227 0.12276939 -1.4641664 -1.3199828 0.27869365
0.06296144 -0.0066664745 0.027829392 -0.0025967036 0.17206278 0.49251541 -0.27257618 2.7669895
-2.197968 0.065845564 1.2797685 0.7845501 -1.5460131 0.31557712 0.5020817 -0.6622119
0.18614417 -0.020555073 0.019379217 0.9500457 -0.18319753 -2.5024912 -0.6956991 0.989655
1.3915968 -0.4013761 -0.3292206 1.525065 -1.5858933 0.008152595 -0.07998402 0.5978753
-0.10817306 -0.026001794 0.0051201237 -0.06514805 -0.12254607 0.64102346 0.1595909 -0.7977938
-0.3027102 -0.11958798 -1.0051388 -0.49572563 0.25171176 -0.113361016 0.03497444 -0.21876368
-0.3678966 0.20416464 0.34839898 0.855115 0.15502034 0.13230768 0.5556269 0.12498747
0.09095596 -0.7377253 1.0786815 -0.55757374 -0.033032328 0.67399144 0.0039279177 0.53304565
-0.3207298 -1.8166273 1.4411579 1.6060989 0.104017265 3.0605726 -1.6682655 0.31859004
-0.12471032 -0.006502579 0.024858305 -0.001451565 -0.049867105 0.31615916 -0.31176543 -1.4915755
0.7032914 0.07287964 1.2446878 0.34240344 -1.3537698 0.34354356 0.45264563 -0.6128374
0.19460246 0.36047378 0.61939013 -0.22805992 -0.22371148 1.7043056 0.5400062 1.1024969
-1.3881876 -0.5021445 -0.24411796 1.5355042 -1.5336264 -0.003195577 -0.042794734 -0.53286123
0.06875688 -0.031307347 -0.0013287286 -0.07709288 0.013751302 -1.5198225 -0.10431542 -0.5790051
1.0726037 1.0168588 0.55506897 -0.41527718 -0.25353834 0.20673971 0.059773628 -0.21240619
0.0020242084 -0.5703657 0.34709102 -0.33389443 -0.13414904 -0.15710405 0.60102326 0.20852977
0.027147293 1.276229 -0.36163822 -0.45836487 -0.041414794 1.1952477 -0.0004291805 0.046590496
0.33944654 -1.7153454 1.1186955 -3.1244452 0.106685184 -1.9088753 2.9818072 0.42736068
0.063774794 0.01113094 0.037156597 0.0028915217 -0.14124091 -0.85200256 -0.2146563 -1.3488655
0.07152685 0.014315957 1.6952313 -0.6771298 -0.02425594 -0.46602246 0.02546409 -0.3773008
0.020688973 -0.49890435 0.019008515 0.43700433 -0.7441237 -0.04137472 0.44121623 -0.023559762
-0.016497258 -0.039038785 -0.6565303 -1.4118752 1.9676864 0.007442166 0.92176 -0.113314986
2.7822812 0.34518138 0.0024822727 -0.012199465 -0.010304433 0.05439743 0.012823641 -0.031538207
-0.028407535 -0.048593152 0.09161806 0.8181878 -0.28949007 -0.00055372884 -0.012954622 -0.075044

final.linears.2.bias f4 [4]
00000000: 3908 b13e 61b0 a6bb 4901 04be 2c57 a6bd
0.34576586 -0.005086944 -0.12891115 -0.081220955

layers.0.attn.0.gnn_q.weight f4 [4, 16]
00000000: 66ff 0680 d630 0180 2882 0480 5a54 0d80
00000010: 88db 0e00 15f7 1580 e0fc 1280 2b4a 0500
00000020: 5e0e 0f00 e32f 0180 d7b0 0b80 9358 0e80
00000030: 04ef 1180 9da0 1880 3293 2680 aa61 2a00
00000040: 98f8 0900 116f 0000 e32d 1b00 6d8a 0d80
00000050: 6529 0400 f6a7 1900 76aa 2280 8e17 1380
00000060: 6ade 0a00 1a4e 1b00 b7a3 1880 a71b 0180
00000070: e43c 0f80 2ea9 2280 ba52 1e00 6cb6 1e00
00000080: 7700 1300 9c47 0b00 338d 0e00 0fa9 0500
00000090: e1d9 1180 7ea3 2280 2b59 0d80 bb02 1680
000000a0: f457 0d80 2b2e 1300 cee5 0d80 8fe6 2280
000000b0: 8d29 1380 d856 0d80 c36f 0a00 1fa2 0500
000000c0: 2b87 2a00 e99e 1880 769c 1880 47c4 1600
000000d0: 7409 0580 80f3 0900 90da 0e00 4e6d 1300
000000e0: 61a0 1800 ddd7 1680 ce55 0d00 92ff 0080
000000f0: 227a 0100 c33f 0f80 e046 0500 11fa 0b80
-6.42633e-40 -1.09355e-40 -4.14033e-40 -1.224121e-39 1.36445e-39 -2.017182e-39 -1.743753e-39 4.85784e-40
1.382686e-39 -1.09014e-40 -1.073629e-39 -1.317471e-39 -1.646946e-39 -2.261669e-39 -3.542553e-39 3.892126e-39
9.15698e-40 3.9843e-41 2.49602e-39 -1.243519e-39 3.82192e-40 2.35614e-39 -3.183557e-39 -1.753324e-39
9.98142e-40 2.507576e-39 -2.262782e-39 -1.01755e-40 -1.399376e-39 -3.183097e-39 2.784742e-39 2.820506e-39
1.745041e-39 1.035879e-39 1.33635e-39 5.19824e-40 -1.639364e-39 -3.181057e-39 -1.225849e-39 -2.02136e-39
-1.225413e-39 1.761436e-39 -1.2763e-39 -3.205116e-39 -1.75978e-39 -1.225015e-39 9.58448e-40 5.17336e-40
3.90558e-39 -2.261058e-39 -2.26018e-39 2.090792e-39 -4.62569e-40 9.13871e-40 1.364102e-39 1.784086e-39
2.261585e-39 -2.097818e-39 1.224642e-39 -9.1681e-41 1.35648e-40 -1.400406e-39 4.84603e-40 -1.099897e-39

layers.0.attn.0.gnn_q.bias f4 [16]
00000000: 9eb2 1e00 71f8 0900 d0cc 0d00 407b 0400
00000010: c319 0f00 02a0 2280 5e20 0700 bd71 0c00
00000020: f09f 0580 5316 0e00 aa54 0d00 dfeb 1b00
00000030: 145a 0b80 e242 1380 4da9 0580 8f34 0800
2.81914e-39 9.15643e-40 1.267334e-39 4.11556e-40 1.386774e-39 -3.179807e-39 6.5446e-40 1.142828e-39
-5.16552e-40 1.293705e-39 1.224233e-39 2.564173e-39 -1.042504e-39 -1.768867e-39 -5.19911e-40 7.53538e-40

layers.0.attn.0.gnn_k.weight f4 [4, 16]
00000000: 65fd 0600 1e6e 1f80 5899 0400 6998 0080
00000010: a9a8 0580 74d6 0a80 69a7 1880 7bb8 1e80
00000020: 33db 1800 5221 0780 8150 1b00 74b2 0a80
00000030: 8938 0500 9640 0f80 3bae 1000 c5ab 2a00
00000040: c1f7 1280 aa3f 0880 7b56 0180 95a0 1880
00000050: 8dd4 0a80 b1d1 1180 8a7d 2a80 63b9 1980
00000060: f005 1380 20f3 0b00 fbaf 1480 bb9e 1600
00000070: 208d 1a80 51f9 0b80 1ac5 1100 9706 2300
00000080: 2a4a 0400 d6fc 0600 b876 0a00 c2b2 0d80
00000090: 4afd 0980 fb5b 0180 20af 0a80 91a8 1800
000000a0: d49d 1800 1e09 1380 af24 0680 32ac 0a80
000000b0: aa3b 2500 2e2b 1300 b8f3 0980 1827 0500
000000c0: 866d 1e80 5ac7 0d00 4463 0080 45c8 1e00
000000d0: c09b 0000 4c28 1a00 71e7 1480 e206 1380
000000e0: 81a0 1880 603a 0180 08e9 2280 cc77 1380
000000f0: 1c5c 0e00 de04 1380 e731 0580 85c3 2680
6.41914e-40 -2.886403e-39 4.22351e-40 -5.4674e-41 -5.19681e-40 -9.95286e-40 -2.264107e-39 -2.821244e-39
2.282686e-39 -6.54802e-40 2.508438e-39 -9.82372e-40 4.79458e-40 -1.400702e-39 1.53187e-39 3.91871e-39
-1.741916e-39 -7.57522e-40 -1.22859e-40 -2.261658e-39 -9.94604e-40 -1.636427e-39 -3.902126e-39 -2.362392e-39
-1.747004e-39 1.097407e-39 -1.89984e-39 2.077323e-39 -2.438349e-39 -1.099628e-39 1.63191e-39 3.216606e-39
3.93947e-40 6.41713e-40 9.60943e-40 -1.257988e-39 -9.17382e-40 -1.24832e-40 -9.81178e-40 2.264522e-39
2.26067e-39 -1.748145e-39 -5.64173e-40 -9.80127e-40 3.419317e-39 1.760364e-39 -9.13949e-40 4.73202e-40
-2.794354e-39 1.265375e-39 -3.561e-41 2.826908e-39 5.5873e-41 2.402179e-39 -1.919735e-39 -1.747344e-39
-2.26163e-39 -1.12777e-40 -3.206003e-39 -1.78785e-39 1.31874e-39 -1.74662e-39 -4.77079e-40 -3.559888e-39

layers.0.attn.0.gnn_k.bias f4 [16]
00000000: 1091 0500 252e 1300 7c08 1380 9862 0480
00000010: 7e59 1000 32a1 1880 df23 0e00 51db 0e80
00000020: ef53 1b00 a17e 0a00 85d8 0b00 c46c 0180
00000030: 3f4f 0200 a078 0600 90ae 2280 8f16 0e80
5.11216e-40 1.761428e-39 -1.747918e-39 -4.02711e-40 1.501472e-39 -2.261878e-39 1.298565e-39 -1.364373e-39
2.509668e-39 9.63781e-40 1.087863e-39 -1.30853e-40 2.12099e-40 5.94285e-40 -3.185028e-39 -1.29379e-39

layers.0.attn.0.gnn_v.weight f4 [4, 16]
00000000: 09a4 36bd ae39 3b3f c47c 3fbe 15fb 36bf
00000010: 6345 853e 2762 f93e 0012 ebbe e8d5 3e3e
00000020: fa62 59bd 966a 803e 1885 cfbe 3b83 4dbe
00000030: 559c 7cba 6ecf cebe ccb2 703e e931 6fba
00000040: 8400 17bd cc8d d03e cc10 fabd 20ec 383f
00000050: 58de a23e d069 663e 6bcc 00bf 3fa4 2cbf
00000060: 6440 30bd 15de 37bf ded1 55be be98 1fbd
00000070: 6272 0f3b 3745 87bf 9d6a 253e 2c6c 9c39
00000080: b54d 10bd 735f 143e ec0d 19be 3a6b 283f
00000090: 10ad 263f 5a7c a83d 3f88 d93d 6f97 493f
000000a0: 2c41 27bd 421d 81be 9935 77bf 975b 10bf
000000b0: 18e9 db3a 41e2 ac3e a65b d33e 9e5a 40bb
000000c0: 77a3 eb3b 39dc 29bf 5ffa a53e 4b92 3abf
000000d0: 060f 5fbf cc54 063e 400b 44bf a99f e6bd
000000e0: 9226 a1b7 2b77 97bf 9f0a 3bbf 5d07 89be
000000f0: 617b 633b ec63 ed3e 311a 3cbe 9e9b 9a39
-0.04459003 0.7313489 -0.18699938 -0.7147687 0.260295 0.48707697 -0.4591217 0.18636286
-0.053072907 0.2508132 -0.4053123 -0.20069592 -0.00096363324 -0.4039263 0.23505706 -0.00091245637
-0.036865726 0.40733182 -0.12210235 0.722353 0.3181026 0.22501302 -0.5031192 -0.6743812
-0.043030158 -0.71823245 -0.20880839 -0.038964026 0.0021888246 -1.0567998 0.16153951 0.00029835233
-0.035230357 0.14489536 -0.14946717 0.65788615 0.6510782 0.08226843 0.1062169 0.78746694
-0.040833637 -0.25217634 -0.9656616 -0.56389755 0.0016777841 0.33766368 0.4128086 -0.0029350887
0.0071911174 -0.6635166 0.3241758 -0.72879475 -0.871323 0.13118285 -0.76579666 -0.112609215
-1.9210656e-05 -1.1833242 -0.7306308 -0.2676343 0.003471099 0.46365297 -0.18369366 0.00029489113

layers.0.attn.0.gnn_v.bias f4 [16]
00000000: eb07 323d af88 18bf ace1 303e 826e c83e
00000010: ec46 9abe 24b2 c9be d52d bf3e 31c9 2dbe
00000020: 947e 553d 6fe8 bbbd 1a1a dd3e 1ee8 673e
00000030: 27d7 533a e5da b33e 6f78 7dbe 10f4 433a
0.043464582 -0.5958356 0.17273587 0.3914681 -0.30132234 -0.39393723 0.37339655 -0.1697128
0.052122667 -0.091751926 0.43183976 0.2264714 0.00080810714 0.3512794 -0.24752973 0.0007475028

layers.0.attn.1.gnn_q.weight f4 [4, 16]
00000000: 0f3a 0600 f6a3 2d00 6d37 0500 ba3b 0f00
00000010: fbcb 0080 6de9 0780 e737 0f80 ea47 1b00
00000020: fab5 0500 b417 1380 ff9e 0c80 3ea0 1880
00000030: 2355 0a00 c63e 0680 3cca 0a80 2622 1380
00000040: bbd1 1180 1bd8 0a80 bae2 1400 fb09 0600
00000050: 98e6 0000 40af 0a00 b848 0b80 913f 0480
00000060: 3f31 0f00 55c6 2a00 b16c 0480 0f57 0d80
00000070: ebee 2200 537d 0d00 168a 1e00 e7e5 0080
00000080: 1a60 1e80 5200 0180 0f24 0a80 c4d4 0d80
00000090: e776 0000 6ede 0080 51ab 1980 5a2b 0600
000000a0: c8e7 1400 1fcf 1f80 6756 0d80 13d8 0e00
000000b0: d865 0e00 7b2b 2400 8556 1c00 36a4 0500
000000c0: dd87 0d80 4922 1a00 b321 1a80 44e8 0a80
000000d0: db2e 0e00 1ba4 0680 93f9 1280 94f8 0900
000000e0: 2300 1300 c118 0500 a6aa 1480 98de 0e80
000000f0: c6a2 1800 d11c 1380 88a6 1080 27b0 1e00
5.7184e-40 4.191415e-39 4.7906e-40 1.398958e-39 -7.3174e-41 -7.26586e-40 -1.397586e-39 2.505356e-39
5.24458e-40 -1.753378e-39 -1.159063e-39 -2.261536e-39 9.48896e-40 -5.73532e-40 -9.90903e-40 -1.757125e-39
-1.63644e-39 -9.95879e-40 1.918044e-39 5.54593e-40 8.2721e-41 9.81223e-40 -1.036277e-39 -3.90145e-40
1.395199e-39 3.928239e-39 -4.06333e-40 -1.225092e-39 3.208114e-39 1.23882e-39 2.804601e-39 -8.2473e-41
-2.78954e-39 -9.195e-41 -9.3129e-40 -1.270187e-39 4.2654e-41 -7.9793e-41 -2.357344e-39 5.66565e-40
1.919857e-39 -2.921201e-39 -1.224857e-39 1.36321e-39 1.322232e-39 3.321676e-39 2.602431e-39 5.18085e-40
-1.2426e-39 2.400022e-39 -2.399812e-39 -1.001676e-39 1.302506e-39 -6.09883e-40 -1.742569e-39 9.15692e-40
1.744923e-39 4.68058e-40 -1.897927e-39 -1.365549e-39 2.262444e-39 -1.755212e-39 -1.529108e-39 2.818256e-39

layers.0.attn.1.gnn_q.bias f4 [16]
00000000: 87c3 1600 a524 1a00 42b7 1e00 1922 1c00
00000010: 1c14 0500 3e6a 1300 5d4e 0680 de19 0500
00000020: ecdc 1100 ba1c 0080 a281 0d80 e8fb 1200
00000030: 60c6 0600 9d32 0e00 8c26 1a80 0fcc 2200
2.090523e-39 2.400868e-39 2.820805e-39 2.583626e-39 4.66391e-40 1.782987e-39 -5.79124e-40 4.68457e-40
1.640455e-39 -1.0305e-41 -1.240365e-39 1.743406e-39 6.22177e-40 1.303854e-39 -2.401551e-39 3.19561e-39

layers.0.attn.1.gnn_k.weight f4 [4, 16]
00000000: faf5 1280 4b1f 1380 85c8 1f80 802f 0580
00000010: 3ae5 0900 ecc5 2280 e52f 0e00 1c3e 2a80
00000020: 023f 0680 9e04 0000 3add 0e80 116b 0080
00000030: 5928 1380 31a8 0000 9fea 1680 b7d2 0680
00000040: 366d 1e00 8089 2a00 3138 0680 2396 1a00
00000050: 1cd4 0a00 9087 0400 82f0 0980 8bd0 0d80
00000060: a98d 0b80 5c48 0480 5973 0000 71b3 2180
00000070: baac 1400 97ce 0b00 44e3 1b00 5183 0480
00000080: b50f 0500 5e21 1300 2003 0a00 3a2d 0680
00000090: 7543 2580 fdd9 0e80 6e2a 1a00 9a5f 0180
000000a0: 08ae 1e80 5da7 1880 dea0 1400 7b38 0500
000000b0: 9504 0080 4cfa 1200 1269 0e80 fbb2 1180
000000c0: 71e5 1400 8820 1380 faeb 1480 f759 2a80
000000d0: f532 0f80 51f7 0900 b343 0680 6aea 0000
000000e0: 1649 0b80 712e 0500 1368 1380 d9c2 1480
000000f0: 113d 1a00 cca1 0080 12ef 1400 97fd 0d80
-1.741279e-39 -1.7561e-39 -2.918833e-39 -4.76217e-40 9.0875e-40 -3.193408e-39 1.302878e-39 -3.879371e-39
-5.73616e-40 1.656e-42 -1.365058e-39 -3.8408e-41 -1.759348e-39 6.0336e-41 -2.104547e-39 -6.26603e-40
2.794242e-39 3.906417e-39 -5.7117e-40 2.441582e-39 9.94445e-40 4.15973e-40 -9.12797e-40 -1.268673e-39
-1.061009e-39 -3.933e-40 4.1379e-41 -3.094943e-39 1.898673e-39 1.084301e-39 2.561086e-39 -4.1445e-40
4.64812e-40 1.756844e-39 9.19476e-40 -5.67237e-40 -3.422112e-39 -1.363896e-39 2.402944e-39 -1.26131e-40
-2.817496e-39 -2.26409e-39 1.894418e-39 4.79439e-40 -1.644e-42 1.742829e-39 -1.323389e-39 -1.62541e-39
1.919018e-39 -1.756544e-39 -1.921362e-39 -3.889364e-39 -1.395812e-39 9.1524e-40 -5.75299e-40 8.4092e-41
-1.036409e-39 4.75838e-40 -1.782209e-39 -1.906608e-39 2.40963e-39 -5.8042e-41 1.922472e-39 -1.284832e-39

layers.0.attn.1.gnn_k.bias f4 [16]
00000000: ae9c 1880 fa3d 0b00 6fe0 0980 07f1 0580
00000010: 4226 1a80 22d6 0b80 bf83 1680 d066 0e00
00000020: 5892 1a00 4e61 0100 bb61 1b00 ea3c 0f00
00000030: 1478 0400 6204 2300 e767 0680 e619 1300
-2.260258e-39 1.032423e-39 -9.07031e-40 -5.45642e-40 -2.401447e-39 -1.087007e-39 -2.067643e-39 1.322579e-39
2.440221e-39 1.26742e-40 2.514617e-39 1.399384e-39 4.10418e-40 3.215815e-39 -5.88286e-40 1.754165e-39

layers.0.attn.1.gnn_v.weight f4 [4, 16]
00000000: 2d73 763d 1687 223a 1e81 14bb 4168 cbbd
00000010: da43 13bf 98d0 d83a 825c 54be 0d10 5ebb
00000020: 2590 e43a 8e71 dbb9 23cb 2239 c796 6cba
00000030: a984 cfbe 481d 8ebd 847d 0cbb 9bc9 0c3b
00000040: dca0 833e 6260 3bbb 1e3a ddbb aeb0 633e
00000050: 1b63 be3e 2064 3f3b 896c 5ebe dc0e 1ebc
00000060: 625f 8d3b cd9d 253b 1a40 b8bb e50e 383b
00000070: badb 00bf a32b 99bd 2f59 89bb a914 d93b
00000080: def1 c73d 59d6 3f3a b0de 02bb 8c41 653f
00000090: 03ba ce3d 3c20 c6b9 12a9 25be 6870 02bb
000000a0: 24f0 a43a ef85 34ba e2c9 c13b 6b1d de3a
000000b0: d9be bc3d e4ef 31bd 86b9 57ba 9529 283b
000000c0: f404 853f 34de 903c 3db4 0d3c 11f2 ffbd
000000d0: 94fc 16be f132 e53b fd5d 4dbe 6e70 acbb
000000e0: c236 043c 3e0f 3cbc fcbf 0b3c ff9a bcbc
000000f0: ca68 ec3e d98f 75be 638e 293c 9c2c 52bc
0.060168434 0.0006199939 -0.0022659968 -0.09931994 -0.5752541 0.0016541658 -0.20738414 -0.0033884079
0.0017437978 -0.0004185554 0.00015525198 -0.0009025153 -0.405309 -0.06939179 -0.0021437118 0.002148247
0.25708663 -0.0028591384 -0.006751313 0.22235367 0.37184986 0.0029203966 -0.2172109 -0.009647097
0.004314349 0.0025271059 -0.005622876 0.002808505 -0.50335276 -0.07479026 -0.0041915397 0.0066247773
0.097629294 0.0007318012 -0.0019969158 0.8955314 0.10094073 -0.0003778952 -0.16177776 -0.0019903425
0.0012583775 -0.0006886413 0.005913959 0.0016946023 0.09216089 -0.04344167 -0.0008229244 0.002565955
1.0392137 0.01768408 0.008648929 -0.124973424 -0.14744788 0.006994598 -0.20055385 -0.005262426
0.008069696 -0.011478243 0.008529659 -0.023023127 0.46173698 -0.23980655 0.010348889 -0.0128280185

layers.0.attn.1.gnn_v.bias f4 [16]
00000000: 0d6a adbd 050b f6ba 8174 0e3b 5978 9abd
00000010: 4072 b13e d9f1 b2ba 7947 453e 0369 363b
00000020: 838b 9bba 31c7 e43a f541 4b3a 48c5 9a38
00000030: f888 a53e d82a 803d bca5 923a 2637 12bb
-0.08467493 -0.0018771595 0.0021736922 -0.07542486 0.34657478 -0.0013652398 0.19265546 0.0027833588
-0.0011867139 0.0017454383 0.0007753664 7.380039e-05 0.3233106 0.06258172 0.0011188309 -0.0022310703

layers.0.mlp.linears.0.weight f4 [16, 4]
00000000: 04a6 1000 13e3 0680 536d 863a 305a 31ba
00000010: d494 0c00 bc79 0000 709b 733f 60cd 2c3e
00000020: e04e 1e80 4e2d 1380 3a52 40bf 0815 463e
00000030: 9494 1880 5ddf 0600 b40f 603c 1cc5 4d3e
00000040: a8dc 0e80 4c77 1280 c7e5 58bc e7f1 033f
00000050: 4fa3 0a80 d9a6 0580 9360 143f 0f81 36be
00000060: dff9 1200 cd15 0e80 aa4b bf3f 318f 9e3d
00000070: 4740 0480 1352 0100 ada0 1bc0 988f 72bc
00000080: e88d 1e80 894b 0700 321c 92be cf44 063e
00000090: e1af 0a80 42ee 0980 7c49 2ebf 23a9 4cbe
000000a0: 7f7d 0600 65b1 0e80 e42e f3be 5f37 1dbb
000000b0: 0dcc 2280 58cc 0580 d1d3 23be b3ba e73d
000000c0: d4ce 2a80 8ee6 0980 89f2 91be 304d 1fbf
000000d0: ff56 0e80 38b4 0a00 e130 343f 1435 3dbe
000000e0: 8bee 0900 7dd0 1880 5d13 c73f 49dd 18be
000000f0: c670 0c80 190a 0680 fe06 f5be d2b7 473e
1.528923e-39 -6.32472e-40 0.001025597 -0.0006765453 1.155415e-39 4.367e-41 0.95159054 0.1687522
-2.78336e-39 -1.761127e-39 -0.7512547 0.1934396 -2.257352e-39 6.3114e-40 0.013675619 0.20094723
-1.364853e-39 -1.695835e-39 -0.013238377 0.5154099 -9.76939e-40 -5.19031e-40 0.5795986 -0.1782267
1.742676e-39 -1.293518e-39 1.4944966 0.07742155 -3.904e-40 1.21278e-40 -2.4316819 -0.014804743
-2.805971e-39 6.69945e-40 -0.28537136 0.13112186 -9.81448e-40 -9.1199e-40 -0.6808088 -0.19986396
5.96032e-40 -1.349334e-39 -0.47496712 -0.0023989303 -3.195606e-39 -5.32482e-40 -0.1599877 0.11314907
-3.931287e-39 -9.09227e-40 -0.28505352 -0.62227154 -1.316905e-39 9.83005e-40 0.70387083 -0.18477279
9.12093e-40 -2.278843e-39 1.5552784 -0.14928164 -1.142481e-39 -5.54635e-40 -0.47856897 0.19503716

layers.0.mlp.linears.0.bias f4 [16]
00000000: 9e29 163b a07e d3be e689 083d 01ab f9bd
00000010: 397d abbe 04c3 5dbe 7114 0bbf 481f 81be
00000020: bafa 1cbd c53d 313e 05c9 8e3e 3a44 26bd
00000030: c605 b83e 47bb b4be 46dc 08bf f38c 25bc
0.002291299 -0.41307545 0.033334635 -0.121908195 -0.33493975 -0.21656424 -0.54328066 -0.25219178
-0.03832505 0.1730872 0.2788774 -0.04059241 0.35941905 -0.3529913 -0.5346111 -0.010104406
